test_cnn.onnx (onnx, 67789 bytes, 6 tensors)

conv1.weight f4 [16, 3, 3, 3]
-0.097214416 -0.15563597 0.17988591 0.05145465 0.0034938753 0.04742326 0.16865413 -0.072650515
0.0053818077 0.14114137 0.05132702 0.17016865 -0.12251887 0.10365386 -0.0072681606 0.10536675
-0.09465917 -0.08106421 -0.03763391 -0.0862651 0.03484766 -0.044061065 0.1571093 0.18475543
0.18155344 -0.08201537 0.15283765 0.07692288 0.11604996 -0.03250453 -0.16808428 -0.045432523
0.06695853 -0.03278841 0.15291728 0.06514253 0.12434395 -0.1613242 0.06248544 -0.12713009
0.0822262 0.13494457 0.15240295 -0.01403673 -0.0020796508 -0.080357715 -0.16524565 0.07561229
-0.084069796 -0.1820844 -0.1571263 -0.18862803 0.093936756 0.08602439 -0.08403774 -0.0398753
0.09836061 0.086036876 -0.092503056 -0.06536862 0.018408343 -0.12615177 0.08040519 0.046300918
-0.009537607 0.038309366 0.09129919 -0.0063186437 -0.07383739 -0.042555436 -0.039908633 -0.03776568
-0.14589179 -0.004335642 -0.021879375 0.0658911 0.13068034 0.15059389 0.05878587 0.07668643
0.10086809 0.018639237 0.15630485 0.12077756 0.032567024 0.03211227 -0.090758696 -0.101433896
0.113694 0.1480347 0.10122608 -0.010770097 0.015294015 -0.02483876 -0.036260515 0.16841517
-0.12138761 0.076837435 -0.12014879 0.06283043 -0.079975866 -0.10826777 0.17961986 0.007662505
0.032284215 -0.11676494 0.10357718 0.18470083 -0.08499268 0.16169287 0.16411032 -0.008299068
-0.15035833 -0.075709835 0.046612695 -0.101967365 0.0663168 -0.025970757 0.1549908 -0.028655037
0.1296605 -0.030960143 0.13143073 0.06830944 0.05591263 0.12829868 0.07819776 -0.118772306
0.15621997 -0.15951097 -0.10895503 0.17320867 0.021708533 0.03325145 -0.07403373 0.06607978
-0.047901824 0.15408199 -0.019107088 0.06738113 0.16997127 -0.069246225 -0.17525771 0.14715491
0.06005524 -0.10123171 0.053791955 0.14742668 -0.17674163 -0.17468987 -0.09373255 -0.17011699
0.1401584 0.050307184 0.039542913 -0.05055131 -0.005551532 -0.049096987 -0.06916092 0.030726805
0.11275543 0.08682214 -0.19222641 0.053568706 -0.08798245 0.11664845 -0.038854644 -0.04461749
0.038003087 0.1319484 0.082356915 0.18080477 -0.07243819 -0.15166157 0.0031199306 -0.10377775
0.0005623549 -0.015947655 0.14397402 0.17865919 0.007996559 0.1537519 -0.17465612 0.04063137
-0.060095325 0.045011744 -0.13060452 -0.0753287 0.1907023 0.11800854 0.18650691 -0.19222017
-0.1502554 -0.12704465 0.12933804 0.15154184 -0.12463234 -0.15664913 -0.19133756 0.16731395
-0.05862257 -0.15137736 -0.18705566 0.053821668 0.13310505 -0.14502211 -0.0013393611 -0.0419143
0.12798168 -0.17763996 -0.10690672 -0.029015318 -0.08813672 -0.18854013 0.07585837 0.10145132
0.114886865 -0.15796706 -0.103577495 0.0956106 0.035310566 -0.11983906 0.08820154 0.055572867
0.1619279 0.04787135 0.16126393 0.04976055 -0.08690196 -0.10768608 0.16365613 0.11705561
0.050629362 -0.05667545 0.003292963 0.009383917 -0.0013753623 -0.12555617 -0.063336134 0.0322008
0.08321877 0.07392256 0.14442591 0.04994528 -0.051444635 0.17213087 -0.15958849 -0.095993996
-0.017733097 0.14779498 -0.11376149 -0.06456086 0.16711102 0.056358397 0.011808321 -0.18013899
00000000: 5a18 c7bd 095f 1fbe 0334 383e 1cc2 523d
00000010: 80f9 643b e43e 423d abb3 2c3e cbc9 94bd
00000020: e059 b03b 5d87 103e 483c 523d b140 2e3e
00000030: 2ceb fabd 7a48 d43d c029 eebb 86ca d73d
00000040: abdc c1bd fe04 a6bd 0426 1abd c2ab b0bd
00000050: 6cbc 0e3d 6079 34bd 43e1 203e 8730 3d3e
00000060: 25e9 393e adf7 a7bd 7981 1c3e be89 9d3d
00000070: 9aab ed3d 7823 05bd 491e 2cbe 7417 3abd
00000080: 8e21 893d 244d 06bd 5996 1c3e 7269 853d
00000090: 0aa8 fe3d 2c32 25be bcf0 7f3d 642e 02be
000000a0: 3666 a83d e92e 0a3e 850f 1c3e 50fa 65bc
000000b0: c04a 08bb 9692 a4bd 2836 29be 9eda 9a3d
000000c0: c92c acbd 5574 3abe b7e5 20be b527 41be
000000d0: ea61 c03d 8e2d b03d fb1b acbd 4854 23bd
000000e0: 4a71 c93d 1a34 b03d 3e72 bdbd fcdf 85bd
000000f0: 18cd 963c ee2d 01be 7aab a43d 08a6 3d3d
00000100: a043 1cbc 48ea 1c3d 12fb ba3d a00c cfbb
00000110: 0f38 97bd 9c4e 2ebd 3c77 23bd 30b0 1abd
00000120: a864 15be 0012 8ebb 603c b3bc eaf1 863d
00000130: 11d1 053e 4935 1a3e 74c9 703d c60d 9d3d
00000140: ee93 ce3d 50b1 983c 610e 203e 3a5a f73d
00000150: 0065 053d 2888 033d b2df b9bd 93bc cfbd
00000160: 66d8 e83d 6996 173e 9e4f cf3d 1075 30bc
00000170: c093 7a3c a87a cbbc e885 14bd 0775 2c3e
00000180: 119a f8bd f25c 9d3d 9210 f6bd 3ead 803d
00000190: 63ca a3bd 7ebb ddbd 45ee 373e c015 fb3b
000001a0: 743c 043d 7522 efbd 4620 d43d 3722 3d3e
000001b0: a410 aebd d192 253e 890c 283e d0f8 07bc
000001c0: 89f7 19be c20d 9bbd f4ec 3e3d 44d4 d0bd
000001d0: 1ad1 873d a0c0 d4bc e9b5 1e3e f8bd eabc
000001e0: b9c5 043e 20a0 fdbc c795 063e d2e5 8b3d
000001f0: a404 653d bb60 033e 2626 a03d e53e f3bd
00000200: 21f8 1f3e d856 23be d123 dfbd 9d5d 313e
00000210: 18d6 b13c ac32 083d ff9e 97bd d654 873d
00000220: b434 44bd abc7 1d3e 7886 9cbc 1eff 893d
00000230: f30c 2e3e f7d0 8dbd c276 33be c7af 163e
00000240: 7cfc 753d 9252 cfbd f454 5c3d 05f7 163e
00000250: c2fb 34be e7e1 32be daf6 bfbd 2633 2ebe
00000260: af85 0f3e e80e 4e3d c0f7 213d e40e 4fbd
00000270: a0e9 b5bb ec19 49bd 3ea4 8dbd c8b6 fb3c
00000280: 52ec e63d cecf b13d 00d7 44be dc6a 5b3d
00000290: 2530 b4bd 62e5 ee3d 0c26 1fbd d4c0 36bd
000002a0: 20a9 1b3d 7b1d 073e beaa a83d e324 393e
000002b0: 795a 94bd 2c4d 1bbe c077 4c3b 6e89 d4bd
000002c0: 006b 133a a8a4 82bc ed6d 133e 6ff2 363e
000002d0: 0004 033c 2371 1d3e 0ed9 32be 146d 263d
000002e0: 8426 76bd 3c5e 383d 31bd 05be ef45 9abd
000002f0: 7747 433e 76ae f13d abfb 3e3e 5dd5 44be
00000300: 8ddc 19be fe17 02be 3171 043e c92d 1b3e
00000310: 3e3f ffbd a168 20be feed 43be 5954 2b3e
00000320: 381e 70bd ab02 1bbe 858b 3fbe 1c74 5c3d
00000330: b14c 083e ad80 14be 808d afba 54ae 2bbd
00000340: a10d 033e 40e7 35be e9f1 dabd 88b1 edbc
00000350: 0681 b4bd aa10 41be a25b 9b3d b6c5 cf3d
00000360: ce49 eb3d 1ec2 21be 7020 d4bd 7ecf c33d
00000370: d0a1 103d 2e6e f5bd 02a3 b43d 60a0 633d
00000380: 6dd0 253e c014 443d 5f22 253e b8d1 4b3d
00000390: a8f9 b1bd 858a dcbd 7995 273e daba ef3d
000003a0: bc60 4f3d 8424 68bd c0ce 573b 00bf 193c
000003b0: 8045 b4ba cc91 00be 60b6 81bd fce4 033d
000003c0: 9a6e aa3d b664 973d 63e4 133e 6c93 4c3d
000003d0: 9cb7 52bd 1343 303e 2a6b 23be 8098 c4bd
000003e0: 0045 91bc 9157 173e c9fb e8bd 7c38 84bd
000003f0: 271f 2b3e 10d8 663d b077 413c 5b76 38be

conv1.bias f4 [16]
-0.123507 -0.1920551 -0.15615216 0.08060248 0.16747238 -0.08401159 0.12707017 0.101345286
0.1703927 -0.001463458 0.053609937 0.13343154 0.061633542 0.10526799 0.16829433 0.17538168
00000000: 3df1 fcbd 18aa 44be 5ae6 1fbe ea12 a53d
00000010: e17d 2b3e 450e acbd af1e 023e 1e8e cf3d
00000020: 6d7b 2e3e 80d1 bfba 1896 5b3d 47a2 083e
00000030: 7473 7c3d be96 d73d 5955 2c3e 4197 333e

conv2.weight f4 [32, 16, 3, 3]
-0.07600297 0.062194504 0.05824762 0.012701087 -0.068885915 0.037094533 -0.010318242 -0.062124155
0.023840584 -0.049312484 -0.053006064 -0.069728516 0.0012273788 0.018540151 -0.027637135 0.023451753
-0.038176924 -0.0461408 0.0031463727 -0.011351846 0.053662576 -0.019325726 -0.083257526 -0.037012517
0.04541669 0.052671336 0.038119346 0.009188384 -0.035216235 0.013172239 0.07178903 0.048187084
-0.0032262802 -0.04952871 0.079984866 -0.0017254576 0.08114768 -0.046302043 -0.07091072 -0.041546434
-0.07202758 -0.076364875 -0.011746682 -0.010835379 -0.015838511 -0.009257317 -0.049408488 -0.060657185
-0.048249356 0.012116753 -0.038809143 -0.046790153 0.0014554188 -0.046232216 0.07309269 0.050312378
0.060376473 -0.021460157 -0.06799458 -0.024399273 -0.024491668 0.009457983 0.015941821 -0.041239273
0.07400454 0.006966293 0.019800387 -0.048467647 -0.06202233 -0.05199364 -0.019801296 0.005315192
0.06344413 0.06978417 -0.028370969 0.0032258034 -0.07231217 -0.011272125 -0.014785282 0.06338588
-0.018065363 -0.0036988333 -0.06572868 0.017908968 -0.030673455 0.008448906 0.06093905 0.07177643
-0.038896352 0.06704993 0.0048019886 -0.037947804 0.08093674 -0.022868387 -0.0025794208 0.025426231
0.066576995 0.040167682 0.07145638 -0.07019436 0.041267306 -0.022819918 0.0057303905 -0.014191836
0.07666115 0.03115347 0.08264349 -0.025491219 -0.035461824 -0.060001962 0.05712203 0.026305683
-0.0010981187 -0.043055207 -0.026934486 0.024725132 0.0019072667 -0.03622046 -0.028806686 0.0263822
0.049471222 0.05579955 0.0034117624 0.065317936 0.050890036 0.029789098 -0.037317835 0.047596373
-0.0070856437 0.008944012 -0.010132521 0.057598166 0.028745376 -0.075988494 -0.0722469 0.032857336
0.079060234 -0.008600824 0.05307529 0.052872784 0.0031986535 0.009888746 0.080665596 -0.00197988
0.011889912 0.04420399 -0.0038391948 0.045634963 -0.063935935 -0.028235555 0.05786798 0.028488465
0.054084904 -0.0061692074 0.06914679 -0.04889565 0.08103929 -0.06660008 0.027898103 0.041286387
-0.019446492 -0.064548984 0.03776913 -0.038204223 0.00063008815 0.04163751 0.042047255 0.020277314
0.042067267 -0.0020996705 0.03898131 -0.0055435672 -0.060058646 -0.010305077 0.024671338 -0.0025306046
0.06475734 0.028518952 -0.0070644915 -0.08257082 0.0355533 -0.040000748 0.036438502 -0.06123682
0.07082892 0.037657768 -0.052871317 -0.07339761 -0.069662556 0.017477147 -0.024575453 -0.045111608
-0.03367765 0.08142396 -0.05906261 0.002868779 0.0014003217 0.029519789 0.03664931 -0.06861084
0.06015537 -0.063710034 -0.014848657 -0.080922365 0.059167527 -0.018886544 -0.079998076 -0.046548676
0.032972403 0.009798475 0.07877869 0.047533207 -0.03163325 -0.03248809 0.048246287 -0.08187473
0.07977056 -0.025337696 0.045235 -0.020526253 -0.06118405 -0.04794119 -0.05636307 0.05307568
-0.017715447 -0.07650428 -0.052882276 -0.04229958 0.045365132 0.050134383 0.02434031 0.031281807
0.027991496 0.071482785 0.027201153 0.017689653 -0.08205713 0.06503349 -0.005685441 -0.061843555
0.07881992 -0.018972106 -0.041665815 0.021474384 -0.07635042 -0.017905422 -0.04553212 0.0423233
0.013258755 0.054195233 0.06786362 0.08134184 0.016596965 0.007000871 -0.016851805 -0.024358194
00000000: 72a7 9bbd aabf 7e3d 0e95 6e3d 3818 503c
00000010: 0f14 8dbd 70f0 173d d80d 29bc e675 7ebd
00000020: 544d c33c e3fb 49bd e31c 59bd d3cd 8ebd
00000030: 00e0 a03a 84e1 973c 4667 e2bc e41d c03c
00000040: 685f 1cbd 23fe 3cbd 6033 4e3b 18fd 39bc
00000050: 4acd 5b3d fc50 9ebc ec82 aabd 709a 17bd
00000060: da06 3a3d e6bd 573d 0823 1c3d e08a 163c
00000070: e63e 10bd 60d0 573c 2106 933d d25f 453d
00000080: 0070 53bb 9ede 4abd 1bcf a33d c028 e2ba
00000090: c130 a63d 36a7 3dbd a439 91bd 982c 2abd
000000a0: 3283 93bd 3065 9cbd 2875 40bc e086 31bc
000000b0: c4bf 81bc 00ac 17bc 8e60 4abd ab73 78bd
000000c0: 1ea1 45bd 5885 463c 56f6 1ebd 08a7 3fbd
000000d0: c0c3 be3a fe5d 3dbd 9fb1 953d 5a14 4e3d
000000e0: 524d 773d 36cd afbc be40 8bbd fce0 c7bc
000000f0: c0a2 c8bc a8f5 1a3c 6c98 823c 83ea 28bd
00000100: b18f 973d 8045 e43b 6c34 a23c 0386 46bd
00000110: 200b 7ebd 48f7 54bd 5436 a2bc 102b ae3b
00000120: ffee 813d 01eb 8e3d 3c6a e8bc 0068 533b
00000130: 6718 94bd b8ae 38bc f83d 72bc 75d0 813d
00000140: d0fd 93bc 2068 72bb c29c 86bd d4b5 923c
00000150: e646 fbbc 486d 0a3c 3a9b 793d 85ff 923d
00000160: c851 1fbd 7951 893d 005a 9d3b 286f 1bbd
00000170: 29c2 a53d 7c56 bbbc 800b 29bb ac4a d03c
00000180: 8559 883d de86 243d b957 923d 10c2 8fbd
00000190: e807 293d d6f0 babc 00c6 bb3b e084 68bc
000001a0: 8500 9d3d 9035 ff3c fd40 a93d f6d2 d0bc
000001b0: 6b40 11bd 9ec4 75bd caf8 693d 047f d73c
000001c0: c0ee 8fba a85a 30bd b6a5 dcbc 5c8c ca3c
000001d0: 40fd f93a e85b 14bd 00fc ebbc 7c1f d83c
000001e0: 56a2 4a3d 128e 643d e097 5f3b 69c5 853d
000001f0: 1272 503d 4408 f43c 96da 18bd 6af4 423d
00000200: b02e e8bb e889 123c e002 26bc 0eec 6b3d
00000210: 6c7b eb3c db9f 9bbd 2ff6 93bd 6a95 063d
00000220: 55ea a13d 78ea 0cbc 7a65 593d 2291 583d
00000230: 80a0 513b 6804 223c 0134 a53d e0c0 01bb
00000240: e8cd 423c 3e0f 353d 009b 7bbb baeb 3a3d
00000250: d8f0 82bd 404e e7bc fa06 6d3d a460 e93c
00000260: 2288 5d3d 1027 cabb d59c 8d3d ce46 48bd
00000270: edf7 a53d 9f65 88bd 908a e43c ea1b 293d
00000280: 404e 9fbc 4232 84bd ceb3 1a3d 087c 1cbd
00000290: 802c 253a 188c 2a3d be39 2c3d 9c1c a63c
000002a0: ba4e 2c3d a09a 09bb deaa 1f3d d0a6 b5bb
000002b0: 0e00 76bd a0d6 28bc 8c1b ca3c 80d8 25bb
000002c0: 7f9f 843d 94a0 e93c 407d e7bb e41a a9bd
000002d0: 56a0 113d d3d7 23bd 8a40 153d 76d3 7abd
000002e0: c10e 913d 083f 1a3d 988f 58bd 7c51 96bd
000002f0: 3eab 8ebd 3c2c 8f3c 7652 c9bc f3c6 38bd
00000300: 93f1 09bd 9bc1 a63d a3eb 71bd 2002 3c3b
00000310: 008b b73a 7cd3 f13c 961d 163d d783 8cbd
00000320: 7a65 763d 687a 82bd c847 73bc a0ba a5bd
00000330: a659 723d f4b7 9abc 08d6 a3bd d3a9 3ebd
00000340: 120e 073d c889 203c b956 a13d 2eb2 423d
00000350: de91 01bd 3b12 05bd e69d 453d f0ad a7bd
00000360: bf5e a33d 0091 cfbc 5648 393d ac26 a8bc
00000370: 209c 7abd fb5d 44bd f6dc 66bd e265 593d
00000380: fc1f 91bc 47ae 9cbd 169b 58bd 5342 2dbd
00000390: cad0 393d b659 4d3d 5465 c73c 5a21 003d
000003a0: 6c4e e53c 9165 923d f4d4 de3c e4e9 903c
000003b0: 920d a8bd 4730 853d f04c babb ab4f 7dbd
000003c0: 576c a13d 646b 9bbc c6a9 2abd 0ceb af3c
000003d0: 9c5d 9cbd 64ae 92bc e37f 3abd 325b 2d3d
000003e0: 403b 593c d2fb 5d3d 15fc 8a3d 8d96 a63d
000003f0: 5cf6 873c 9067 e53b cc0c 8abc d68a c7bc

conv2.bias f4 [32]
-0.06877076 0.048145764 0.059293278 0.047598727 0.07668605 0.01508373 0.060817443 -0.0074723884
-0.020074666 -0.002313368 0.053367503 -0.030137867 -0.029646993 -0.072588526 0.07586337 -0.071725726
-0.072406545 0.06384627 0.03053186 0.031348027 -0.013740547 0.06917036 0.03981629 -0.051219285
-0.0020997524 0.076361634 -0.07446301 0.030257612 0.025620937 0.053667568 -0.00047705323 0.068911396
00000000: afd7 8cbd 7e34 453d 82dd 723d e2f6 423d
00000010: 930d 9d3d c021 773c b61b 793d f0da f4bb
00000020: a073 a4bc e09b 17bb e297 5a3d b0e3 f6bc
00000030: 40de f2bc 4ba9 94bd 415e 9b3d f0e4 92bd
00000040: e249 94bd d5c1 823d f41d fa3c ca66 003d
00000050: 0820 61bc 31a9 8d3d 6816 233d 50cb 51bd
00000060: 009c 09bb 7d63 9c3d 1080 98bd d0de f73c
00000070: 00e3 d13c 86d2 5b3d 001d fab9 6b21 8d3d

fc.weight f4 [10, 1152]
-0.012539864 -0.011313116 -0.021752037 0.003369188 0.00040658005 -0.0070109237 -0.02011995 -0.00073137507
0.019831778 -0.01675477 -0.0019938368 -0.024224361 -0.026823934 -0.0040739533 0.014057962 -0.025226424
-0.023676256 -0.008937338 0.019259239 -0.0043696314 -0.026015066 0.01581158 -0.0027667228 -0.016670488
-0.026458196 -0.0071035177 0.0056263264 0.013839813 -0.020539012 -0.0044515263 -0.021539709 0.005681487
0.024908254 0.0048859958 0.0048290994 -0.011711065 0.025075542 -0.004728431 -0.007182697 -0.008125639
-0.0029160697 -0.0143289175 -0.00012075715 0.016088167 0.013093585 0.00050609186 0.009310802 0.0154545065
0.028753484 -0.008272395 -0.023928083 0.023884142 0.02926472 0.0150964875 0.02191615 -0.009842975
0.007014638 0.00808117 -0.013769997 0.023198942 0.025516594 -0.0041458793 -0.016275484 -0.004788408
0.02516917 -0.021293912 -0.02252951 -0.02926694 -0.004576547 0.02848064 0.0006118603 -0.007022828
-0.0051286947 -0.027290491 0.01092956 -0.021727845 -0.0021542124 0.010415742 -0.025010386 -0.022537205
-0.02573608 -0.011132233 0.025265066 -0.005778378 0.016131947 -0.016259577 0.026543902 0.00019591302
0.018996226 -0.023303088 -0.011190375 0.01016481 0.0049741585 -0.016186547 0.021886451 -0.018071193
-0.018086523 -0.018140268 -0.025837554 -0.026505595 1.9788742e-05 0.024590371 -0.014219532 0.017872496
-0.0043952484 0.000494428 -0.025341809 -0.007226197 -0.015233515 0.023118956 0.0058673155 -0.002598729
-0.026027635 0.011269307 -0.007550953 0.017806495 -0.0079726 -0.019918362 0.022025613 0.00444982
-0.0027222969 0.024500886 0.020052752 0.016164223 0.024440287 0.025533019 -0.019026276 -0.011158047
-0.021861264 -0.023017304 0.0060942713 -0.016146973 -0.021111894 0.0091761295 -0.014731149 0.0065311063
0.01627745 -0.013484824 -0.029273702 -0.0029387213 0.024480468 0.018589796 -0.026168315 0.026426224
0.00015764683 0.011419883 0.0025828239 0.02226687 -0.024452459 0.0132978875 -0.018605147 0.01175317
0.005499268 0.024382683 -0.015684167 0.006882647 -0.0116528105 0.01598704 0.0037576426 0.014207425
0.010053409 -0.016382119 0.028657073 -0.003864374 0.0007952787 -0.022159861 0.022152135 0.016940204
-0.00030267797 0.02069796 0.006342536 0.011553517 -0.02462598 -0.0015658848 0.016022613 0.02192309
0.006043436 0.009673936 -0.0015708227 -0.00732683 -0.0043012574 -0.017551992 -0.0036348253 -0.02549157
-0.000552848 0.003483681 0.02197854 -0.027723134 -0.022821201 -0.0063774567 0.0099796485 -0.013938441
-0.0098569635 -0.016919456 -0.020509886 -0.019016918 -0.021855814 0.025726518 0.007993845 -0.015978053
-0.004631173 -0.015878603 -0.015081912 -0.02142736 -0.025435828 -0.010672007 0.02906398 -0.016805965
-0.028117958 -0.018420435 0.019723164 -0.021386605 -0.0074581616 0.01633695 -0.023564732 -0.021179613
-0.021524724 0.014956331 -0.0078073815 0.011063041 0.013365017 -0.018428614 0.006775396 0.012611927
-0.026090877 0.023555206 -0.00994247 0.02433093 -0.0012863223 -0.019703459 -0.012735935 0.0057567824
-0.0022074524 0.005820593 0.00045027584 0.0040574875 0.0056369733 -0.028901864 0.0056781154 -0.0032419153
-0.028259266 0.016835673 0.0067471173 0.025487525 -0.026055558 0.02748306 -0.008063223 -0.02426019
-0.021648912 -0.020050421 0.018712578 0.022135096 0.016248846 0.0058465954 0.018720387 -0.015835045
00000000: 0074 4dbc a65a 39bc 5431 b2bc 98cd 5c3b
00000010: 402a d539 e4bb e5bb 98d2 a4bc c0b9 3fba
00000020: 4176 a23c 4d41 89bc 08ab 02bb 2b72 c6bc
00000030: debd dbbc cc7e 85bb 5e53 663c a5a7 cebc
00000040: b5f4 c1bc ea6d 12bc 8dc5 9d3c 202f 8fbb
00000050: 8c1d d5bc 4987 813c e851 35bb 8c90 88bc
00000060: dcbe d8bc a0c4 e8bb 0c5d b83b 62c0 623c
00000070: 6e41 a8bc 1cde 91bb 0b74 b0bc c42b ba3b
00000080: 650c cc3c b41a a03b 6c3d 9e3b c4df 3fbc
00000090: 396b cd3c f4f0 9abb d45c ebbb 6621 05bc
000000a0: 881b 3fbb d6c3 6abc 003f fdb8 55cb 833c
000000b0: 7a86 563c 40ab 043a 568c 183c e634 7d3c
000000c0: 6d8c eb3c f088 07bc d404 c4bc ada8 c33c
000000d0: 91bc ef3c 4257 773c 7f89 b33c 6e44 21bc
000000e0: 0cdb e53b e266 043c 8e9b 61bc b50b be3c
000000f0: 2d08 d13c 28da 87bb 2a54 85bc 14e8 9cbb
00000100: 932f ce3c 9270 aebc cf8f b8bc 39c1 efbc
00000110: dcf6 95bb 3b50 e93c 4065 203a c01f e6bb
00000120: 9c0e a8bb 4f90 dfbc e611 333c 98fe b1bc
00000130: b02d 0dbb caa6 2a3c 95e2 ccbc f29f b8bc
00000140: 79d4 d2bc f863 36bc aff8 ce3c 8c58 bdbb
00000150: 2527 843c ce32 85bc 9972 d93c 006e 4d39
00000160: f99d 9b3c 1ee6 bebc d657 37bc 4e8a 263c
00000170: 44fe a23b a699 84bc 374b b33c 0a0a 94bc
00000180: 302a 94bc e69a 94bc 47a9 d3bc 4322 d9bc
00000190: 0000 a637 bf71 c93c 0af9 68bc 5769 923c
000001a0: 0406 90bb 809c 013a a099 cfbc bcc9 ecbb
000001b0: fe95 79bc f763 bd3c 9c42 c03b 704f 2abb
000001c0: e837 d5bc e6a2 383c fc6d f7bb edde 913c
000001d0: 829f 02bc d52b a3bc 0f6f b43c cccf 913b
000001e0: 9068 32bb 15b6 c83c ab45 a43c d56a 843c
000001f0: ff36 c83c 9f2a d13c fedc 9bbc 3ed0 36bc
00000200: 6516 b3bc c98e bcbc 74b2 c73b a846 84bc
00000210: daf2 acbc 7a57 163c eb5a 71bc e402 d63b
00000220: 4958 853c 74ef 5cbc 67cf efbc 9097 40bb
00000230: 438b c83c a149 983c ef5e d6bc cf7b d83c
00000240: 004e 2539 761a 3b3c 9844 293b 0369 b63c
00000250: 8650 c8bc 62df 593c d269 98bc 5e90 403c
00000260: 3433 b43b 31be c73c 157c 80bc d487 e13b
00000270: 6eeb 3ebc 41f7 823c c842 763b 42c6 683c
00000280: 0eb7 243c cb33 86bc 3dc2 ea3c 7041 7dbb
00000290: 407a 503a 9988 b5bc 6578 b53c 2fc6 8a3c
000002a0: c0b0 9eb9 c58e a93c 0cd5 cf3b f64a 3d3c
000002b0: 6cbc c9bc 603e cdba db41 833c 0d98 b33c
000002c0: 0408 c63b 6e7f 1e3c 10e4 cdba e815 f0bb
000002d0: 90f1 8cbb 32c9 8fbc 4036 6ebb b2d3 d0bc
000002e0: 00ed 10ba 784e 643b 570c b43c a01b e3bc
000002f0: 87f3 babc fcf9 d0bb ae81 233c 0f5e 64bc
00000300: 1a7f 21bc ac9a 8abc 5904 a8bc 5ec9 9bbc
00000310: f70a b3bc 6bc0 d23c 9ef8 023c 68e4 82bc
00000320: 18c1 97bb d813 82bc 201a 77bc 6e88 afbc
00000330: cc5e d0bc a4d9 2ebc 9517 ee3c aaac 89bc
00000340: a257 e6bc 74e6 96bc 7992 a13c f632 afbc
00000350: 9863 f4bb 11d5 853c d30a c1bc de80 adbc
00000360: 9e54 b0bc 660b 753c 10d5 ffbb c241 353c
00000370: f2f8 5a3c 9bf7 96bc 2404 de3b 42a2 4e3c
00000380: 89bc d5bc d9f6 c03c bee5 22bc a951 c73c
00000390: d099 a8ba 2669 a1bc 62aa 50bc 64a3 bc3b
000003a0: e8aa 10bb acba be3b 0013 ec39 acf4 843b
000003b0: 5cb6 b83b 9ac3 ecbc 7c0f ba3b 5076 54bb
000003c0: fa7f e7bc f7ea 893c ec16 dd3b 37cb d03c
000003d0: 7772 d5bc 2724 e13c 9c1b 04bc 4ebd c6bc
000003e0: 0f59 b1bc c840 a4bc 1f4b 993c a954 b53c
000003f0: 4d1c 853c cc94 bf3b 7f5b 993c 7fb8 81bc

fc.bias f4 [10]
-0.01059288 -0.025916709 -0.016769275 -0.0103727225 0.026773358 0.00871172 -0.013503175 -0.008963903
-0.011840599 0.020204889
00000000: c28d 2dbc 474f d4bc b85f 89bc 5af2 29bc
00000010: cd53 db3c 9abb 0e3c 6c3c 5dbc 56dd 12bc
00000020: 12ff 41bc b984 a53c
