test_transformer.onnx (onnx, 483601 bytes, 12 tensors)

embedding.weight f4 [1000, 64]
00000000: 38ae 863f b6c5 4e40 abc1 2ec0 cdab ddbf
00000010: 982e fd3d 716c b2bf 3122 f4bd cec6 103f
00000020: a860 7abf 7df4 6cbf aacd 723f 11ea 1940
00000030: a476 0e3f 3a9e 25bf 632a fd3a 087a 14be
00000040: 67a8 85be f8cd 6dbf 10a0 acbf e50f 7bbe
00000050: 2f89 633f 2bd2 d43f 29fd 9fbd f3d0 d0be
00000060: 5123 b9bd 9daa b93e 6df0 dfbe 7f3d dfbf
00000070: 5710 4bbe a288 9d3f 1f76 77bf 22a1 733f
00000080: 5526 38bf 7776 edbc 3420 853f 7d42 e7be
00000090: d8d1 a2bf 2f44 103f 9db9 f83d 1265 963e
000000a0: 3ded 013e ab42 52bf df6f 483e bc30 12bd
000000b0: 6f36 94bf 4db6 8cbc a25e 79be 4935 223e
000000c0: a50d 8b3f 6ad5 b5be b07f 09bf 701c bfbf
000000d0: da18 bbbf 8db9 e5be c9c7 883e 315f af3e
000000e0: 62cd 013f d8bd 74bf fd8e 573f 051b 72bf
000000f0: dc43 823f f491 e8be 106a 80bf aed4 323e
00000100: 469f 96bf 0663 0b40 aace d53e db74 5dbe
00000110: 0b29 de3e 84ec ccbf d21c 553e fc13 803f
00000120: fce8 4040 a7aa f83f c52a 6bbf 7576 52bf
00000130: 7be0 e53d 85c5 98be 4261 c8bf f2cd 65bf
00000140: e2b7 50bf 1585 81be af41 1dbf 4564 31c0
00000150: fdae 1c3f 6589 bcbe 1b2f 683e cb8c 48bf
00000160: fe26 b83f 82e7 163e 697c 0140 95bf 463e
00000170: a26d d4be 93ba 153f 7cae 863e 82c4 8c3f
00000180: d5c7 75bf 2a0b 183e 97d5 3e3f 022e 51bf
00000190: b11a 91bf b5f5 62be 9f5f 403e 1dec a73f
000001a0: 432f 0c3f fce4 76bf de08 cc3f 3fd0 333f
000001b0: 2bbb 69be d01d 5b40 f97f a2bf 8678 e73e
000001c0: ebbc 9a3f 567e 9e3e ee14 0840 d78d 4b3f
000001d0: 96bf 673f 13c1 b0bc 9761 f1be a589 90bf
000001e0: dba8 55be d365 97bf b204 923f 8dce c63e
000001f0: 4fac bf3d 0d57 a43e 96b8 ffbf 7665 16c0
00000200: 0f9f 12bf 562a 863f ef48 44bf 4224 dc3e
00000210: de48 f03c c7fb 763f 84d3 8ebf 8b45 11c0
00000220: 2b59 5ebf e295 91bf e5e2 e7be 197c 76bf
00000230: aef3 db3f 0653 b2bf 6788 773f ff47 09bf
00000240: 488a ea3e a342 81bf deab 26bf e11c 793f
00000250: 98f8 4b3f eb63 4a3f 7dee 4e3f e93c 673f
00000260: 3541 1740 e3c0 8a3f 05d6 843f a514 4f3c
00000270: 17e1 0bbf eb56 03bf 688b 7dbf 1b63 0abf
00000280: 9aaa 4a3e 5df1 cb3e 056d 043f ac17 8b3f
00000290: e477 efbd 7345 06bf 4b49 0e40 c3a5 9fbf
000002a0: 6534 d2bf fecd b23f a963 8abf 1e5c a83e
000002b0: 1cc9 f73e 502b 853f c96c a03e c1c0 e13d
000002c0: 5708 1440 87cd 9bbf c562 823f 4c96 70bf
000002d0: fbe2 0ac0 60bb 8e3f 0085 94bf 2933 11c0
000002e0: 4b83 2d3f 889b 23bf 1c32 bdbe 25d3 27bd
000002f0: 596a 903e 61b3 113f b56d e2bf 6f4a 093f
00000300: 9a35 ba3f f8bf ce3f 07f7 87bf 2672 523f
00000310: f579 a0be aea0 31bf 8c75 c4be b531 d3be
00000320: c27a 4a3d 43d6 98bf 1b3f 1e40 b936 8cbf
00000330: c866 903f db38 4f3f 523d 263f 8b45 a33e
00000340: 7f42 09c0 0d87 75be 3d11 fbbe 2cc7 f33e
00000350: 3683 8ebf bf05 9f3f d002 0d3e f012 d43f
00000360: 6876 d23e 3a2b 8fbe 9c42 ef3d 7bdc 1d3f
00000370: 16a0 acbf 2394 b6bf 2291 573f f8b7 03bf
00000380: f9f0 483f 4a19 97be ad14 d93e 65e6 23c0
00000390: cb46 403e a375 b53e f9bd cabe c5ab e43e
000003a0: af5d 2e3e ffbe 0a3e 56c0 66bf 4aea 293f
000003b0: 6fe9 a4be 31f1 a8bf 4ed7 043f 7d1c eb3e
000003c0: 2e70 89be 6734 953f 9935 803e 2b44 abbf
000003d0: 129a 10bf 0971 e73e 17e2 80be acb9 47bf
000003e0: 914f 85bf 3678 0040 a31b fcbe 1cb8 ebbc
000003f0: 61ed d2bc 5e9c 92bf 3934 3f3f 11ad f53e
1.0521917 3.2308173 -2.7305706 -1.7318054 0.12362403 -1.3939344 -0.11920584 0.5655335
-0.97803736 -0.9256056 0.9484507 2.4049113 0.5564978 -0.6469456 0.0019315 -0.14499676
-0.26105043 -0.9289241 -1.3486347 -0.24517782 0.888812 1.6626638 -0.07811958 -0.40784416
-0.09039939 0.3626298 -0.43738118 -1.7440642 -0.19830452 1.2307322 -0.96664613 0.95167744
-0.7193349 -0.028987153 1.0400453 -0.45167914 -1.2720289 0.5635404 0.12144778 0.29373986
0.12688155 -0.8213298 0.19573925 -0.035691008 -1.1579112 -0.017176772 -0.24352506 0.15840639
1.0863539 -0.35514385 -0.5371046 -1.4930553 -1.4616959 -0.44868127 0.26714924 0.34252313
0.50704014 -0.9560218 0.8420256 -0.9457248 1.0176959 -0.45423853 -1.0032368 0.17463943
-1.1767356 2.177919 0.41759235 -0.21626608 0.43390688 -1.6009679 0.20811775 1.0006099
3.0142202 1.9427079 -0.91862136 -0.82212 0.11224457 -0.29838195 -1.5654681 -0.8976737
-0.8153058 -0.25296846 -0.6142835 -2.771745 0.6120451 -0.36823574 0.2267422 -0.78339833
1.43869 0.1473675 2.0232184 0.1940902 -0.41489893 0.58487815 0.26304996 1.099747
-0.96008044 0.14848009 0.7454466 -0.8171083 -1.133627 -0.22164042 0.18786477 1.3118931
0.54759616 -0.9644315 1.5940206 0.70239633 -0.22825305 3.4236946 -1.2695304 0.4520914
1.2088903 0.30955762 2.1262774 0.79513305 0.9052671 -0.02157644 -0.47144768 -1.1292006
-0.20865194 -1.1827949 1.1407683 0.3882946 0.09359037 0.32097664 -1.9978206 -2.3499427
-0.57273954 1.048167 -0.7667379 0.42996413 0.02933162 0.9647793 -1.11583 -2.2698696
-0.8685481 -1.1373866 -0.45290294 -0.9628311 1.718374 -1.3931587 0.9669251 -0.5362548
0.45808625 -1.0098461 -0.65106 0.9730969 0.796762 0.7905871 0.80832654 0.90327317
2.363355 1.0840114 1.0377814 0.012639199 -0.54640335 -0.513045 -0.9904084 -0.5405747
0.19791642 0.39832583 0.5172885 1.0866599 -0.11692789 -0.5244972 2.2232234 -1.2472461
-1.642224 1.3969114 -1.0811664 0.3288278 0.48395622 1.0403843 0.31332996 0.11023093
2.313009 -1.2172097 1.0186392 -0.93979335 -2.1701038 1.1150932 -1.1603088 -2.2687476
0.6777846 -0.63909197 -0.36952293 -0.040972847 0.28206137 0.56914335 -1.768973 0.536292
1.4547608 1.6152334 -1.0622262 0.82205427 -0.31343046 -0.693858 -0.3837093 -0.4124886
0.049433477 -1.1940387 2.4726017 -1.09542 1.1281366 0.8094613 0.6493732 0.31888995
-2.1446836 -0.23977299 -0.4903659 0.47612894 -1.1133792 1.2423629 0.13770604 1.6568279
0.41105962 -0.27962667 0.116826266 0.6166455 -1.3486354 -1.4263958 0.8420583 -0.5145259
0.78492695 -0.29511482 0.42398587 -2.5609372 0.18777005 0.35441312 -0.39598063 0.446623
0.17027925 0.13549422 -0.9013723 0.6637312 -0.32209346 -1.3198606 0.5189103 0.45920172
-0.268434 1.1656617 0.25040892 -1.3380178 -0.5648509 0.45203426 -0.25172493 -0.7801769
-1.0414907 2.007337 -0.49239835 -0.028774314 -0.025747957 -1.145397 0.7468906 0.47983602

transformer.layers.0.self_attn.in_proj_bias f4 [192]
00000000: 0000 0000 0000 0000 0000 0000 0000 0000
00000010: 0000 0000 0000 0000 0000 0000 0000 0000
00000020: 0000 0000 0000 0000 0000 0000 0000 0000
00000030: 0000 0000 0000 0000 0000 0000 0000 0000
00000040: 0000 0000 0000 0000 0000 0000 0000 0000
00000050: 0000 0000 0000 0000 0000 0000 0000 0000
00000060: 0000 0000 0000 0000 0000 0000 0000 0000
00000070: 0000 0000 0000 0000 0000 0000 0000 0000
00000080: 0000 0000 0000 0000 0000 0000 0000 0000
00000090: 0000 0000 0000 0000 0000 0000 0000 0000
000000a0: 0000 0000 0000 0000 0000 0000 0000 0000
000000b0: 0000 0000 0000 0000 0000 0000 0000 0000
000000c0: 0000 0000 0000 0000 0000 0000 0000 0000
000000d0: 0000 0000 0000 0000 0000 0000 0000 0000
000000e0: 0000 0000 0000 0000 0000 0000 0000 0000
000000f0: 0000 0000 0000 0000 0000 0000 0000 0000
00000100: 0000 0000 0000 0000 0000 0000 0000 0000
00000110: 0000 0000 0000 0000 0000 0000 0000 0000
00000120: 0000 0000 0000 0000 0000 0000 0000 0000
00000130: 0000 0000 0000 0000 0000 0000 0000 0000
00000140: 0000 0000 0000 0000 0000 0000 0000 0000
00000150: 0000 0000 0000 0000 0000 0000 0000 0000
00000160: 0000 0000 0000 0000 0000 0000 0000 0000
00000170: 0000 0000 0000 0000 0000 0000 0000 0000
00000180: 0000 0000 0000 0000 0000 0000 0000 0000
00000190: 0000 0000 0000 0000 0000 0000 0000 0000
000001a0: 0000 0000 0000 0000 0000 0000 0000 0000
000001b0: 0000 0000 0000 0000 0000 0000 0000 0000
000001c0: 0000 0000 0000 0000 0000 0000 0000 0000
000001d0: 0000 0000 0000 0000 0000 0000 0000 0000
000001e0: 0000 0000 0000 0000 0000 0000 0000 0000
000001f0: 0000 0000 0000 0000 0000 0000 0000 0000
00000200: 0000 0000 0000 0000 0000 0000 0000 0000
00000210: 0000 0000 0000 0000 0000 0000 0000 0000
00000220: 0000 0000 0000 0000 0000 0000 0000 0000
00000230: 0000 0000 0000 0000 0000 0000 0000 0000
00000240: 0000 0000 0000 0000 0000 0000 0000 0000
00000250: 0000 0000 0000 0000 0000 0000 0000 0000
00000260: 0000 0000 0000 0000 0000 0000 0000 0000
00000270: 0000 0000 0000 0000 0000 0000 0000 0000
00000280: 0000 0000 0000 0000 0000 0000 0000 0000
00000290: 0000 0000 0000 0000 0000 0000 0000 0000
000002a0: 0000 0000 0000 0000 0000 0000 0000 0000
000002b0: 0000 0000 0000 0000 0000 0000 0000 0000
000002c0: 0000 0000 0000 0000 0000 0000 0000 0000
000002d0: 0000 0000 0000 0000 0000 0000 0000 0000
000002e0: 0000 0000 0000 0000 0000 0000 0000 0000
000002f0: 0000 0000 0000 0000 0000 0000 0000 0000
0.0 0.0 0.0 0.0 0.0 0.0 0.0 0.0
0.0 0.0 0.0 0.0 0.0 0.0 0.0 0.0
0.0 0.0 0.0 0.0 0.0 0.0 0.0 0.0
0.0 0.0 0.0 0.0 0.0 0.0 0.0 0.0
0.0 0.0 0.0 0.0 0.0 0.0 0.0 0.0
0.0 0.0 0.0 0.0 0.0 0.0 0.0 0.0
0.0 0.0 0.0 0.0 0.0 0.0 0.0 0.0
0.0 0.0 0.0 0.0 0.0 0.0 0.0 0.0
0.0 0.0 0.0 0.0 0.0 0.0 0.0 0.0
0.0 0.0 0.0 0.0 0.0 0.0 0.0 0.0
0.0 0.0 0.0 0.0 0.0 0.0 0.0 0.0
0.0 0.0 0.0 0.0 0.0 0.0 0.0 0.0
0.0 0.0 0.0 0.0 0.0 0.0 0.0 0.0
0.0 0.0 0.0 0.0 0.0 0.0 0.0 0.0
0.0 0.0 0.0 0.0 0.0 0.0 0.0 0.0
0.0 0.0 0.0 0.0 0.0 0.0 0.0 0.0
0.0 0.0 0.0 0.0 0.0 0.0 0.0 0.0
0.0 0.0 0.0 0.0 0.0 0.0 0.0 0.0
0.0 0.0 0.0 0.0 0.0 0.0 0.0 0.0
0.0 0.0 0.0 0.0 0.0 0.0 0.0 0.0
0.0 0.0 0.0 0.0 0.0 0.0 0.0 0.0
0.0 0.0 0.0 0.0 0.0 0.0 0.0 0.0
0.0 0.0 0.0 0.0 0.0 0.0 0.0 0.0
0.0 0.0 0.0 0.0 0.0 0.0 0.0 0.0

transformer.layers.0.self_attn.out_proj.weight f4 [64, 64]
00000000: 24b8 393d b08c 0cbd da8e 893d 8021 023c
00000010: 3833 b8bd 2e81 d4bd e0f3 cfbc 50d5 8ebc
00000020: d83a 8b3c 5edf babd 4851 d7bc 12d6 d53d
00000030: 76e4 9a3d 001c 533b 7017 c93d 7c3f f93d
00000040: 6cd6 473d 6c65 033d 8086 973b 2449 8dbd
00000050: 20fd 8dbd 9290 f2bd f09e ecbc 0c3f ffbd
00000060: b8d1 4abd 0ae7 ed3d c8ea 863d bc59 acbd
00000070: 3838 cc3c 3209 eabd 680a 1f3d 8286 c03d
00000080: e4c4 b53d 044f 92bd ec90 e23d ae48 c7bd
00000090: 00f2 d13d d84c 95bc 7432 b9bd eeeb cf3d
000000a0: 1838 67bd 2c88 47bd 2890 363d 2096 f5bc
000000b0: 386d 61bd a0d8 c03d b887 bebc 2053 d1bb
000000c0: 065a 913d 8c7f 873d 1283 9fbd 587f d93c
000000d0: ca05 dabd ac96 fd3d 1ce1 8b3d 10fe fabd
000000e0: 80eb de3a de92 993d c02e ee3c b092 ff3d
000000f0: 884d d1bd f056 c53d f8f7 183d 84ce 28bd
00000100: 9c2c 0b3d 6074 fbbd be67 883d 8c11 8dbd
00000110: c43f fd3d 00e6 73ba a875 a83d fc2f 0abd
00000120: 26f5 eb3d 800f d8ba 3077 e0bd bcc9 e63d
00000130: 86e7 f43d a8c2 adbd 1016 4e3c 6481 50bd
00000140: 74ca 6ebd 40c6 c13c 90ff c43d c0e2 bd3c
00000150: 4ecb c53d 249e 82bd 709c c63d 786c 2abd
00000160: 6ef8 d1bd 0cdd eabd 585a de3d b249 b73d
00000170: ac8d a8bd 34dd 67bd f030 d53d 8486 603d
00000180: 203e 37bd 2052 e03d 88d6 2cbd 5607 bdbd
00000190: 00f4 da3a e234 aabd c8bf 9e3d 2437 fc3d
000001a0: 1203 c33d d08a af3d 0400 543d 08d2 37bd
000001b0: f0c2 8f3d dc72 bb3d b83f ee3c e07e b73c
000001c0: dc10 283d 86aa d73d a4c8 0fbd 52f7 f5bd
000001d0: 6470 0cbd 8af3 e53d d0d6 fe3d 08ed f2bc
000001e0: 241f 60bd e8b5 84bc 6c86 dcbd 807c 08bd
000001f0: 9851 c1bd 68af e3bd 60f8 dcbb e8e4 ddbc
00000200: 8060 1f3d 80c8 983c 54a4 f9bd 202c b3bb
00000210: b0d2 bfbd 3ecc 853d 3077 4fbc 9060 543c
00000220: be95 de3d 784a 173d d062 093c e8bb 9bbd
00000230: f019 4c3d 207b dcbb 841f f4bd d09f e33c
00000240: 5ccc 2fbd 2426 56bd 6e66 b6bd a8e7 de3c
00000250: 585b 11bd d683 b4bd be93 f73d 0027 26bc
00000260: 86bc 9cbd 023d ca3d f071 013c 2c02 73bd
00000270: 4040 a63d 00c4 633b 7efd f83d e8c2 543d
00000280: 860d eb3d 8016 3b3b d4ff 943d a813 59bd
00000290: 60ee 79bc d8ef 28bd 107e a53c 0029 75bc
000002a0: daed ad3d 5807 233d f822 25bd 707a 64bc
000002b0: 46dc c03d 00f8 fd3d e828 a6bc 001e 743d
000002c0: c07d e43c 4ae3 debd e027 9f3c 88ae 233d
000002d0: cab6 8dbd c206 d7bd d6fe cebd 087b 2e3d
000002e0: 1644 c5bd 685e bbbc 5803 92bc c8a7 d9bc
000002f0: e067 c1bb 1c07 3dbd 780c b0bd 60b1 c13c
00000300: f8ea 9f3c 6a69 c23d 06bf f93d c800 8c3c
00000310: 8431 f3bd ecf2 14bd 000b 0cbb 80b5 433b
00000320: 0c40 943d 32b0 ea3d 4096 1c3d fcc0 febd
00000330: 46d6 cf3d a87e 443d fcc4 9a3d dccc e83d
00000340: f891 e23c 8a14 e53d 901b e53d 2ce8 d6bd
00000350: 463b 96bd d42c 96bd 6aa9 91bd b241 bf3d
00000360: 8406 d3bd 00fa adbd a05b fbbd 68e5 63bd
00000370: 8093 433c 9495 88bd ecc2 0b3d d497 86bd
00000380: f41a c9bd 1060 d93c 84f6 9a3d 8c54 803d
00000390: 302f a5bd 64f8 50bd da31 cbbd 0ad8 f9bd
000003a0: 26f3 b93d 4015 223d eeb2 aebd c208 8fbd
000003b0: cc6f 353d 806c 0c3d d6b2 aebd 548c 5ebd
000003c0: 401e 483b f43d adbd e499 363d b8b4 51bd
000003d0: 84bf 703d 8ef3 d03d aab2 cdbd 40a2 e9bc
000003e0: a06a 3dbc 38d3 7bbd 9c0b a03d d4ff 26bd
000003f0: 2258 a63d b8e7 3a3d ee7b a63d f604 bc3d
0.045341626 -0.034313858 0.067167 0.007942557 -0.08994144 -0.103762016 -0.025384843 -0.0174357
0.016995832 -0.09124635 -0.026283875 0.10441221 0.07563107 0.0032212734 0.098189235 0.12170312
0.048788473 0.032079145 0.004624188 -0.06898716 -0.069330454 -0.11843981 -0.028884381 -0.12463197
-0.04951641 0.11616333 0.0658775 -0.08415553 0.024929151 -0.11427535 0.038828284 0.09400655
0.088754445 -0.07143977 0.11062798 -0.097306594 0.10251236 -0.018225119 -0.09042826 0.10152422
-0.05644998 -0.048713848 0.044571072 -0.029978812 -0.0550358 0.09416318 -0.023258075 -0.006388083
0.07097249 0.066161245 -0.077886716 0.02654998 -0.106456354 0.12382254 0.068300456 -0.1225549
0.001700744 0.07498716 0.029075027 0.1247915 -0.10219866 0.09635723 0.037345856 -0.041212574
0.03397809 -0.12278056 0.06660412 -0.068881124 0.12365678 -0.0009303987 0.08225566 -0.033737168
0.11521368 -0.0016484112 -0.10960233 0.112689465 0.11958222 -0.08484393 0.012578502 -0.050904647
-0.058298543 0.023654103 0.09619057 0.023179412 0.09657918 -0.06377819 0.09697807 -0.04160735
-0.10252462 -0.114679426 0.108570755 0.08949603 -0.08230147 -0.05660744 0.10409725 0.054815784
-0.04473698 0.10953164 -0.04219678 -0.09229915 0.0016704798 -0.08310868 0.07751423 0.12315205
0.0952207 0.08571398 0.051757827 -0.044878036 0.07019603 0.09152767 0.029083118 0.022399366
0.041031703 0.10530572 -0.035103455 -0.12010063 -0.03428687 0.11228092 0.12443316 -0.029654041
-0.054717198 -0.01620002 -0.107678264 -0.033321857 -0.09439391 -0.111174405 -0.006743476 -0.02708669
0.03891039 0.018650293 -0.12189546 -0.0054679066 -0.09366357 0.06533097 -0.012662694 0.012962475
0.10868405 0.036936253 0.008385375 -0.076042 0.049829423 -0.006728545 -0.11920074 0.027786165
-0.0429195 -0.052282467 -0.08906256 0.027210072 -0.035487503 -0.08814208 0.120887265 -0.010141134
-0.076531455 0.098749176 0.0079007 -0.059328243 0.081177235 0.0034754276 0.12157725 0.05194369
0.11477189 0.0028547347 0.07275358 -0.05299726 -0.015254587 -0.041244358 0.020201713 -0.014963388
0.08492632 0.039801925 -0.040316552 -0.013945207 0.09417014 0.12400818 -0.020283177 0.059598923
0.027891994 -0.10883196 0.019428194 0.039961368 -0.0691963 -0.10499336 -0.101072 0.0425978
-0.09632127 -0.022872165 -0.01782386 -0.026569262 -0.0059022754 -0.04614936 -0.08596128 0.02364415
0.019521222 0.094927624 0.12194638 0.017090216 -0.11874679 -0.03636448 -0.0021368861 0.002986282
0.072387785 0.11459388 0.038229227 -0.124391526 0.10148291 0.04797235 0.07557103 0.11367199
0.027657494 0.11185558 0.11186898 -0.10493502 -0.07335524 -0.07332769 -0.07112391 0.09338702
-0.10303977 -0.08494949 -0.122733355 -0.0556387 0.011937022 -0.06669155 0.03412144 -0.06571928
-0.09819594 0.026535064 0.075665504 0.06266126 -0.08065641 -0.051018134 -0.09921618 -0.12199409
0.0907958 0.039571047 -0.08530222 -0.06984092 0.04429607 0.03428316 -0.08530204 -0.054333046
0.0030535609 -0.08459082 0.044580355 -0.051197737 0.058776394 0.10202704 -0.10043843 -0.02851975
-0.011561066 -0.06148073 0.07814714 -0.04077132 0.08122279 0.04563114 0.081291065 0.09180634

transformer.layers.0.self_attn.out_proj.bias f4 [64]
00000000: 0000 0000 0000 0000 0000 0000 0000 0000
00000010: 0000 0000 0000 0000 0000 0000 0000 0000
00000020: 0000 0000 0000 0000 0000 0000 0000 0000
00000030: 0000 0000 0000 0000 0000 0000 0000 0000
00000040: 0000 0000 0000 0000 0000 0000 0000 0000
00000050: 0000 0000 0000 0000 0000 0000 0000 0000
00000060: 0000 0000 0000 0000 0000 0000 0000 0000
00000070: 0000 0000 0000 0000 0000 0000 0000 0000
00000080: 0000 0000 0000 0000 0000 0000 0000 0000
00000090: 0000 0000 0000 0000 0000 0000 0000 0000
000000a0: 0000 0000 0000 0000 0000 0000 0000 0000
000000b0: 0000 0000 0000 0000 0000 0000 0000 0000
000000c0: 0000 0000 0000 0000 0000 0000 0000 0000
000000d0: 0000 0000 0000 0000 0000 0000 0000 0000
000000e0: 0000 0000 0000 0000 0000 0000 0000 0000
000000f0: 0000 0000 0000 0000 0000 0000 0000 0000
0.0 0.0 0.0 0.0 0.0 0.0 0.0 0.0
0.0 0.0 0.0 0.0 0.0 0.0 0.0 0.0
0.0 0.0 0.0 0.0 0.0 0.0 0.0 0.0
0.0 0.0 0.0 0.0 0.0 0.0 0.0 0.0
0.0 0.0 0.0 0.0 0.0 0.0 0.0 0.0
0.0 0.0 0.0 0.0 0.0 0.0 0.0 0.0
0.0 0.0 0.0 0.0 0.0 0.0 0.0 0.0
0.0 0.0 0.0 0.0 0.0 0.0 0.0 0.0

transformer.layers.0.linear1.bias f4 [256]
00000000: 7001 4c3d 7c1a 8f3d 92ed 933d 8041 01bc
00000010: 54ef 023d 58a4 8d3d e0fb 50bc 802e bc3a
00000020: 90b0 b6bd 3012 3e3d c487 4a3d 222d b6bd
00000030: 70d3 9fbd da3d ebbd c4cb 4dbd 5094 233c
00000040: c44e 78bd 002d bb3a c081 cdbb 76fc dd3d
00000050: f688 ba3d 083c bbbc 6ac1 a1bd a67e ee3d
00000060: 0479 f03d 761c c2bd d4d9 d53d 10b0 c23d
00000070: b0ac 103c 08ae c4bd e0e5 dabc e0f3 f13d
00000080: a8e3 83bd f4c7 e8bd be50 e5bd 506d 3fbc
00000090: f091 a93d a6de e13d 284c 8b3c 481a 643d
000000a0: 868c dabd 10c8 2f3c a837 e63d 5487 30bd
000000b0: 5021 2f3d 007d f93d 4ede 80bd 3cee 533d
000000c0: 286c ab3d 1841 5ebd 1cfd b3bd d6ec c1bd
000000d0: 20fe bbbb 5829 6dbd 1cd3 1fbd 0cd4 803d
000000e0: 4086 1ebc 6c4e af3d 50fe a63c 8898 dc3d
000000f0: 987f 4dbd 88de 84bd dcab 53bd 84a5 203d
00000100: 345b 2cbd c04b 733d f253 d43d e8b9 fb3d
00000110: fcc2 63bd 4683 f6bd 3606 b6bd bec5 b2bd
00000120: f651 f3bd 0c0e 9ebd 78b8 f83d 5059 5dbd
00000130: 10cf 453c 1638 c4bd c0e2 b93c cacb d63d
00000140: 066d 9a3d b8ed d3bd c0b8 e4bb b07e f73d
00000150: bcce 60bd f8ac 81bc f882 e83d 003b 8cbc
00000160: 16a1 ae3d c8d0 e53c c43c 1ebd a0b8 86bd
00000170: 60b3 2d3c 14c9 623d c8ed bebc 5a46 823d
00000180: 76f6 dc3d 5cbc dd3d a0d4 3dbc 36b1 8dbd
00000190: a010 0e3c c82b 7cbd 64d0 8dbd b03f 91bd
000001a0: 1042 5c3c 14f0 513d b41f 32bd c0ff eebb
000001b0: e2b8 e0bd 642d cd3d d202 81bd e851 a5bc
000001c0: fc0b 9ebd a451 5abd a44d 07bd 006a e8bb
000001d0: 946e e23d e48c 56bd c014 3d3c 6c63 52bd
000001e0: 0ae9 983d 3066 563d b824 02bd 1aa0 ef3d
000001f0: 0066 1dba c46d 4bbd 2024 3b3d 18ce a03d
00000200: 8ef8 86bd ea13 8f3d 8a59 d53d 586c 803c
00000210: 380b ebbd b88a e23d f07b 103c c8d7 bf3d
00000220: 30d6 c1bc 7462 7ebd 48a2 aa3c 384d c23d
00000230: e603 cabd b027 eb3c c0cc 69bc dc10 f33d
00000240: c06e 733d a880 d4bd d86b 443d 6045 3a3c
00000250: 1453 cebd 4694 fa3d a0ca ca3b 2051 b9bc
00000260: f628 c4bd 80b7 50bb 9057 5d3d fa45 ab3d
00000270: 00d9 a7bb 7420 603d 9cc4 f23d 7204 a43d
00000280: d872 4dbd 74a9 91bd 5c28 b73d 7c2e 5a3d
00000290: ce78 f13d 5098 bdbc 624e dcbd 48a4 27bd
000002a0: 588b 153d 24a3 993d 1c72 573d f816 c53c
000002b0: 00d8 91bc 3048 b93d b0f6 eabd fcb5 e5bd
000002c0: 8a21 b6bd a060 c43c 4095 273c d8a9 e3bc
000002d0: 6868 623d 709b c4bc 2039 7cbd 5088 2a3c
000002e0: 7899 dabc c020 7dbc 400f 043d 68af f43d
000002f0: d4c0 68bd 361b fa3d 3062 e93d 8421 1f3d
00000300: f812 2b3d d0ce 12bd 5c15 bd3d 4861 963c
00000310: 580a 09bd e0da c5bd 2c3d 35bd c0f6 e7bb
00000320: c401 d53d f813 e1bc c089 a3bc 3445 17bd
00000330: f0c3 90bc 34b8 373d 9c78 c13d 568c e33d
00000340: d675 cebd 30bf 4b3d 4698 93bd 3eb3 9d3d
00000350: 00a4 2d3b 52ac b6bd b66a b63d 12ca febd
00000360: 48bb 613d e8d8 82bd 8a87 c13d 1263 cdbd
00000370: 6a14 acbd eac0 f7bd fa63 d13d 7235 97bd
00000380: fc87 60bd b6b3 e1bd 3078 8f3c dcf0 4cbd
00000390: 5213 90bd f0e4 92bd 0049 a73d 6079 e0bb
000003a0: 7ca5 67bd 4223 e33d 0a75 c0bd c836 f33d
000003b0: 5c47 7e3d 22e5 88bd 103d ddbd 0035 d9bc
000003c0: dc0c 6a3d 5820 e8bc 0e6c 803d d8c4 dcbc
000003d0: a0aa 81bb 00aa e23a e09a 703c 9cb8 d03d
000003e0: 70e7 27bd b896 c8bd 0283 b6bd 1039 eabc
000003f0: 683a 463d 1c2b 22bd 8c5b ba3d b4bd efbd
0.04980606 0.06987473 0.07223047 -0.007889152 0.031966522 0.06916112 -0.012755364 0.001435712
-0.089203954 0.046404064 0.049445882 -0.08895327 -0.078040004 -0.114864066 -0.050243154 0.009984091
-0.06062199 0.0014280379 -0.006271571 0.10839169 0.091081545 -0.022855774 -0.07898219 0.1164525
0.11741832 -0.09478085 0.10441938 0.095062375 0.008830234 -0.09603506 -0.026720941 0.118140936
-0.06439906 -0.11366263 -0.11197041 -0.011683777 0.082797885 0.11028795 0.017004088 0.055689126
-0.10671334 0.010728851 0.11241084 -0.04309781 0.04275638 0.12182045 -0.06292401 0.05174087
0.083702385 -0.054261297 -0.08788511 -0.09469001 -0.005737081 -0.057900757 -0.03901969 0.06290445
-0.009675562 0.0855988 0.020384938 0.107712805 -0.05017051 -0.06487757 -0.05167757 0.039220348
-0.042079166 0.059398413 0.10367574 0.12291318 -0.055605873 -0.12036757 -0.088879034 -0.087291226
-0.11880867 -0.07717523 0.121445596 -0.054040253 0.012073293 -0.0958101 0.02269113 0.104880884
0.07540326 -0.10348076 -0.0069800317 0.120847106 -0.054884657 -0.015829548 0.11353105 -0.017117977
0.085268185 0.028053656 -0.03863217 -0.06578183 0.010601848 0.055367544 -0.023306742 0.06361075
0.10789196 0.10826942 -0.011586338 -0.06918566 0.008670956 -0.06156519 -0.06924513 -0.070922256
0.013443485 0.051254347 -0.043487266 -0.0072936714 -0.109727636 0.10018423 -0.06299366 -0.020180658
-0.077171296 -0.053300515 -0.03303303 -0.0070927143 0.11056247 -0.052380458 0.011540592 -0.051364347
0.07466324 0.052343547 -0.0317733 0.11700459 -0.0006004274 -0.049665228 0.04568875 0.07851809
-0.06590377 0.0698622 0.10417469 0.015676662 -0.11476749 0.11061615 0.0088186115 0.09367329
-0.023661703 -0.06210561 0.020829335 0.094873846 -0.09864025 0.028705448 -0.014270008 0.1186845
0.05943179 -0.10376102 0.04795441 0.011369079 -0.1007444 0.12235312 0.0061887056 -0.022621691
-0.09578125 -0.0031847656 0.054038584 0.08362956 -0.005122304 0.05471845 0.118539065 0.080086604
-0.05015835 -0.07112399 0.08943245 0.053266987 0.1179062 -0.023143917 -0.10757138 -0.040928155
0.03650984 0.0750182 0.052599058 0.024058804 -0.017803192 0.09046972 -0.11472833 -0.112163514
-0.08893116 0.023971856 0.010228455 -0.027790949 0.05527535 -0.0239999 -0.061577916 0.010408476
-0.026684508 -0.015449703 0.032241106 0.119475186 -0.05682452 0.12212221 0.11395681 0.038850322
0.041766137 -0.035841763 0.092325896 0.018356934 -0.03345713 -0.09660888 -0.04424779 -0.0070789754
0.104007274 -0.027475342 -0.019963145 -0.03693123 -0.017671555 0.044853404 0.094468325 0.11110751
-0.10081069 0.049742877 -0.07206778 0.07700203 0.0026495457 -0.08919586 0.08907072 -0.124408856
0.055110246 -0.06389028 0.0944968 -0.10028662 -0.08402331 -0.12097342 0.10224147 -0.07383241
-0.054817185 -0.11020605 0.017513365 -0.05003439 -0.07034935 -0.071725726 0.081682205 -0.0068504065
-0.056554303 0.11090709 -0.093973234 0.11875683 0.062079772 -0.066843286 -0.108026624 -0.02651453
0.05714117 -0.028335735 0.0627061 -0.026949331 -0.0039571077 0.0017293096 0.014685363 0.101914614
-0.0409922 -0.09794372 -0.089117065 -0.028591663 0.048395544 -0.039591894 0.090994924 -0.11706105

transformer.layers.0.linear2.bias f4 [64]
00000000: dc0f 813c 6658 0b3d c0c0 213c 4886 6ebd
00000010: d83d f33c 2a12 513d e2ca 14bd 0016 53ba
00000020: 14df babc aaa4 00bd 3aa3 463d 3c57 ec3c
00000030: eccc 7f3d 3c08 b33c 04df e9bc 0e1e 27bd
00000040: ccb7 143d b096 3e3c 3057 b83c 98f5 12bc
00000050: 1013 52bd 3054 d1bc 38db 963c 802f 663d
00000060: b086 41bd a0a7 57bb b8da 113c bc30 63bd
00000070: 64dd 533d 4806 3cbd 78d5 babc 042a a1bc
00000080: e032 9abb 94b1 13bd 082a 823c 08b1 eabc
00000090: 8874 423c 6694 5fbd 02b0 3fbd 4c06 13bd
000000a0: 006d 77ba e86c 7ebc f8fb 70bc e856 483c
000000b0: c8b6 e3bc 46ff 55bd 4463 5e3d 5e1e 413d
000000c0: a06d 44bd f8e2 363c fc2a 21bd 92d7 713d
000000d0: de2f 08bd c494 bcbc d0f9 2fbc 4853 45bc
000000e0: 2828 8f3c c886 8f3c 34b5 ad3c 609d 11bb
000000f0: eedc 4a3d 70c9 31bc 8005 7f3c c8bf 803c
0.015754633 0.03401985 0.009872615 -0.05823353 0.029692575 0.051042713 -0.036326297 -0.00080522895
-0.02281145 -0.031407036 0.04849551 0.02885019 0.062451288 0.021854512 -0.028548725 -0.040800147
0.036308095 0.011632606 0.022502512 -0.008969687 -0.05128771 -0.025552839 0.018415079 0.056197643
-0.04724759 -0.0032906309 0.008902244 -0.0554664 0.051724806 -0.045904428 -0.022806868 -0.019673355
-0.004705772 -0.036058024 0.015889183 -0.028648868 0.0118686035 -0.054584883 -0.046798714 -0.035894677
-0.00094385445 -0.015528895 -0.0147085115 0.012227751 -0.027797118 -0.0522454 0.054293886 0.0471481
-0.04795611 0.011162512 -0.039347634 0.059043474 -0.033248775 -0.023020156 -0.010740712 -0.012043782
0.017475203 0.017520323 0.021204568 -0.0022219047 0.0495271 -0.010851249 0.015565276 0.015716448

transformer.layers.0.norm1.weight f4 [64]
00000000: 0000 803f 0000 803f 0000 803f 0000 803f
00000010: 0000 803f 0000 803f 0000 803f 0000 803f
00000020: 0000 803f 0000 803f 0000 803f 0000 803f
00000030: 0000 803f 0000 803f 0000 803f 0000 803f
00000040: 0000 803f 0000 803f 0000 803f 0000 803f
00000050: 0000 803f 0000 803f 0000 803f 0000 803f
00000060: 0000 803f 0000 803f 0000 803f 0000 803f
00000070: 0000 803f 0000 803f 0000 803f 0000 803f
00000080: 0000 803f 0000 803f 0000 803f 0000 803f
00000090: 0000 803f 0000 803f 0000 803f 0000 803f
000000a0: 0000 803f 0000 803f 0000 803f 0000 803f
000000b0: 0000 803f 0000 803f 0000 803f 0000 803f
000000c0: 0000 803f 0000 803f 0000 803f 0000 803f
000000d0: 0000 803f 0000 803f 0000 803f 0000 803f
000000e0: 0000 803f 0000 803f 0000 803f 0000 803f
000000f0: 0000 803f 0000 803f 0000 803f 0000 803f
1.0 1.0 1.0 1.0 1.0 1.0 1.0 1.0
1.0 1.0 1.0 1.0 1.0 1.0 1.0 1.0
1.0 1.0 1.0 1.0 1.0 1.0 1.0 1.0
1.0 1.0 1.0 1.0 1.0 1.0 1.0 1.0
1.0 1.0 1.0 1.0 1.0 1.0 1.0 1.0
1.0 1.0 1.0 1.0 1.0 1.0 1.0 1.0
1.0 1.0 1.0 1.0 1.0 1.0 1.0 1.0
1.0 1.0 1.0 1.0 1.0 1.0 1.0 1.0

fc.weight f4 [10, 64]
00000000: 2ad2 8d3d e8d7 ecbc 2a58 ccbd 20a9 8fbd
00000010: 5861 2c3d bcf3 2d3d 2a49 bbbd 1ea2 ee3d
00000020: 201d 353d 10f2 69bd 5ce9 2e3d 167f ed3d
00000030: fadb b23d 867d 8e3d ac5d dbbd f049 8e3d
00000040: 6e81 d5bd f053 353d 003a 08bd da13 a0bd
00000050: c0ef d6bb 78c8 f03d 4c4d eebd f2d1 f53d
00000060: 50f0 d4bc 14df 29bd 5044 febc 5c8a ebbd
00000070: 922a dcbd e089 4c3d b2ed da3d 76f4 96bd
00000080: 74ca 3abd f012 33bd 4ca0 693d 0260 a33d
00000090: 80cd f83d 9657 da3d a8bf d2bc 7037 c7bd
000000a0: 50cf d4bc 5049 873c 84a0 fdbd 4859 dc3c
000000b0: 0865 d13d f4b0 6b3d 80a6 113c 14cb a23d
000000c0: 361f adbd d29d d73d b80f 853c f80d 953d
000000d0: d8cc 89bd fcb7 463d a834 efbc 98f3 27bd
000000e0: c6d6 e6bd 6c0b e53d ac59 e8bd f893 383d
000000f0: c04b 24bb b0cc debc a609 963d 8070 fd3a
00000100: a4b9 d1bd 20ca 2dbc 9048 843c 4cfe 51bd
00000110: 60e0 f43d 6cd0 7e3d ac45 96bd 5a6e fdbd
00000120: 5c1f c9bd f038 3b3d 5a14 e73d e83d b03c
00000130: 1875 5c3d 9245 d7bd 481d a73d 6acb 833d
00000140: ea12 f73d 60dd 183c 6038 0bbc 4018 663d
00000150: 3cd3 323d b26b b83d 4cfd 843d 3ebb bcbd
00000160: 52b4 f0bd a49d 213d a838 953c f807 493d
00000170: b044 3bbc 76d4 dfbd 4455 28bd 307a 073c
00000180: ca51 d6bd 1451 403d 0697 893d e045 6d3c
00000190: 0018 30bd 88a1 8cbd 0cea f63d 12b0 ff3d
000001a0: 06ce eabd ec63 d3bd 1095 b83d 00d2 203d
000001b0: f8b2 603d e476 0b3d 500c 76bc 3239 d63d
000001c0: 2e7a 9cbd 8aa5 b5bd 3af1 9cbd b82d ebbc
000001d0: 200d d93b f2de fcbd b488 683d 5278 a93d
000001e0: 389e c5bd be4c dabd 3881 8b3d f004 7b3d
000001f0: f0bc ba3c 5e81 b23d 6c01 5fbd 16b0 8dbd
00000200: ecae febd 0870 05bd f654 9dbd aa0a 8fbd
00000210: a0af 233c f82e 643d 8055 f13c d890 023d
00000220: a6d5 bcbd 7286 dc3d 30b2 3c3c acfd bcbd
00000230: 68b6 203d 6448 54bd c8f0 ed3d 649a 94bd
00000240: f693 b73d 9ed2 e23d 20ba f1bb 6032 7fbc
00000250: c0f0 61bc 6e41 85bd b480 dcbd 748b 0fbd
00000260: 8464 6fbd f064 053c 5e84 b73d 9814 87bc
00000270: 3096 b33c 8069 a8bd 5ab4 94bd ec5c da3d
00000280: 9855 4ebd 3229 f7bd b87e c9bc c8f7 eabd
00000290: 32ef e5bd 4065 c3bd 6c94 33bd 84b1 42bd
000002a0: cac5 efbd 12a0 bebd b054 2a3d 307d 8b3c
000002b0: fe0d abbd 009b e5bd 889a 3d3d 6670 b4bd
000002c0: 8468 9cbd be67 84bd a651 bbbd 501f 35bc
000002d0: 2a56 af3d c466 cd3d 7860 bebd 6ad1 aabd
000002e0: 1aa4 cabd acd0 c8bd f63c b8bd a080 113d
000002f0: 0c5b c03d 24b5 f33d ce00 9f3d 60e9 a03c
00000300: 86ff e53d e0db 933b 5026 e63d 6eda 88bd
00000310: 2c89 a53d 94a4 e7bd 1450 953d 6075 473c
00000320: 90fd ebbd 94bd bebd d8b5 a33c a04a e03c
00000330: c20d 89bd d0b2 a83d f85e a1bd 1e18 ef3d
00000340: 0015 f2bb 00ef a9bc 00b9 a63c c843 d83d
00000350: 8403 2e3d 24e0 403d 9402 633d a854 073d
00000360: 7225 9ebd f84f ae3d 1036 3bbc b879 c7bd
00000370: 10f9 96bc a6fc aa3d eebe 9fbd 64ef f6bd
00000380: 0072 a4bb 8cbe fcbd e444 3cbd b022 b1bc
00000390: 909e 7ebd d67c 90bd 94da 6c3d 5084 c6bd
000003a0: 04dd 5cbd ccc7 18bd 562c f93d 3c57 253d
000003b0: 085c d53d 14ee 4f3d b0ac c63c f883 4b3d
000003c0: e2b1 9fbd 8099 46bb a01f f93b 34e2 663d
000003d0: 6088 c4bb be36 c5bd 7e6f dc3d e43b 7fbd
000003e0: 486e 8e3d 7033 fdbc f866 a83d 58c0 c83d
000003f0: a4ca 33bd 004d 1bba 6a92 a93d 008b 683a
0.06924851 -0.028911546 -0.099777535 -0.0701468 0.04208502 0.04246877 -0.09144814 0.11652015
0.04421723 -0.057115614 0.042703018 0.11596505 0.087333634 0.069575354 -0.10711226 0.06947696
-0.104250774 0.044269502 -0.033258438 -0.078162864 -0.006559342 0.117569864 -0.11635837 0.120029345
-0.025993496 -0.04147251 -0.031038433 -0.11500999 -0.10750307 0.049936175 0.10689868 -0.07370846
-0.04560323 -0.043719232 0.057037637 0.079772964 0.12148571 0.10661237 -0.025726154 -0.09727371
-0.02597776 0.01651445 -0.123841316 0.026898041 0.10224348 0.057541803 0.008889794 0.0794889
-0.08453219 0.10528149 0.016242847 0.07278055 -0.06728524 0.048515305 -0.029199913 -0.041003793
-0.112714335 0.11183819 -0.113452286 0.04506299 -0.0025069565 -0.027197212 0.07326059 0.0019335896
-0.10240486 -0.010607272 0.016147882 -0.051267907 0.11956859 0.062210485 -0.073375076 -0.123745635
-0.098204345 0.045708597 0.11283179 0.021513894 0.053822607 -0.10511316 0.08159882 0.064352825
0.120641544 0.009330124 -0.008497328 0.05617547 0.04365848 0.09004916 0.06493625 -0.09215401
-0.11753143 0.03945698 0.018215492 0.049079865 -0.011429951 -0.109291956 -0.04109694 0.008268878
-0.10464819 0.046952322 0.067182586 0.0144819915 -0.04299164 -0.06866747 0.1205636 0.124847546
-0.11465077 -0.10321793 0.090128064 0.03926277 0.054858178 0.03404893 -0.015017584 0.10460128
-0.076404914 -0.08869465 -0.07663198 -0.028708324 0.006623879 -0.12347211 0.056770995 0.082749024
-0.096493185 -0.10659169 0.06811756 0.061284006 0.02279517 0.08716081 -0.054444715 -0.06918351
-0.124357074 -0.032577544 -0.07682221 -0.06984456 0.009990603 0.055708855 0.029459715 0.031876415
-0.09220438 0.10767831 0.011517093 -0.092280716 0.039236456 -0.05182685 0.11618191 -0.0725601
0.08963768 0.11075328 -0.007376924 -0.015575975 -0.013790309 -0.0650662 -0.10766736 -0.035045102
-0.05844547 0.008141741 0.08960794 -0.016489312 0.0219222 -0.082232475 -0.07260962 0.10662255
-0.050374597 -0.12068404 -0.024596557 -0.11473042 -0.112272635 -0.09540796 -0.043842718 -0.047532573
-0.11707647 -0.09307875 0.04158467 0.017027467 -0.08352278 -0.112112045 0.04628995 -0.08810501
-0.07637122 -0.064651 -0.091464326 -0.011054829 0.08561356 0.100293666 -0.09295744 -0.08340724
-0.09894581 -0.09805426 -0.089960024 0.035523057 0.09392366 0.11899784 0.07763825 0.019642532
0.11230378 0.004512295 0.11237776 -0.06682287 0.08082804 -0.11310688 0.07290664 0.0121739805
-0.115229726 -0.09313503 0.01998417 0.027379334 -0.06692077 0.08237231 -0.07879442 0.11674522
-0.0073877573 -0.020743847 0.020351887 0.10559803 0.04248382 0.047088757 0.05542238 0.03303972
-0.07721986 0.085113466 -0.011426464 -0.09740013 -0.01842931 0.0834897 -0.07800089 -0.12057379
-0.0050184727 -0.123410314 -0.045964137 -0.021622986 -0.062162936 -0.070550606 0.05782564 -0.09693205
-0.053921714 -0.037299916 0.121666595 0.040366396 0.10417944 0.05076416 0.024252266 0.049686402
-0.077976 -0.0030303895 0.007602647 0.056368068 -0.0059977025 -0.09629582 0.10763453 -0.062312976
0.06954628 -0.030908316 0.08222765 0.09802312 -0.043894425 -0.00059242547 0.082798794 0.000887081

fc.bias f4 [10]
00000000: f81c bfbd 30ed 11bd 7809 f9bd f4ae e6bd
00000010: 8a8b ffbd a404 d13d e4fe 91bd 607a d73d
00000020: 7418 b23d 10de d8bc
-0.09331697 -0.03562659 -0.12160009 -0.112638384 -0.12477787 0.10205963 -0.07128695 0.10521388
0.0869607 -0.026473075

onnx::MatMul_219 f4 [64, 192]
00000000: e7b5 1b3e 88dc bb3d 9c5b f0bc a0ec c9bd
00000010: 0759 043e 4451 e5bd 04e0 723d d06a de3c
00000020: e674 4dbd f8ab b33c cedd 32bd 769e f9bd
00000030: caea c7bd f2bb bf3d fa0d 05bd 4082 acbb
00000040: bc03 03bd f728 01be 13cc 0a3e 4081 2d3d
00000050: ec7a 263d d6b1 fa3d ba63 8c3d 42b8 16be
00000060: c0da 623d 1424 11be a082 b2bc e024 793d
00000070: 8087 b7bb e8a6 68bd 9252 1cbe 4030 d2bd
00000080: ccb9 a93d e83f 803d 979d 003e 09cf 9fbd
00000090: c6fc 3abd 1856 68bd 00e2 7aba c8fc f33c
000000a0: d071 15bc ef3c 153e e085 dbbb 01ad 153e
000000b0: a394 c9bd 9571 0b3e 60c5 debd 5850 d93c
000000c0: d68b b2bd c00f 613d 6f25 b5bd 40bf 18bc
000000d0: 570b 95bd 2088 503d 0b0f afbd 007d a73d
000000e0: a810 b93c 6a88 c03d 3e10 ff3d 9005 b6bc
000000f0: 9e6d 95bd c097 e1bc 088d fe3c 7037 b03c
00000100: 009b 063b b217 ec3d fde3 103e 4653 ee3d
00000110: 8642 7cbd 9ecc ce3d a0e8 f6bd 612b 12be
00000120: af99 08be 64b5 30bd b864 943d 4028 1b3c
00000130: 302a 7bbd ba15 08be 5aae 933d 2d65 0a3e
00000140: f848 af3d 087b 803d 802f 93ba aa8e 9c3d
00000150: 5edb 82bd 2094 6f3d f264 fc3d f073 793d
00000160: 4785 033e 988c 833d 40d3 123c 6654 37bd
00000170: 0ad3 f53d e811 a03d f2f6 a6bd c8da 1abe
00000180: a59d 043e 80c6 b23c 54ed 883d b0b9 66bc
00000190: c46d d3bd d049 ab3d c829 9f3c 01dd b4bd
000001a0: 1eed bcbd 5018 52bc 8ff4 063e 4a82 e93d
000001b0: 90be 1cbe 6028 be3b a023 cdbb aed2 00be
000001c0: 7975 cbbd 3096 a9bc 4a79 d73d a1ee 193e
000001d0: f0a4 1a3c d151 073e 8abf ce3d 4055 83bb
000001e0: 45e1 073e 520a febd c8db 303d c8bd c2bc
000001f0: c220 bfbd 86c7 8c3d 0098 713c 589e 0dbe
00000200: 805a b03d f406 4b3d 0c71 7cbd 743e 4b3d
00000210: c687 ea3d 105d 0dbe ecda 913d 8055 e83a
00000220: d2d7 ee3d 4452 793d 2383 afbd 6fec 0b3e
00000230: 1440 8b3d a3cd 9abd cf1c a6bd a09d 8fbb
00000240: 2021 c9bd 470c 043e 8464 6a3d 58f6 763d
00000250: 3200 83bd 0565 a0bd 368e e43d 31dd 04be
00000260: 1479 6c3d 8052 33bd f57d 0f3e 0f6d 0e3e
00000270: eea9 823d e682 03bd b08f 70bc a8a5 a63c
00000280: e0c7 b8bb e90f 123e acbb dcbd 30c4 10bd
00000290: a050 bc3c e00d 3abc 9ae1 a83d 043c e5bd
000002a0: 8e2b e83d ecd4 c03d ee3e d9bd 1020 b5bc
000002b0: 3411 0a3d 64b8 a9bd c026 b9bc 7e71 e5bd
000002c0: b06e 5dbc 784d d2bd 007e eabd cecb 01be
000002d0: f2b9 f63d e34a a2bd 9363 85bd 206c c5bd
000002e0: 1282 bcbd e8ea 243d 583d b3bc 9db8 023e
000002f0: 6c20 99bd 9459 3ebd 5845 debc 4470 73bd
00000300: 5f73 01be 8cf6 bcbd d831 923c 8013 03bc
00000310: 8027 00bc f810 273d c0a6 903d 11e5 19be
00000320: 5789 043e f67f 09be 4076 54bb d05f fb3c
00000330: d628 ddbd 33bf b7bd 8828 eebc c064 7cbc
00000340: 082f 95bd 88e5 293d 7415 f8bc 4a69 a9bd
00000350: f0d7 473d 1512 a4bd e94a 0f3e 00a0 743a
00000360: f55e 06be a435 95bd ece4 a73d e645 5abd
00000370: dcab ffbc 6a3a aebd 90e8 6f3d bc7f 603d
00000380: fa57 07be ceec bf3d 9ec1 15be 08eb 953d
00000390: 6cb1 8ebd b4f6 15bd 40ee 70bb a8fb 1d3d
000003a0: 2e48 de3d fab8 95bd 38ca bb3c a893 c53c
000003b0: e4f1 44bd 11f5 003e 00a6 cd3b d6b1 8dbd
000003c0: 48f7 51bd 4953 0b3e c8c6 c23c 96d3 5cbd
000003d0: 5a89 4ebd e83d a8bc 4ec5 8f3d a23a 17be
000003e0: 18c6 7d3d f241 823d c0aa d2bc 9608 0fbe
000003f0: c07a 03be c4da 833d 07c2 e0bd 1925 0dbe
0.15206109 0.091729224 -0.029340558 -0.09859586 0.12924586 -0.11197141 0.05929567 0.027150542
-0.05016031 0.021932587 -0.04366856 -0.12188427 -0.09761579 0.093620196 -0.032484032 -0.0052645504
-0.031985983 -0.12613283 0.1355441 0.04235959 0.04064457 0.12240951 0.06854959 -0.14718726
0.055384398 -0.14173919 -0.021790802 0.060826182 -0.0056008697 -0.0567998 -0.15265873 -0.10263109
0.08287391 0.06262189 0.12560116 -0.07803161 -0.04565122 -0.05672273 -0.000957042 0.029783621
-0.009121373 0.14574026 -0.0066993088 0.14616777 -0.09842803 0.13617547 -0.1087749 0.026527569
-0.08718078 0.05494666 -0.088450305 -0.009322941 -0.072775535 0.05091107 -0.08547791 0.08178139
0.02259095 0.09401019 0.1245427 -0.02221945 -0.072962984 -0.02753818 0.031073108 0.02151081
0.0020539165 0.11527957 0.1414947 0.11636977 -0.06158688 0.100976214 -0.120560884 -0.1427436
-0.13339876 -0.043141738 0.07245773 0.009470046 -0.06131953 -0.13289538 0.07210989 0.13515158
0.085588396 0.06273466 -0.0011229366 0.076443985 -0.06389497 0.058490872 0.12323941 0.060901582
0.1284381 0.064233005 0.008961499 -0.044758223 0.12003143 0.07815915 -0.0815257 -0.15122521
0.12950762 0.021823168 0.06685892 -0.014082357 -0.103236705 0.08363688 0.019429103 -0.08831216
-0.09224914 -0.012823179 0.13179229 0.11401804 -0.15307069 0.005803153 -0.0062603503 -0.12580368
-0.099345155 -0.020701498 0.10521181 0.15032436 0.009438738 0.13214804 0.10095127 -0.0040079653
0.13269527 -0.12404312 0.04317835 -0.023772135 -0.0933242 0.068739936 0.014745712 -0.13829935
0.086110115 0.049567178 -0.061631247 0.049620107 0.11451678 -0.13805032 0.07121834 0.0017725676
0.11662258 0.06086947 -0.08569934 0.13664411 0.06799331 -0.07558753 -0.081109636 -0.004382804
-0.09820771 0.12895308 0.057224765 0.060293525 -0.06396522 -0.07831768 0.11159937 -0.12975003
0.057732657 -0.04377985 0.14012893 0.1390879 0.06380068 -0.032107256 -0.014682695 0.020342663
-0.0056390613 0.14263882 -0.10777983 -0.03534335 0.022987664 -0.011355847 0.08246155 -0.11193088
0.113364324 0.094156116 -0.10607706 -0.022110015 0.033707812 -0.08287123 -0.022601485 -0.112032875
-0.0135151595 -0.10268682 -0.11449814 -0.12675402 0.12047185 -0.0792444 -0.06513133 -0.09639764
-0.092044964 0.040263087 -0.021879837 0.12765737 -0.07476887 -0.046472147 -0.027132675 -0.059433237
-0.12641667 -0.092267126 0.017846033 -0.008000255 -0.0078219175 0.040787667 0.07063055 -0.15028788
0.12943016 -0.1342772 -0.0032419115 0.030685335 -0.107988045 -0.08972015 -0.029072061 -0.01540488
-0.07284361 0.041478664 -0.030283667 -0.082720354 0.04878992 -0.080112614 0.1399342 0.0009331703
-0.1312216 -0.07285622 0.0819796 -0.053289317 -0.031209879 -0.08507235 0.0585714 0.054809317
-0.13217154 0.09371339 -0.1462464 0.07320219 -0.06967434 -0.036612228 -0.0036763102 0.038570076
0.10853611 -0.07310672 0.022923574 0.02411826 -0.048082247 0.12593485 0.0062758923 -0.06918685
-0.051261216 0.1360599 0.023776427 -0.05391272 -0.050423957 -0.020537332 0.07020055 -0.1476846
0.061956495 0.06360234 -0.025716186 -0.13968119 -0.12839794 0.064382106 -0.10974508 -0.13783683

onnx::MatMul_239 f4 [64, 256]
00000000: 68a9 d73d 58c2 99bc e41b 2d3d 56a9 83bd
00000010: ce7c b43d 3cd6 f5bd 8005 1dbd f423 09bd
00000020: 10f1 273c 2601 923d babc ba3d 48cc c93c
00000030: 7287 ee3d 809b 043b d6df fd3d 3079 ffbc
00000040: 80ac 923c 10e8 3bbc 60f0 1c3d a09e b43b
00000050: 64a4 613d a04a adbd 088f 51bd 3855 6abd
00000060: 0028 0a39 9a7c 91bd a0bc af3b 32de cc3d
00000070: 80ba 883b 48bb f7bd e627 a6bd 00bb 9bbb
00000080: 40da 55bc a000 1cbd 50f5 adbd a0e6 cc3d
00000090: f842 70bd 480d 473d d4ee 053d 862f 91bd
000000a0: 5064 a7bc 808a 12bc 6a25 f3bd 7e28 96bd
000000b0: 0c17 523d ecc2 c3bd 206a e3bc 78fd ecbd
000000c0: e6a2 87bd 2063 b13b ee60 f9bd 0a98 f6bd
000000d0: 80f3 29bb a0e8 01bc 802a 8abd 541e eb3d
000000e0: 9cdb a93d d8a0 1ebd b04b a03d 8e6e f73d
000000f0: 8897 713d c0bb 2f3b 5453 3ebd b09f adbd
00000100: a841 bebd c26b cabd 8075 023b f825 973c
00000110: dcee 09bd 8422 47bd aaef afbd f04d a73c
00000120: 18cf ba3c 5e5b f13d 241e 2f3d 581f 05bd
00000130: 606e 7ebc 862d 92bd fac3 b83d c2b1 96bd
00000140: 7208 e5bd 4e0f a43d 4274 ae3d 2e9f 9b3d
00000150: 50b3 cd3d 1833 f23d ec28 82bd 50a3 b6bc
00000160: 1ace f43d eadd eb3d ac90 cd3d 78a1 f1bd
00000170: c8f2 14bd 34ce f13d 1ac7 e43d 58bd 4bbd
00000180: 8030 303c b001 073c 4831 f33c ec26 2c3d
00000190: b4a7 24bd 84b9 61bd 004f 8bbb 0858 0c3d
000001a0: c0b2 1bbc 9479 1cbd 6e74 d1bd 0a7a a3bd
000001b0: 8cfb a4bd 60e0 eebb 3868 c5bc dcfd ea3d
000001c0: 08a2 05bd 348b c23d 20d6 923d 8022 a93b
000001d0: c0e6 bdbc c8f5 86bc f40e 64bd e89e c93c
000001e0: 044f 0d3d f05b 79bd e07d 96bd b093 b03d
000001f0: b861 30bd ce34 cc3d e005 e3bc b62c fbbd
00000200: 86ad d63d 0a23 bc3d e23e a43d d8f7 a33c
00000210: 361d 9c3d d816 c93c f8d4 99bd 8a5b cbbd
00000220: 30e2 b7bc 5034 73bc ecaa de3d ac9e 713d
00000230: e05f b9bb ec73 d2bd b655 fb3d 8061 b4bc
00000240: a4f4 46bd c2e7 b63d 88cc 8ebc e0c2 a2bb
00000250: 4866 223d 048a 2dbd 5a00 e1bd f083 58bd
00000260: a805 c33d 604f b2bc d0a3 53bd 9027 79bd
00000270: 6c2b 37bd 908f a33d 4255 9b3d dcb6 813d
00000280: bcc3 1d3d 7077 bcbc d07a 0b3c 10ac d6bc
00000290: f448 da3d dc6f e13d c0a7 bc3d 90ce 263d
000002a0: 9cec f5bd 9c41 943d 6a08 e03d 5855 bd3c
000002b0: 24c5 6cbd 8853 123d c87e 64bd 6c72 d23d
000002c0: a0c9 103d e06b e83c b4e2 27bd c21a da3d
000002d0: 580c f63c 202d a33c a00e 173d 6075 2f3d
000002e0: b841 df3c 501a 42bd 7c2a ff3d c052 893d
000002f0: f081 203d 40a9 18bc 925f e6bd 18e6 17bd
00000300: e4a6 6dbd 483d 09bd 4035 09bc 108a 163c
00000310: 7e81 ff3d 881d e4bd de3d 86bd 28a1 babd
00000320: ae4b 9d3d aebd c0bd 0041 c8bb 40fa 14bb
00000330: 5af6 fd3d 80c9 cdbd 7482 c33d d2a3 bbbd
00000340: 18d5 95bc ee63 eebd 88c7 c4bc ce94 81bd
00000350: 62e2 f63d f85a e03d 68cf 97bc 0a41 95bd
00000360: e0a6 083d 18bf e83c a85c e33c 2caa a6bd
00000370: b0b7 5bbd 2c68 b73d dc15 1fbd 2c44 b93d
00000380: f49e b03d 8ca5 7b3d ca48 bdbd 14ab 673d
00000390: 52dd dcbd 7ec0 d2bd 00b1 ab3d 5cad f03d
000003a0: bccd 08bd 6c62 953d f20f ec3d c09d 83bc
000003b0: fc47 7b3d fa30 cfbd 688d ff3d d84b 93bd
000003c0: e40a 2d3d 444c 0b3d 60b1 5abd 0031 c7bc
000003d0: 12f2 f3bd 542b 77bd 148b c6bd 16f0 b93d
000003e0: 286f f53d ee98 bb3d aa93 ed3d 84bc 32bd
000003f0: 14a7 e2bd 50ef 45bd d872 f23d c0cc 563c
0.105303586 -0.018769428 0.042262927 -0.06428783 0.08812867 -0.120037526 -0.038335323 -0.033481553
0.010250345 0.07129125 0.09118028 0.024633542 0.11646928 0.0020234287 0.12396209 -0.031185716
0.01790452 -0.011468902 0.038315177 0.0055120736 0.055088416 -0.08461499 -0.051161796 -0.057210177
0.00013175607 -0.07103844 0.005363062 0.10003318 0.004172623 -0.12096268 -0.08113079 -0.0047525167
-0.013052523 -0.038086534 -0.08494055 0.10004926 -0.058657616 0.04859665 0.032698467 -0.070891425
-0.020433575 -0.008944154 -0.118723705 -0.07331942 0.05129151 -0.09558663 -0.027760565 -0.11571783
-0.06622867 0.005413428 -0.12176691 -0.12040718 -0.002593249 -0.007928997 -0.067463875 0.11480394
0.0829384 -0.03872761 0.07826936 0.120816335 0.058982402 0.0026814789 -0.046466187 -0.084777236
-0.09289867 -0.098838344 0.0019906461 0.018450722 -0.03367506 -0.0486169 -0.08590634 0.020422906
0.022803828 0.11785005 0.042753354 -0.032500595 -0.015529245 -0.07137589 0.090217546 -0.07358123
-0.111832514 0.08010732 0.08518268 0.075987205 0.10043967 0.118261516 -0.063554615 -0.02229467
0.11953373 0.11516936 0.100373596 -0.11798376 -0.036364347 0.11806908 0.11170788 -0.04974112
0.010753751 0.008240148 0.029686585 0.042029306 -0.040198997 -0.055108562 -0.004251361 0.03426364
-0.009503067 -0.038201883 -0.10227285 -0.079822615 -0.08055791 -0.007289931 -0.024097547 0.11474201
-0.03262523 0.09499207 0.07169747 0.0051615834 -0.02318132 -0.01647462 -0.055678323 0.024611905
0.034499183 -0.060878694 -0.073482275 0.08621919 -0.04306194 0.09971009 -0.027712762 -0.12264387
0.10482316 0.09186371 0.080198064 0.020015642 0.07622759 0.024547026 -0.07511324 -0.09929569
-0.022446722 -0.014844015 0.108724445 0.058989212 -0.005657181 -0.102760166 0.122722074 -0.022019148
-0.04857315 0.08930923 -0.017431512 -0.0049670786 0.039648324 -0.04236795 -0.10986395 -0.0528602
0.09522563 -0.021766365 -0.051669896 -0.060828745 -0.044719145 0.07986367 0.07584621 0.06333706
0.038516745 -0.023006171 0.0085131675 -0.026205093 0.10658446 0.110076636 0.09211683 0.040724337
-0.1200802 0.072390765 0.10939105 0.023111984 -0.057805195 0.035724193 -0.05578497 0.102757305
0.035348535 0.028371751 -0.040987685 0.10649635 0.030035183 0.019918978 0.03687918 0.042836547
0.027253017 -0.047388375 0.12459275 0.067052364 0.039186418 -0.009317696 -0.11248697 -0.03708467
-0.058020487 -0.033505708 -0.008374512 0.00918819 0.124758705 -0.11138445 -0.06554769 -0.09112769
0.076804504 -0.094111785 -0.006111264 -0.0022732168 0.124005035 -0.10048199 0.09546366 -0.091621056
-0.018290088 -0.11640154 -0.024020925 -0.0632721 0.12054898 0.10954851 -0.018531516 -0.07287796
0.03336227 0.028411433 0.027754143 -0.081379265 -0.053641975 0.08955416 -0.038839206 0.09046206
0.08624068 0.061437175 -0.09242399 0.056559637 -0.10784401 -0.10290621 0.083833694 0.11751816
-0.03339933 0.07294163 0.11526479 -0.016066432 0.061347947 -0.101167634 0.12478143 -0.071922004
0.042246714 0.03400828 -0.053391814 -0.024315357 -0.119114056 -0.060344055 -0.09694496 0.09078996
0.11984092 0.091600284 0.1160043 -0.043636814 -0.11067024 -0.04832393 0.11838311 0.01311034
