test_mlp.onnx (onnx, 264164 bytes, 4 tensors)

fc1.weight f4 [256, 128]
0	0xbd9a015d	-0.07519791
1	0x3c9a5284	0.018838175
2	0xbd8e1d74	-0.069392115
3	0xbc729020	-0.01480487
4	0xbcde13ea	-0.027109105
5	0x3b2c3e80	0.002628237
6	0x3d2fbc3a	0.042904116
7	0xbd1f6b8d	-0.038920928
8	0xbd96b544	-0.073587924
9	0xbd009e1e	-0.031400792
10	0xbca176f8	-0.019710049
11	0xba09b400	-0.00052529573
12	0xbd21d363	-0.039508235
13	0x3d2b36de	0.041800372
14	0xbd9ad664	-0.07560423
15	0x3d720916	0.059090696
16	0x3be95f30	0.007121943
17	0x3d43aca6	0.047772072
18	0x3d8293b1	0.06375826
19	0xbd9d63bf	-0.07685041
20	0xbca93ec0	-0.020659804
21	0xbd8f137a	-0.06986137
22	0x3d619c7a	0.05508087
23	0x3d8a8e8d	0.06765471
24	0x3d806281	0.06268788
25	0x3d6af83a	0.057365634
26	0xbce1d710	-0.02756837
27	0xbd22676d	-0.039649416
28	0x39ca9600	0.000386402
29	0x3ca40778	0.020023093
30	0x3d80df05	0.062925376
31	0xbd056afe	-0.03257274
32	0x3d62a8ce	0.055336766
33	0xbda593e3	-0.08084848
34	0xbc93ca70	-0.018040866
35	0xbd830806	-0.06398015
36	0xbd827ba4	-0.06371239
37	0xbcf84668	-0.03030701
38	0x3cbfa510	0.023394138
39	0x3c136208	0.00899554
40	0x3dad0fbb	0.08450266
41	0x3cbe7c74	0.023252703
42	0xbc8c66ec	-0.01713892
43	0x3d161022	0.03663648
44	0x3d2da106	0.042389892
45	0x3d289cbe	0.041165106
46	0xbd5e783c	-0.054313883
47	0x3cf4a370	0.02986309
48	0x3bff74c0	0.0077959
49	0xbd36e349	-0.04465035
50	0x3d1b9886	0.037987255
51	0xbd85657a	-0.06513496
52	0x3d0c2cac	0.03422229
53	0xbd426bb9	-0.047466014
54	0xbd93741b	-0.0719988
55	0xbd36d6fd	-0.044638623
56	0x3d0b59f2	0.034021325
57	0xbd5df1cf	-0.054185685
58	0xbd8b3fe6	-0.06799297
59	0xbd895dc7	-0.0670734
60	0x3b11aa00	0.0022226572
61	0xbc9b1c70	-0.018934458
62	0xbda2365c	-0.079205245
63	0x3d393b16	0.045222364
64	0x3be37500	0.0069414377
65	0x3d56deae	0.052458458
66	0x3d7d738a	0.061877765
67	0x3d19319e	0.037400834
68	0xbd0a8688	-0.033819705
69	0x3d5020ea	0.05081264
70	0x3da52a77	0.0806474
71	0xbcc80924	-0.024418421
72	0xbda6035f	-0.08106112
73	0x3d8d40b3	0.06897106
74	0x3d4d1d2e	0.050076656
75	0xbc8045ec	-0.015658341
76	0xbd2b1733	-0.04177017
77	0x3daf564d	0.085613824
78	0xbd68ba3e	-0.05681824
79	0xbc803f64	-0.015655227
80	0xbce450fc	-0.027870648
81	0x3da6e605	0.081493415
82	0xbd7a10c9	-0.061051164
83	0x3d166faa	0.036727585
84	0x3d9e341b	0.07724782
85	0xbd90d9c2	-0.07072784
86	0x3d2a7f7a	0.041625477
87	0x3a55de00	0.0008158386
88	0xbc2a2480	-0.010384679
89	0x3cd1efb8	0.025627002
90	0x3da59cbd	0.08086536
91	0xbd77b4ed	-0.06047528
92	0xbd074a36	-0.033029757
93	0x3d87149b	0.06595727
94	0xbccc3348	-0.024926797
95	0x3d5b230a	0.053500213
96	0xbd1488c1	-0.03626323
97	0xbd831966	-0.06401329
98	0xbd18bb12	-0.03728778
99	0x3d9923ff	0.07477569
100	0xbd63b59e	-0.055593126
101	0x3d792bd6	0.06083282
102	0xbdb1a938	-0.08674854
103	0xbd062723	-0.032752167
104	0x3d8ca91d	0.06868193
105	0xbdaee0e0	-0.08538985
106	0x3db01761	0.08598209
107	0xbbe3c010	-0.006950386
108	0xbd4008cd	-0.046883393
109	0x3d34b6da	0.044119693
110	0x3bfd1900	0.0077239275
111	0x3db1510b	0.08658036
112	0x3cb7d704	0.022441395
113	0x3d9fa969	0.07795984
114	0x3d87ceb3	0.066312216
115	0xbd8645ff	-0.065563194
116	0xbcbbba88	-0.022916093
117	0xbda062c4	-0.07831338
118	0xbcfd45f0	-0.030917138
119	0xbd67da8b	-0.056604903
120	0xbc30b6a8	-0.010785736
121	0x3d861e6d	0.06548772
122	0xbc1a38b8	-0.009412937
123	0xbd31dff9	-0.043426488
124	0xbb3cc220	-0.002880223
125	0x3d9a09e9	0.075214215
126	0xbc6e8c40	-0.014559805
127	0x3ce372b4	0.027764656
128	0xbc5823b0	-0.013192102
129	0x3d9f5ba9	0.07781155
130	0xbd77cc21	-0.060497407
131	0xbd5abbda	-0.053401805
132	0xbdb1f24c	-0.086887926
133	0xbd392849	-0.045204435
134	0x3a5f8800	0.00085270405
135	0x3cc95fa4	0.024581738
136	0x3d6c5622	0.05769933
137	0x3d873d09	0.066034384
138	0xbd6675d7	-0.056264725
139	0xb9b58000	-0.00034618378
140	0x3d78ef06	0.060774826
141	0xbd9446e8	-0.07240087
142	0x3bff31c0	0.007787913
143	0x3d74f61a	0.059805013
144	0xbda0aad4	-0.07845083
145	0xbdb42439	-0.087959714
146	0x3b8e2390	0.0043377355
147	0x3da407c1	0.080092914
148	0x3cb08c3c	0.021551244
149	0x39094800	0.0001309216
150	0x3d9f7735	0.07786409
151	0xbd412507	-0.047154453
152	0xbc26dc48	-0.010184355
153	0x3d43a73a	0.0477669
154	0x3db02c77	0.08602231
155	0x3d451d5e	0.04812371
156	0x3c248998	0.0100425705
157	0x3cf9d060	0.030494869
158	0x3a67cf00	0.0008842796
159	0xbd649ac3	-0.055811655
160	0x3d6b6a52	0.05747444
161	0xbc0fb190	-0.008770362
162	0x3d80c347	0.06287246
163	0x3d99e8d5	0.07515112
164	0x3c443e18	0.011977695
165	0xbda3d59e	-0.079997286
166	0xbd6972b0	-0.05699414
167	0xbdaeb522	-0.08530642
168	0xbd019713	-0.031638216
169	0xbd9ebf3a	-0.07751317
170	0xbc95ab70	-0.018270224
171	0xbd5878c6	-0.052849554
172	0x3c9017c0	0.01758945
173	0xbdadccca	-0.08486326
174	0xbc9b1b44	-0.0189339
175	0x3c3823b8	0.011238985
176	0xbd3e0fc3	-0.04640175
177	0x3d872b85	0.066000976
178	0x3da26943	0.07930233
179	0xbd46eb06	-0.04856398
180	0xbc3e0c20	-0.0115995705
181	0xbdb32dbd	-0.08748958
182	0xbd2cb0fd	-0.042160977
183	0x3d19d89e	0.037560098
184	0x3d8fef55	0.07028071
185	0x3d81b26b	0.06332859
186	0xbcbe7f0c	-0.02325394
187	0xbcc29150	-0.023750931
188	0xbccfc8b4	-0.025364257
189	0xbdae7af8	-0.08519548
190	0xbaefa2c0	-0.0018282756
191	0x3db4cf69	0.08828623
192	0xbd5419d5	-0.051782448
193	0x3d77446a	0.06036798
194	0x3ce3b150	0.02779451
195	0xbd4fdc64	-0.05074729
196	0x3d0b9c7e	0.03408479
197	0x3c839828	0.016063765
198	0x3da0ca27	0.078510575
199	0x3d365796	0.044517122
200	0xbdaaaf59	-0.08334226
201	0x3b60e000	0.0034313202
202	0x3da8482d	0.082168914
203	0x3d3862ee	0.04501622
204	0x3a2b4380	0.00065331906
205	0xbda0dfc5	-0.07855181
206	0xbd529c9d	-0.05141889
207	0xbd80db15	-0.062917866
208	0x3d9c5c1f	0.07634758
209	0xbcfd9fc2	-0.030959968
210	0x3d28594a	0.041100778
211	0x3cd7632c	0.026292406
212	0xbc8e68c4	-0.01738394
213	0xbd3d679d	-0.04624139
214	0x3b94a2a0	0.004535988
215	0x3cfa7b7c	0.03057646
216	0x3d0c1122	0.034196027
217	0xbd385d69	-0.045010958
218	0x3d7ac5a2	0.061223634
219	0xbd7f3b79	-0.062312577
220	0x3cc26cd8	0.023733541
221	0xbdae03ce	-0.084968194
222	0x3d61333e	0.05498051
223	0xbc5f8b40	-0.01364404
224	0x3d942d33	0.072351836
225	0xbd8b745d	-0.06809304
226	0x3a230780	0.0006219074
227	0xbb8b0ce0	-0.004243478
228	0x3cdaa04c	0.026687764
229	0x3cd66b94	0.026174344
230	0xbc86b2d4	-0.016442694
231	0xbd8a2d3b	-0.06746908
232	0xbc3f49f0	-0.011675343
233	0xbd344e2f	-0.044019874
234	0xbd351b0f	-0.04421526
235	0xbd40b712	-0.04704959
236	0xbd246ee5	-0.04014482
237	0x3d274c96	0.040844522
238	0x3d6af8d2	0.0573662
239	0xbbd9d840	-0.0066480935
240	0x3ccb7a74	0.024838664
241	0xbdb461d6	-0.08807723
242	0x3d24fc82	0.040279873
243	0xbd841a0d	-0.06450281
244	0x3ceadcfc	0.028669827
245	0x3d0cafa0	0.034347177
246	0x3c899030	0.016792387
247	0xbcc54d54	-0.024084724
248	0x3d83cbb5	0.064353384
249	0x3d51c406	0.051212333
250	0xbd23292f	-0.039834198
251	0x3d85113f	0.0649743
252	0xbdb2e9d7	-0.08736008
253	0xbd3ef486	-0.046619914
254	0x3db0d281	0.086339004
255	0xbd20027c	-0.03906487

fc1.bias f4 [256]
0	0x3c9ea9a8	0.019368008
1	0x3daba5e5	0.08381251
2	0x3d91fe81	0.07128621
3	0x3d25d7a2	0.040488847
4	0x3cf94184	0.030426748
5	0x3cfa0d08	0.030523792
6	0x3d8e2bbd	0.06941936
7	0xbcc47bb0	-0.02398476
8	0x3d3236e6	0.043509386
9	0xba55cb00	-0.00081555545
10	0xbcfd84a6	-0.03094704
11	0xbc8b4ee8	-0.017005399
12	0x3d29c85e	0.04145085
13	0x3c89ac14	0.016805686
14	0x3aebb5c0	0.0017983243
15	0x3c92dde8	0.017928079
16	0xbce2a610	-0.027667075
17	0xbc1c2280	-0.00952971
18	0x3ca08a3c	0.019597165
19	0xbd4329f7	-0.047647443
20	0xbd7b76a8	-0.061392456
21	0x3db19cd7	0.08672493
22	0xbc58e718	-0.013238691
23	0xbd1cf4ae	-0.038319282
24	0x3cc76fe0	0.024345338
25	0xbcbf34bc	-0.023340575
26	0xb9f13600	-0.00046007335
27	0x3d8cac99	0.06868858
28	0x3d3934be	0.045216314
29	0xbd382335	-0.04495545
30	0xbc02c668	-0.007981874
31	0x3d2611d6	0.040544353
32	0xbd5f5e88	-0.05453351
33	0xbc88943c	-0.016672246
34	0xbdaf1aa3	-0.085500024
35	0x3d7423ba	0.059604384
36	0xbd929c68	-0.071587384
37	0xbd5e7045	-0.054306287
38	0x3c957bc0	0.018247485
39	0xbdacaecf	-0.084317796
40	0x3a8524c0	0.0010158047
41	0x3d5f76da	0.054556705
42	0xbdb0f93d	-0.086412884
43	0xbccc4fc4	-0.024940379
44	0xbbf80880	-0.0075693727
45	0xbd28f1b6	-0.04124614
46	0xbd9c158f	-0.076212995
47	0x3d574c1a	0.05256281
48	0xb945a200	-0.00018847734
49	0x3db155bf	0.08658933
50	0xbd869112	-0.06570639
51	0xbca0e58c	-0.019640706
52	0x3d62f596	0.05540999
53	0xbd36afc1	-0.044601206
54	0x3d5df116	0.054184996
55	0x3d75927e	0.05995416
56	0xbda68b7c	-0.08132073
57	0xbcedf446	-0.029047143
58	0x3d5a8bf6	0.053356133
59	0xbbbd01a0	-0.005768016
60	0x3cdc39e4	0.026883073
61	0x3c139ea8	0.009009995
62	0x3d3f3d32	0.04668922
63	0x3c9f86b4	0.019473411
64	0xbd78a1eb	-0.060701292
65	0x3cce31d4	0.025170244
66	0xbb6f15c0	-0.003648147
67	0x3d4cd3e2	0.050006755
68	0x3dac8f99	0.084258266
69	0xbdb06293	-0.086125515
70	0x3da0db9b	0.078543864
71	0x3ce8eef4	0.028434254
72	0x3da73c07	0.08165746
73	0x3d3cefb6	0.046127044
74	0x3dadc281	0.08484364
75	0xbcb73554	-0.022364296
76	0x3ce3dd48	0.027815476
77	0x3d0b7228	0.034044415
78	0x3b59f4e0	0.003325753
79	0x3c6a76d8	0.014310561
80	0xbcc36d58	-0.02385585
81	0xbd500e2d	-0.05079477
82	0x3c747858	0.01492127
83	0xbd6b4555	-0.057439167
84	0xbc909bd8	-0.017652437
85	0xbcbe09fc	-0.02319812
86	0x3d8a686d	0.06758199
87	0xbbed72b0	-0.007246338
88	0x3bdf45d0	0.006813742
89	0xbd09a497	-0.03360423
90	0xbd1891f0	-0.03724855
91	0x3b458100	0.0030136704
92	0xbd225869	-0.039635096
93	0xbcf32e7a	-0.029685248
94	0xbcef0a9c	-0.029179864
95	0x3d227a8a	0.039667644
96	0xbc613a10	-0.013746753
97	0x3d5c0ffa	0.053726174
98	0x3d84e23b	0.064884625
99	0xbda79fb4	-0.08184758
100	0x3bf42ba0	0.0074514896
101	0x3d65fae2	0.056147464
102	0xbd2a6a3f	-0.04160523
103	0x3db0e5a5	0.08637551
104	0xbcbc960c	-0.023020767
105	0xbd970f47	-0.07375961
106	0x3da07f73	0.07836809
107	0x3d159fe2	0.03652943
108	0x3b7c6600	0.0038512945
109	0xbd050974	-0.03247972
110	0xbd4e692c	-0.05039327
111	0xbb206aa0	-0.0024477616
112	0xbd4f7470	-0.050648153
113	0x3d3375c2	0.043813474
114	0x3c49ec40	0.012324393
115	0x3d3145f2	0.043279596
116	0x3da4c817	0.080459766
117	0xbd2036a2	-0.039114602
118	0xbd7c4741	-0.06159139
119	0xbd18ac66	-0.037273787
120	0xbd8da801	-0.0691681
121	0xbd7150de	-0.05891501
122	0xbda312ed	-0.07962594
123	0x3c5cc050	0.013473585
124	0xbdad206d	-0.0845345
125	0x3b1186c0	0.0022205561
126	0x3d3dd652	0.04634697
127	0xbd578b11	-0.05262286
128	0x3dac6333	0.08417358
129	0xbca0af04	-0.019614704
130	0x3cbd5808	0.023113266
131	0x3cbfb4b4	0.023401596
132	0x3d11d3a6	0.035602234
133	0xbda961af	-0.08270585
134	0xbd664a60	-0.056223273
135	0xbd87d412	-0.06632246
136	0x3c38ab40	0.011271298
137	0x3d8753d1	0.066077836
138	0x3c981958	0.018566772
139	0xbd813203	-0.06308367
140	0xbd607ecc	-0.054808423
141	0x3c512d40	0.012767136
142	0x3d53d01a	0.051712133
143	0x3cb82674	0.022479273
144	0x3db08387	0.08618837
145	0xbb8dcfd0	-0.0043277517
146	0x3d5845ca	0.05280093
147	0x3d9c11e3	0.07620599
148	0xbd74b138	-0.05973932
149	0x3d64167e	0.055685513
150	0x3d32f372	0.0436892
151	0xbb54d200	-0.0032473803
152	0x3c3a7378	0.011380069
153	0xbc4ad348	-0.012379475
154	0x3d68a49e	0.056797616
155	0x3cf8dd4c	0.03037896
156	0xbc01c0f8	-0.0079195425
157	0xbda984a8	-0.08277255
158	0xbbe0ed60	-0.006864235
159	0xbdb0ff54	-0.0864245
160	0x3d0b2372	0.03396935
161	0x3d4105c2	0.04712463
162	0xbd98c1ae	-0.074588165
163	0xbcce1fcc	-0.025161646
164	0x3d853537	0.065042906
165	0xbd8c36b0	-0.06846368
166	0x3da92afd	0.082601525
167	0x3d8d7bbf	0.06908368
168	0xbd1d0fe4	-0.038345233
169	0xbd731ae6	-0.059351824
170	0xbc764568	-0.015031196
171	0x3d29c972	0.04145188
172	0xbcd0b134	-0.025475122
173	0xbd6db544	-0.058034196
174	0x3c20c7f8	0.009813301
175	0x3c40e930	0.011774346
176	0xbd7c174e	-0.061545663
177	0xbc597808	-0.013273247
178	0x3d22d202	0.03975106
179	0x3b7c4a40	0.0038496405
180	0x3d515702	0.051108368
181	0xbd7663b4	-0.060153678
182	0x3d92aa9d	0.07161448
183	0x3d865fad	0.065612175
184	0xbd0907ff	-0.03345489
185	0xbd1fbc2c	-0.038997814
186	0x3d8bd11f	0.06826996
187	0x3daa4429	0.08313782
188	0xbd6c2d4f	-0.057660397
189	0x3d7b1492	0.061298914
190	0x3cb69c0c	0.022291206
191	0x3bc84520	0.006111756
192	0x3d2ac68a	0.041693248
193	0xbcd0bd40	-0.025480866
194	0x3d06031e	0.032717817
195	0x3da25ceb	0.07927879
196	0x3ce4f6ac	0.027949654
197	0x3d7f3216	0.062303625
198	0x3d50fe2e	0.051023655
199	0xbcac6eb0	-0.021048874
200	0x3d9d76cd	0.07688675
201	0xbb8a3460	-0.0042176694
202	0x3c174a80	0.009234071
203	0xbcdc206e	-0.026870932
204	0xbc29c680	-0.0103622675
205	0x3d176a2e	0.036966495
206	0x3d24f3c2	0.040271528
207	0xbbe28630	-0.006912969
208	0x3db3c045	0.08776907
209	0xbd87094a	-0.065935686
210	0xbd82274a	-0.0635515
211	0xbd92176c	-0.071333736
212	0xbd78269e	-0.060583703
213	0xbd3d6fc2	-0.04624916
214	0x3be884c0	0.007095903
215	0x3da6b84b	0.0814062
216	0xbd24d1d3	-0.040239166
217	0xbd8ef528	-0.069803536
218	0xbccd51f0	-0.025063485
219	0x3c681440	0.014164984
220	0x3c32a608	0.010903843
221	0xbd8450a6	-0.06460695
222	0x3cdde52c	0.027086817
223	0x3d1cd0a2	0.038284905
224	0x3d757c0e	0.05993276
225	0xbd6ee14a	-0.05832032
226	0x3c1aa6e0	0.0094392
227	0x3da3588f	0.079758756
228	0x3d9538c5	0.072862186
229	0xbbaddf50	-0.005306162
230	0x3ceb0f08	0.02869369
231	0x3bfe70d0	0.007764913
232	0xbdb16a75	-0.08662883
233	0xbce825a0	-0.028338253
234	0xbdb0ba8e	-0.086293325
235	0xbda3b6b6	-0.07993834
236	0xbd8f391f	-0.06993317
237	0xbd8c5f4b	-0.06854113
238	0xbd8cd1d4	-0.06875959
239	0x3acee900	0.0015785992
240	0xbd3e9f7e	-0.046538822
241	0xbd72cbb0	-0.059276283
242	0x3d0e5f12	0.034758635
243	0xbb753a00	-0.0037418604
244	0x3d3982e6	0.04529085
245	0x3d0a5cf4	0.033780053
246	0x3cdd35e8	0.027003244
247	0xbd2284b1	-0.039677326
248	0xbca7e3ac	-0.020494305
249	0xbb5d1e00	-0.0033739805
250	0xbc16c2b8	-0.009201698
251	0xbca48fd0	-0.020088106
252	0xbd9bf3c9	-0.07614858
253	0xbce665b2	-0.028124664
254	0xbc865ab8	-0.01640068
255	0x3ccbae74	0.02486346

fc2.weight f4 [128, 256]
0	0x3bbe7010	0.0058116987
1	0x3d1f5582	0.038899906
2	0x3d3d74d0	0.04625398
3	0xbd1805b8	-0.03711483
4	0x3ca41e7c	0.020034067
5	0xbbe84700	-0.007088542
6	0xbcc15324	-0.023599215
7	0x3b2ce1c0	0.0026379675
8	0xbd59704c	-0.05308561
9	0xbcaedd4c	-0.021345757
10	0x3c9dba88	0.019253984
11	0xbd284fa4	-0.041091576
12	0xbc12fb68	-0.008971073
13	0x3cff1110	0.031136066
14	0x3d782820	0.06058514
15	0xbcb78f8c	-0.022407316
16	0xbd3e950c	-0.04652886
17	0xbd27aff6	-0.040939294
18	0xbd4684b2	-0.04846639
19	0x3ae79980	0.0017669648
20	0x3cee6d60	0.029104888
21	0x3cf52934	0.029926874
22	0xbd325402	-0.043537147
23	0xbd3ba3d6	-0.045810543
24	0x3b6098c0	0.0034270734
25	0x3b63f8c0	0.0034785718
26	0x3b47e8e0	0.0030503795
27	0x3d307390	0.04307896
28	0xbd65d92a	-0.056115307
29	0x3ce56690	0.028003007
30	0xbd0da41c	-0.034580335
31	0xbcd620ec	-0.026138745
32	0xbbea0af0	-0.007142417
33	0x3c38e140	0.011284173
34	0x3bfbb3f0	0.0076813623
35	0xbd1de586	-0.03854897
36	0xbc57b048	-0.013164587
37	0x3d21636e	0.039401464
38	0xbd318a48	-0.043344766
39	0xbd33754c	-0.043813035
40	0x3ca8deb8	0.020614013
41	0xbd7798bc	-0.060448393
42	0x3d39b808	0.04534152
43	0xbd5775c8	-0.05260256
44	0x3c406198	0.011742018
45	0xbd555648	-0.052084237
46	0x3c994ed4	0.018714346
47	0xbc7a9cd8	-0.0152961835
48	0xbd5c310c	-0.053757712
49	0x3d396a50	0.045267403
50	0x3c41fb58	0.01183971
51	0xbd3619cc	-0.044458196
52	0xbd47e634	-0.048803523
53	0xbd5637ae	-0.052299194
54	0x3d3351e8	0.043779284
55	0x3d4a7cbc	0.049435362
56	0x3d144e94	0.03620775
57	0xb98eff00	-0.0002727434
58	0x3d499c34	0.049221233
59	0xbcb25638	-0.021769628
60	0x3ceffaec	0.029294454
61	0xbd26db0a	-0.040736236
62	0xbd56b980	-0.052423
63	0x3d6eec68	0.058330923
64	0x3c4f6428	0.012658156
65	0x3b7380e0	0.0037155673
66	0x3d2c9994	0.04213865
67	0x3d5a4e6a	0.053297438
68	0xbd696302	-0.056979187
69	0xbc6915d8	-0.014226399
70	0xbba23980	-0.004950702
71	0xbd397d22	-0.04528535
72	0xbd488c7c	-0.0489621
73	0x3d5875ba	0.052846648
74	0x3d66f6fe	0.056387894
75	0x3d412d4c	0.04716234
76	0xbc82a540	-0.015947938
77	0xbc2d6fe8	-0.010585763
78	0x3b4544c0	0.0030100793
79	0x3c6b9f90	0.014381304
80	0xbd04bcd8	-0.032406658
81	0x3d5e24a6	0.05423417
82	0x3ca82668	0.020526126
83	0xbca09914	-0.019604243
84	0xbbb9b660	-0.0056674927
85	0xbd0197a0	-0.03163874
86	0xbccdd88c	-0.025127672
87	0xbd739b5a	-0.059474327
88	0x3aa3b480	0.0012489706
89	0xbb094080	-0.0020942986
90	0xbd470ae0	-0.048594356
91	0x3c844828	0.016147688
92	0xbd756032	-0.059906192
93	0xbd7c49a8	-0.06159368
94	0xbd5ab59e	-0.05339586
95	0xbc978ddc	-0.018500261
96	0xbd211400	-0.039325714
97	0x3c5c18e0	0.013433665
98	0xbce17fb4	-0.027526714
99	0xbcbb86d8	-0.022891447
100	0x3b3bcfc0	0.0028657764
101	0xbb10cdc0	-0.0022095293
102	0x3c9a1220	0.01880747
103	0x3d545926	0.05184283
104	0xbd3d795e	-0.046258323
105	0xbd44bd86	-0.048032306
106	0xbd4ff3d4	-0.050769642
107	0x3d57497e	0.052560322
108	0x39569c00	0.00020466745
109	0x3d41ead6	0.047343098
110	0xbc5f21f8	-0.013618939
111	0xbcafd74c	-0.021464966
112	0xbd4f9684	-0.050680652
113	0x3d00ccf4	0.03144546
114	0x3d289aa0	0.041163087
115	0x3c8dadd4	0.017294802
116	0x3ce861c4	0.02836693
117	0xbcbfa294	-0.023392953
118	0x3d49c4a8	0.04925981
119	0x3b8506f0	0.004059665
120	0x3d50d5bc	0.050985083
121	0x3cbf5368	0.0233552
122	0xbd25abfa	-0.040447213
123	0x3d4402ce	0.047854237
124	0x3d7576d2	0.05992777
125	0xbd4489a2	-0.04798282
126	0xbd7bc7f4	-0.061469987
127	0x3c99cab8	0.018773422
128	0xbd6bbd72	-0.057553716
129	0x3d35957e	0.04433202
130	0x3c706fa8	0.014675058
131	0xbbbcc4f0	-0.0057607815
132	0xbd119794	-0.035544947
133	0xbd1fdcec	-0.039029047
134	0x3d031ea2	0.032011636
135	0xbd7aab14	-0.06119831
136	0xbd6678f0	-0.05626768
137	0x3d18f494	0.037342623
138	0xbd5a5816	-0.05330666
139	0xbd5ba7a6	-0.05362668
140	0x3d1c768a	0.038198985
141	0x3d1a028a	0.037600078
142	0x3c97b074	0.018516757
143	0xbd5ff376	-0.05467554
144	0x3bae3ba0	0.0053171664
145	0xbd28cfaa	-0.04121367
146	0x3d17d65a	0.037069656
147	0x3c985518	0.018595263
148	0xbcf39160	-0.029732406
149	0xbcbf9168	-0.023384765
150	0x3b2fec60	0.0026843771
151	0xbd1e1f0c	-0.038603827
152	0xbc114cb0	-0.008868381
153	0xbd44b546	-0.04802444
154	0xbc889354	-0.016671814
155	0x3d7caa68	0.06168595
156	0xbc027018	-0.007961296
157	0x3d2f7f34	0.04284592
158	0x3be18050	0.006881751
159	0xbd074776	-0.033027135
160	0x3c239d90	0.009986296
161	0x3d1f9a36	0.038965426
162	0xbd51b248	-0.051195413
163	0x3d237ed4	0.039915875
164	0xb99ce400	-0.00029924512
165	0xbd47e20e	-0.048799567
166	0x3d46cbf8	0.048534364
167	0x3ce54978	0.027989134
168	0xbc25b310	-0.010113493
169	0xbd69e7be	-0.057105772
170	0x3d6cc700	0.05780697
171	0x3ce8a52c	0.028399073
172	0xbc95cfc4	-0.018287547
173	0xbb910150	-0.0044252053
174	0xbc5ae9b0	-0.0133613795
175	0x3ae77940	0.0017660037
176	0x3d1d56b6	0.038412772
177	0xbb7dfdc0	-0.0038755983
178	0x3d59adac	0.053144142
179	0x3c8c00f0	0.01709029
180	0xbce9c6a4	-0.028537102
181	0xbd3fb02e	-0.046798877
182	0x3ce456c8	0.027873412
183	0x3ca34e74	0.01993487
184	0xbcdd62d4	-0.027024664
185	0xba625480	-0.00086338073
186	0xbd05dc6c	-0.032680914
187	0xbc3999c0	-0.011328161
188	0x3c2cd148	0.010547943
189	0x3d028286	0.031862758
190	0x3c9f1b98	0.019422337
191	0x3c982588	0.018572584
192	0x3d5213d2	0.051288433
193	0x3d2bd7e8	0.04195395
194	0x3d73db18	0.059535116
195	0x3d3994f4	0.04530807
196	0xbc662970	-0.014047965
197	0xbd4c1be2	-0.04983128
198	0xbd379ab8	-0.044825286
199	0xbce35624	-0.027751036
200	0x3c6cf9c8	0.014463849
201	0xbd23dc08	-0.04000476
202	0x3d78fd3c	0.060788378
203	0xbd0046aa	-0.03131739
204	0xbd2ca910	-0.042153418
205	0xbab05100	-0.0013451874
206	0xbc0fdca8	-0.008780636
207	0x3d0e2de8	0.03471175
208	0x3d10bbe8	0.03533545
209	0x3d7de096	0.06198176
210	0xbd46bda2	-0.04852069
211	0x3d4f45ae	0.05060356
212	0x3b54cca0	0.0032470599
213	0x3d04647a	0.032322384
214	0xbcc9d674	-0.024638392
215	0xbc590978	-0.013246886
216	0xbd31330a	-0.043261565
217	0x3ce65db8	0.02812086
218	0x3d33a60c	0.043859527
219	0x3cd9e994	0.026600637
220	0x3cd59e10	0.026076347
221	0x3c859254	0.016305126
222	0xbd20f1e2	-0.039293177
223	0x3d56d840	0.052452326
224	0x3d0c84d2	0.034306355
225	0xbc0618a8	-0.008184589
226	0xbc82d338	-0.015969858
227	0xbd420002	-0.04736329
228	0xbd171e36	-0.036894046
229	0xbbcfac00	-0.0063376427
230	0xbcbe0780	-0.023196936
231	0x3d079000	0.033096313
232	0xbcd2ad48	-0.025717393
233	0x3d5b40d8	0.053528637
234	0x3d610bae	0.05494278
235	0xbd55ff94	-0.05224569
236	0xbce25158	-0.027626678
237	0x3d7a5e6a	0.061125197
238	0xbd729da0	-0.059232354
239	0xbcf59f34	-0.02998314
240	0x3d15db8a	0.036586322
241	0xbd33777e	-0.04381513
242	0xbccb2904	-0.024799831
243	0x3c6fd3d8	0.01463791
244	0x3c837fcc	0.01605215
245	0xbd4f16b4	-0.05055876
246	0xbc813b44	-0.01577533
247	0xbcf554c0	-0.029947639
248	0xbc069bd8	-0.008215867
249	0xbd41660e	-0.047216468
250	0x3d64b87a	0.055839993
251	0xbac33bc0	-0.0014895126
252	0x3d4b414c	0.04962282
253	0x3d7091aa	0.058732666
254	0x3ca553c0	0.020181537
255	0x3d17746e	0.03697627

fc2.bias f4 [128]
0	0x3c8c7594	0.01714591
1	0xbd7712e8	-0.060320765
2	0xbd6b4306	-0.057436965
3	0xbc4381d8	-0.011932813
4	0xbcc9af0c	-0.024619602
5	0x3ce56298	0.028001115
6	0xbcb98d44	-0.022650369
7	0x3cd5b3e8	0.026086763
8	0x3d231c72	0.03982205
9	0xbd24dfc8	-0.040252477
10	0xbd5aae54	-0.05338891
11	0x3d700ad6	0.058604084
12	0x3d159a78	0.036524266
13	0xbc3f48c8	-0.011675067
14	0xbbd71a50	-0.006564416
15	0xbd60e6c6	-0.054907583
16	0x3b60be40	0.0034293085
17	0xbd77b64a	-0.06047658
18	0x3c76ead0	0.015070632
19	0xbd10c014	-0.03533943
20	0xbd3434d2	-0.043995686
21	0xbd33a7ae	-0.043861084
22	0x3cd2a420	0.025713027
23	0x3d62f984	0.055413738
24	0x3c890268	0.01672478
25	0x3c910184	0.017700918
26	0xbcf7d6bc	-0.03025376
27	0xbd1aea60	-0.037821174
28	0xbd5e0dde	-0.054212444
29	0xbd60e964	-0.05491008
30	0xbd4375d4	-0.04771979
31	0x3d505604	0.05086328
32	0x3cff2c38	0.031149015
33	0xbb251de0	-0.002519481
34	0x3d3512ce	0.044207387
35	0x3caa3e6c	0.020781718
36	0x3c98f9dc	0.01867383
37	0x3d4bbc22	0.049739964
38	0xbcaa71fc	-0.020806305
39	0x3c0808b8	0.00830286
40	0x3c2e7160	0.010647148
41	0xbd523d98	-0.05132827
42	0x3d049db6	0.032376967
43	0x3c8b79b0	0.017025799
44	0x3cedb7b0	0.029018253
45	0xbd1dc1b4	-0.038514808
46	0xbba48f60	-0.0050219744
47	0x3c1b7eb8	0.009490661
48	0x3b720ee0	0.0036935136
49	0xbc23ada0	-0.009990126
50	0xbd395bd4	-0.04525359
51	0xbbb9a0e0	-0.0056649297
52	0x3d5c6ee0	0.053816676
53	0xbc4c5338	-0.012471013
54	0x3d1d48dc	0.038399562
55	0x3cf1cf3c	0.029517762
56	0xbb5d4da0	-0.0033768192
57	0x3c6fd808	0.014638908
58	0xbcabaf24	-0.020957537
59	0xbcca1950	-0.024670273
60	0x3c8f8378	0.017518744
61	0xbd6d5940	-0.057946444
62	0x3cd173cc	0.025567912
63	0xbd000394	-0.031253412
64	0xbca42aa8	-0.020039871
65	0x3d4468e8	0.04795161
66	0x3ccb1c48	0.024793759
67	0xbd2912be	-0.04127764
68	0xbd30d452	-0.043171234
69	0x3d4abb34	0.049494937
70	0xba8d9900	-0.0010803044
71	0xbd46cd02	-0.048535354
72	0xbd29b746	-0.04143455
73	0xbb9973c0	-0.004682988
74	0xbd4d14d6	-0.0500687
75	0xbd57a182	-0.05264426
76	0xbb502e80	-0.0031765997
77	0xbc851500	-0.016245365
78	0xbd1c4d7a	-0.038159825
79	0xbbaa1f60	-0.0051917285
80	0x3cfbe648	0.030749455
81	0x3d32ce16	0.04365357
82	0xbd45702a	-0.04820267
83	0x3d352984	0.044229046
84	0x3d50e90e	0.05100351
85	0xbcffee8c	-0.031241678
86	0xbc706be0	-0.014674157
87	0x3d7b61dc	0.061372623
88	0xbd0e2ffe	-0.034713738
89	0xbcf9f644	-0.030512936
90	0x3c9be59c	0.019030385
91	0xbd333dc6	-0.043760084
92	0xbca560b8	-0.02018772
93	0x3cc0ab4c	0.02351918
94	0xbce776e8	-0.028254941
95	0xbcb9ce10	-0.022681266
96	0xbcc56504	-0.02409602
97	0x3d540d64	0.051770583
98	0x3c3ba380	0.011452556
99	0x3cda4da4	0.02664835
100	0xbd74e6a4	-0.05979027
101	0xbc4c6998	-0.012476347
102	0xbc17f5b0	-0.009274885
103	0x3b1ea800	0.0024209023
104	0x3d3427de	0.043983333
105	0x3c9d8d38	0.019232377
106	0xbcc82f1c	-0.024436526
107	0xbd51a638	-0.05118391
108	0x3cef1a80	0.02918744
109	0x3d25989e	0.04042875
110	0x3d1cb4b6	0.038258277
111	0xbd6ca8bc	-0.057778105
112	0x3bdcc0b0	0.0067368373
113	0x3cb8247c	0.022478335
114	0x3d0a9cfc	0.03384112
115	0xbcec5994	-0.028851308
116	0xbc07cd68	-0.008288719
117	0x3baae980	0.0052158237
118	0xbc88318c	-0.016625188
119	0xbcdb0cd4	-0.026739515
120	0xbd5e7a84	-0.05431606
121	0x3d368c44	0.04456736
122	0x3c8915dc	0.016734056
123	0x3d690904	0.056893364
124	0x3d5c31ae	0.053758316
125	0xba4e0500	-0.00078590214
126	0x3c579c18	0.013159774
127	0xbd15c276	-0.036562406
