test_transformer.onnx (onnx, 483601 bytes, 12 tensors)

embedding.weight f4 [1000, 64]
0	0x3f989a92	1.1922171
1	0xbf8d7dae	-1.1053979
2	0x3f3a429d	0.72757894
3	0x3e8769e9	0.2644799
4	0xbf90cf7d	-1.131332
5	0xc01af503	-2.4212043
6	0xbf6f8b39	-0.9357181
7	0x3f6b08c6	0.9181026
8	0x3de37357	0.11105984
9	0xbe1eb912	-0.15500286
10	0xbf8a452d	-1.0802361
11	0xbdc97c43	-0.09838154
12	0xbe7d3b98	-0.24729764
13	0x3fc65c26	1.5496871
14	0x3f1563a6	0.58355176
15	0xbf53bc36	-0.8270906
16	0xbf93d4d6	-1.1549327
17	0x3f1605ce	0.5860261
18	0xbeae579e	-0.34051222
19	0xbd60051d	-0.054692376
20	0xbf202fb0	-0.62572765
21	0xbed39ad1	-0.41329053
22	0x3fe26321	1.7686502
23	0x3e3ddf34	0.18542176
24	0x3debc3eb	0.11511978
25	0x3eadb08f	0.33923766
26	0xbec2d75b	-0.38054928
27	0xbf20aa7b	-0.6276013
28	0x3f454889	0.77063805
29	0x3f2e1dc0	0.68014145
30	0x3fc814a3	1.5631298
31	0xbf5a4f36	-0.85277116
32	0xbea5b35c	-0.32363403
33	0x3f0f40c7	0.5595822
34	0xbef5eac4	-0.48030674
35	0xbe515849	-0.20443834
36	0xbebe12f0	-0.37123823
37	0xbecf05e8	-0.40434194
38	0xbfcb80f0	-1.5898724
39	0xbec45e21	-0.38353065
40	0x3ef1dce3	0.47238836
41	0xc01b4076	-2.4258094
42	0xbe8d3a6c	-0.27583635
43	0xbf61c6d5	-0.8819402
44	0x3ed1398f	0.40864226
45	0x401ed023	2.4814537
46	0xbdf405d7	-0.11915176
47	0xbf093fc6	-0.53612936
48	0x3da6487e	0.081192955
49	0xbf758fa5	-0.9592231
50	0xbf273012	-0.65307724
51	0xbf83ceeb	-1.0297521
52	0x3cdd3a98	0.027005479
53	0xbf2a5370	-0.66533566
54	0x40156c23	2.3347251
55	0xbf3e2b88	-0.74285173
56	0xbf41e181	-0.75734717
57	0x3eb97a16	0.36225957
58	0x3fff6f8e	1.9955919
59	0xbd32bcf2	-0.043637224
60	0xc00265c2	-2.0374608
61	0xbf89a1db	-1.0752519
62	0xbf64bdc6	-0.8935207
63	0xbfae64da	-1.3624527
64	0x3fbe65fe	1.4874876
65	0xbf41012f	-0.7539243
66	0x3ee510b1	0.44739297
67	0xbf85459e	-1.041187
68	0x3a6e467d	0.0009089483
69	0x401c73cc	2.4445677
70	0xbf713c87	-0.9423298
71	0x3e4ecd2a	0.20195451
72	0xbc5030e3	-0.012706968
73	0xbfd2152b	-1.641271
74	0xbfef9ee5	-1.8720366
75	0x3f3ff522	0.7498342
76	0xbc97aa76	-0.0185139
77	0x3ee425f9	0.4456022
78	0xbedbd82f	-0.42938372
79	0xbe5df901	-0.21677019
80	0xbfdceac5	-1.7259146
81	0x3f67019b	0.90236825
82	0xbfac281b	-1.3449739
83	0x401c3853	2.4409378
84	0x3f074906	0.528458
85	0x3fff504e	1.9946382
86	0x3f681f40	0.90672684
87	0x3fb32f06	1.3998725
88	0xbe9fad56	-0.31186932
89	0xbf6d5815	-0.9271253
90	0x3fb999c1	1.4500047
91	0xbf406378	-0.7515178
92	0x3dc3d084	0.095612556
93	0xbf57b779	-0.8426433
94	0x3ed5ce4c	0.41758955
95	0x3ed5a763	0.41729268
96	0xbe4b37a0	-0.19845438
97	0x3e628dcc	0.22124404
98	0x3d1595ad	0.036519695
99	0xbea2aa4f	-0.3177056
100	0x40304559	2.7542326
101	0xbe1d606e	-0.15368816
102	0x3ec61fb7	0.38696072
103	0x402595db	2.5872715
104	0xbf9fa871	-1.2473279
105	0xbf314c3e	-0.6925696
106	0x3eef8ac7	0.46785566
107	0x3f738e04	0.95138574
108	0xbed6dc2a	-0.41964847
109	0x3eafb0c1	0.3431454
110	0xbec99011	-0.39367726
111	0x3d7fccfc	0.062451348
112	0x3f48da2c	0.78457904
113	0x3fae17cd	1.3601013
114	0xbf8a9337	-1.0826176
115	0xbf19836e	-0.5996617
116	0x3fce5c7f	1.6121978
117	0x3f450158	0.76955175
118	0xbec028d8	-0.3753116
119	0xbe5039ea	-0.20334592
120	0x3fc0bbb7	1.5057286
121	0x3f0fd7b7	0.5618853
122	0xbe5538d0	-0.20822453
123	0x3f2d4791	0.67687327
124	0x3c14e412	0.009087579
125	0xbf941be5	-1.1571013
126	0x3e7651f1	0.24054696
127	0xbfa9d447	-1.3267907
128	0x3f7c1adb	0.9847848
129	0x3f196f70	0.59935665
130	0x3f1fd45e	0.6243342
131	0xbfbbc623	-1.4669842
132	0x3b195f54	0.0023402767
133	0x3f3bff79	0.73436695
134	0x4015bb69	2.3395636
135	0x3fbd9c4f	1.4813327
136	0xbe89b7c3	-0.26898012
137	0x3d8a2f32	0.06747283
138	0xbffc8def	-1.9730815
139	0x3f44ce0b	0.76876897
140	0xbf3a8cec	-0.7287128
141	0x3ed3cf84	0.4136926
142	0xbf45c2b2	-0.77250206
143	0x3f9045c9	1.1271297
144	0x3f32bbf8	0.6981807
145	0x3ea656a4	0.32487977
146	0x3fa11eb8	1.25875
147	0x3eabc233	0.335466
148	0x3fa9abd4	1.3255563
149	0x3f7ff9ad	0.9999035
150	0xbf1eea60	-0.6207638
151	0xbe63f7aa	-0.22262445
152	0xbf5b4279	-0.85648304
153	0x3f669a48	0.90079165
154	0xbe36f9a1	-0.17868663
155	0xbed8fd57	-0.42380783
156	0xbf1579bf	-0.58388895
157	0x3fa9748b	1.3238691
158	0xbd9c1157	-0.07620495
159	0xbf96bf67	-1.1777161
160	0x3ef8b8d4	0.48578513
161	0x3fa8ad44	1.3177876
162	0x3ecdbc7a	0.4018286
163	0x3e6d4d1a	0.23173943
164	0x40073775	2.1127598
165	0xbee9abaa	-0.45638782
166	0xbe589398	-0.21150053
167	0x3f0b9f3d	0.54539853
168	0xbe8be25f	-0.27321145
169	0xbea731af	-0.32655093
170	0x3faabc2e	1.3338678
171	0x3f0579f5	0.52139217
172	0xc0294a2d	-2.6451523
173	0xbfde7d71	-1.7382032
174	0xbc2859c6	-0.01027531
175	0xbee4d1db	-0.44691357
176	0x3e8b9eb1	0.2726951
177	0xbb514ac8	-0.0031935442
178	0x400d7e54	2.2108355
179	0xbf4d2dea	-0.80148184
180	0xbfb874b2	-1.4410613
181	0x3f07a3ab	0.5298411
182	0xbfaba18a	-1.3408673
183	0x3f9d6a84	1.2298131
184	0x3f62620f	0.88430876
185	0xbf296f57	-0.66185516
186	0x3f906426	1.1280563
187	0x3e043b45	0.12913235
188	0x3fb47649	1.4098598
189	0xbf0a6752	-0.54063904
190	0xbcfce967	-0.030873014
191	0xc0066939	-2.1001723
192	0x3ff80fe8	1.9379854
193	0xc0180109	-2.3750632
194	0x3d8957d4	0.06706205
195	0xbcf61739	-0.03004037
196	0xbe97409e	-0.29541487
197	0x3ed21148	0.4102881
198	0x3e8f1810	0.27948046
199	0xbf5e96d9	-0.86948925
200	0xbf33ef1d	-0.7028673
201	0xbf5f0d8c	-0.87130046
202	0xbf3db01a	-0.74096835
203	0x3ece88ac	0.40338647
204	0xbf74cd20	-0.95625496
205	0x3fc14859	1.5100204
206	0xbfcbc527	-1.5919541
207	0xc02ec71b	-2.7309024
208	0xbf148095	-0.580087
209	0x3e3b50bc	0.18292516
210	0xbfc89c7a	-1.5672753
211	0x3f92ffee	1.1484354
212	0x3e946cd8	0.2898929
213	0xbf200c4e	-0.62518775
214	0x3fc7cf97	1.5610226
215	0x3eb38779	0.35064295
216	0xbd26ee8a	-0.040754832
217	0x3f3e7a54	0.7440541
218	0xc00dd53e	-2.2161403
219	0x3f3abe84	0.72946954
220	0xbfb4d890	-1.412859
221	0x3f8ade97	1.0849179
222	0xc04912b8	-3.1417675
223	0x3f8975d9	1.0739089
224	0xbe183877	-0.1486529
225	0x3f724dd1	0.9464999
226	0xbed4f8d4	-0.4159609
227	0x3f920a80	1.1409454
228	0xbdb16a75	-0.08662883
229	0xbfd06120	-1.627964
230	0x3efaff26	0.49022788
231	0xbeb76dc1	-0.35825923
232	0xbed504d0	-0.41605234
233	0xbf7cad6e	-0.9870213
234	0xbf96006a	-1.1718876
235	0x3f252361	0.6450711
236	0x4014ed13	2.3269699
237	0x3e1e47ea	0.1545712
238	0x3f8b7d97	1.0897702
239	0xbf86c6d9	-1.0529433
240	0x3f20d3cb	0.6282317
241	0x3f068997	0.52553695
242	0x4007f50b	2.1243312
243	0x40243f6c	2.566371
244	0xbf5358a5	-0.82557136
245	0x3c18686e	0.009302242
246	0x3f179860	0.5921688
247	0xbf9edba4	-1.2410779
248	0x3f2d1c35	0.67621166
249	0x3fb6a0f0	1.4267864
250	0xbf41209e	-0.75440395
251	0x3e838e48	0.2569449
252	0x3f84ceaf	1.0375575
253	0x3f603845	0.8758586
254	0x3f711bb2	0.94182885
255	0x3d3639f1	0.04448885

transformer.layers.0.self_attn.in_proj_bias f4 [192]
0	0x00000000	0.0
1	0x00000000	0.0
2	0x00000000	0.0
3	0x00000000	0.0
4	0x00000000	0.0
5	0x00000000	0.0
6	0x00000000	0.0
7	0x00000000	0.0
8	0x00000000	0.0
9	0x00000000	0.0
10	0x00000000	0.0
11	0x00000000	0.0
12	0x00000000	0.0
13	0x00000000	0.0
14	0x00000000	0.0
15	0x00000000	0.0
16	0x00000000	0.0
17	0x00000000	0.0
18	0x00000000	0.0
19	0x00000000	0.0
20	0x00000000	0.0
21	0x00000000	0.0
22	0x00000000	0.0
23	0x00000000	0.0
24	0x00000000	0.0
25	0x00000000	0.0
26	0x00000000	0.0
27	0x00000000	0.0
28	0x00000000	0.0
29	0x00000000	0.0
30	0x00000000	0.0
31	0x00000000	0.0
32	0x00000000	0.0
33	0x00000000	0.0
34	0x00000000	0.0
35	0x00000000	0.0
36	0x00000000	0.0
37	0x00000000	0.0
38	0x00000000	0.0
39	0x00000000	0.0
40	0x00000000	0.0
41	0x00000000	0.0
42	0x00000000	0.0
43	0x00000000	0.0
44	0x00000000	0.0
45	0x00000000	0.0
46	0x00000000	0.0
47	0x00000000	0.0
48	0x00000000	0.0
49	0x00000000	0.0
50	0x00000000	0.0
51	0x00000000	0.0
52	0x00000000	0.0
53	0x00000000	0.0
54	0x00000000	0.0
55	0x00000000	0.0
56	0x00000000	0.0
57	0x00000000	0.0
58	0x00000000	0.0
59	0x00000000	0.0
60	0x00000000	0.0
61	0x00000000	0.0
62	0x00000000	0.0
63	0x00000000	0.0
64	0x00000000	0.0
65	0x00000000	0.0
66	0x00000000	0.0
67	0x00000000	0.0
68	0x00000000	0.0
69	0x00000000	0.0
70	0x00000000	0.0
71	0x00000000	0.0
72	0x00000000	0.0
73	0x00000000	0.0
74	0x00000000	0.0
75	0x00000000	0.0
76	0x00000000	0.0
77	0x00000000	0.0
78	0x00000000	0.0
79	0x00000000	0.0
80	0x00000000	0.0
81	0x00000000	0.0
82	0x00000000	0.0
83	0x00000000	0.0
84	0x00000000	0.0
85	0x00000000	0.0
86	0x00000000	0.0
87	0x00000000	0.0
88	0x00000000	0.0
89	0x00000000	0.0
90	0x00000000	0.0
91	0x00000000	0.0
92	0x00000000	0.0
93	0x00000000	0.0
94	0x00000000	0.0
95	0x00000000	0.0
96	0x00000000	0.0
97	0x00000000	0.0
98	0x00000000	0.0
99	0x00000000	0.0
100	0x00000000	0.0
101	0x00000000	0.0
102	0x00000000	0.0
103	0x00000000	0.0
104	0x00000000	0.0
105	0x00000000	0.0
106	0x00000000	0.0
107	0x00000000	0.0
108	0x00000000	0.0
109	0x00000000	0.0
110	0x00000000	0.0
111	0x00000000	0.0
112	0x00000000	0.0
113	0x00000000	0.0
114	0x00000000	0.0
115	0x00000000	0.0
116	0x00000000	0.0
117	0x00000000	0.0
118	0x00000000	0.0
119	0x00000000	0.0
120	0x00000000	0.0
121	0x00000000	0.0
122	0x00000000	0.0
123	0x00000000	0.0
124	0x00000000	0.0
125	0x00000000	0.0
126	0x00000000	0.0
127	0x00000000	0.0
128	0x00000000	0.0
129	0x00000000	0.0
130	0x00000000	0.0
131	0x00000000	0.0
132	0x00000000	0.0
133	0x00000000	0.0
134	0x00000000	0.0
135	0x00000000	0.0
136	0x00000000	0.0
137	0x00000000	0.0
138	0x00000000	0.0
139	0x00000000	0.0
140	0x00000000	0.0
141	0x00000000	0.0
142	0x00000000	0.0
143	0x00000000	0.0
144	0x00000000	0.0
145	0x00000000	0.0
146	0x00000000	0.0
147	0x00000000	0.0
148	0x00000000	0.0
149	0x00000000	0.0
150	0x00000000	0.0
151	0x00000000	0.0
152	0x00000000	0.0
153	0x00000000	0.0
154	0x00000000	0.0
155	0x00000000	0.0
156	0x00000000	0.0
157	0x00000000	0.0
158	0x00000000	0.0
159	0x00000000	0.0
160	0x00000000	0.0
161	0x00000000	0.0
162	0x00000000	0.0
163	0x00000000	0.0
164	0x00000000	0.0
165	0x00000000	0.0
166	0x00000000	0.0
167	0x00000000	0.0
168	0x00000000	0.0
169	0x00000000	0.0
170	0x00000000	0.0
171	0x00000000	0.0
172	0x00000000	0.0
173	0x00000000	0.0
174	0x00000000	0.0
175	0x00000000	0.0
176	0x00000000	0.0
177	0x00000000	0.0
178	0x00000000	0.0
179	0x00000000	0.0
180	0x00000000	0.0
181	0x00000000	0.0
182	0x00000000	0.0
183	0x00000000	0.0
184	0x00000000	0.0
185	0x00000000	0.0
186	0x00000000	0.0
187	0x00000000	0.0
188	0x00000000	0.0
189	0x00000000	0.0
190	0x00000000	0.0
191	0x00000000	0.0

transformer.layers.0.self_attn.out_proj.weight f4 [64, 64]
0	0xbdae55d2	-0.08512463
1	0xbd91c1fe	-0.07117079
2	0x3d5304ac	0.051518127
3	0xbda473b0	-0.08029878
4	0x3d43d7ec	0.04781334
5	0xbd8eb898	-0.06968802
6	0x3d024ba0	0.031810403
7	0xbdc7be96	-0.09753148
8	0xbdea512a	-0.11441262
9	0x3d19b72c	0.037528202
10	0x3d919e0e	0.07110225
11	0x3c0bc1d0	0.008530095
12	0x3d976320	0.073919535
13	0xbb84b240	-0.0040495694
14	0x3ce534d8	0.0279793
15	0x3d2c62f0	0.04208654
16	0xbd372db8	-0.044721335
17	0xbcc038d0	-0.02346459
18	0x3d5e4224	0.054262295
19	0x3da50d76	0.08059208
20	0x3dd018c8	0.10160977
21	0x3d24c548	0.040227205
22	0xbdda93ce	-0.10672723
23	0xbc7e0870	-0.015504941
24	0xbd373c74	-0.044735387
25	0x3db9c078	0.090699136
26	0x3d4ad20c	0.049516723
27	0xbdba678c	-0.09101781
28	0x3de9adbc	0.1141009
29	0xbb1a3cc0	-0.0023534745
30	0x3d372978	0.044717282
31	0xbc9e9640	-0.019358754
32	0x3ddef67c	0.10886857
33	0x3dc183f2	0.09448995
34	0x3dfa1e14	0.12212768
35	0x3d8a7392	0.067603245
36	0x3de13ace	0.10997544
37	0x3dbbfb72	0.09178819
38	0xbd35664c	-0.04428701
39	0x3bbfb4e0	0.0058504194
40	0x3cd941d8	0.026520655
41	0x3dd685be	0.10474728
42	0x3cda6098	0.026657388
43	0x3dbe2fb8	0.092864454
44	0xbc5db970	-0.013532981
45	0xbdd791ce	-0.10525857
46	0xbdea9b28	-0.11455375
47	0xbdfb52ea	-0.12271674
48	0x3d92894e	0.07155095
49	0xbde724c0	-0.112863064
50	0x3d5aa59c	0.053380594
51	0x3dd6946a	0.104775265
52	0x3da77f4c	0.08178577
53	0x3df1200e	0.11773692
54	0xbd8e58fe	-0.06950568
55	0x3dae9fec	0.085265964
56	0x3d2a62c0	0.04159808
57	0x3ddf4bf6	0.1090316
58	0x3d694cf0	0.05695814
59	0x3ddbcb9e	0.10732196
60	0xbdbe6cc8	-0.09298092
61	0x3dee532e	0.11636959
62	0xbae8c100	-0.0017757714
63	0xbd4a3600	-0.049367905
64	0x3cf5dcb0	0.030012459
65	0xbd61cab0	-0.05512494
66	0xbd4f53fc	-0.050617203
67	0xbc6bd320	-0.014393598
68	0x3c5480c0	0.0129701495
69	0xbc8c01f8	-0.017090783
70	0x3dafc5ca	0.08582647
71	0xbdf6e56c	-0.120554775
72	0x3cfbd478	0.030740961
73	0x3ca09710	0.019603282
74	0xb9c1ea00	-0.00036986172
75	0xbbd16d00	-0.0063911676
76	0x3df6c04a	0.12048395
77	0x3ddf030e	0.108892545
78	0xbdc89b08	-0.09795195
79	0x3dd0db7c	0.10198113
80	0xbc6a5ab0	-0.014303848
81	0x3d98346a	0.07431872
82	0x3b93e5e0	0.004513487
83	0xbdf70690	-0.120617986
84	0xbda65fd0	-0.081237435
85	0x3c163b90	0.009169474
86	0x3dbdac2c	0.09261355
87	0xbdd5911c	-0.10428068
88	0xbdb472b0	-0.088109374
89	0xbcfe1af0	-0.031018704
90	0x3c37ca10	0.011217609
91	0xbdaeb45c	-0.085304946
92	0xbdd4a186	-0.10382371
93	0xbd3a6d2c	-0.04551427
94	0xbd62baec	-0.055354044
95	0x3c885c58	0.016645595
96	0x3d685270	0.056719244
97	0xbdcaa752	-0.09895195
98	0xbc5d7930	-0.013517663
99	0xbde79c2e	-0.11309086
100	0x3dac3d68	0.0841015
101	0x3d894d02	0.06704141
102	0xbdc3a0e2	-0.0955217
103	0xbdc3b6d0	-0.09556353
104	0xbce52028	-0.027969435
105	0x3cafe0e8	0.021469548
106	0x3bdc08a0	0.0067148954
107	0x3dbf1188	0.09329516
108	0xbc0dc910	-0.008653894
109	0xbd6ea7dc	-0.058265552
110	0xbdb6ac54	-0.08919588
111	0xbd8f5cac	-0.07000098
112	0x3db2352a	0.087015465
113	0xbd91dc20	-0.07122064
114	0x3dec26e4	0.11530855
115	0xbcb83870	-0.022487849
116	0xbdb33b2c	-0.087515205
117	0x3c1e3b30	0.009657666
118	0xbcddce18	-0.027075812
119	0x3ccbf7d0	0.02489844
120	0xbc9638a0	-0.018337548
121	0xbdbd0c10	-0.09230816
122	0xbcca9e58	-0.024733707
123	0x3d3fad30	0.046796024
124	0xbdf342f6	-0.11878006
125	0xbcffbad8	-0.031217024
126	0x3d834234	0.064091116
127	0x3da42d52	0.08016457
128	0x3dd2fe94	0.10302463
129	0x3b65aa40	0.0035044104
130	0xbd842646	-0.064526126
131	0x3d50b0f0	0.05094999
132	0x3dbcef14	0.09225288
133	0x3dfa7fc6	0.12231402
134	0x3c034700	0.008012533
135	0xbce0d758	-0.027446434
136	0xbd24bfb0	-0.04022187
137	0xbd7a448c	-0.061100528
138	0x3c94ece8	0.018179372
139	0xbd3c7764	-0.046012297
140	0x3dd967f6	0.10615532
141	0xbd800ab2	-0.0625204
142	0xbdcc1ee4	-0.099668294
143	0x3daf804e	0.08569394
144	0xbc82e538	-0.01597844
145	0x3d8b5946	0.06804137
146	0x3d83fd04	0.06444743
147	0x3cbdf4f8	0.0231881
148	0xbdb9c0b4	-0.09069958
149	0x3d081b98	0.03322944
150	0xbdf3e0d4	-0.11908117
151	0x3d27a4c8	0.040928632
152	0x3dfd1142	0.12356807
153	0x3d93f538	0.07224506
154	0x3d0a0e94	0.03370531
155	0x3c404f70	0.011737689
156	0x3d96a992	0.07356562
157	0xbceaf3f0	-0.028680772
158	0x3d2fbae4	0.042902842
159	0x3d0e46cc	0.034735486
160	0xbdc7e3e4	-0.097602636
161	0xbde8c5ba	-0.11365838
162	0xbde2c460	-0.11072612
163	0xbda594ec	-0.08085045
164	0x3db7adee	0.08968721
165	0xbd5e5bc8	-0.05428675
166	0xbd125254	-0.035723045
167	0x3de1fe80	0.1103487
168	0x3db418ea	0.087938145
169	0x3ddcb9f0	0.10777652
170	0x3de10144	0.109865695
171	0x3dc536b4	0.096295744
172	0xbdfb825e	-0.12280725
173	0xbd865d1a	-0.065607265
174	0x3b1717c0	0.0023054928
175	0xbb515500	-0.0031941533
176	0x3dbe80b4	0.09301892
177	0xbd474fc4	-0.048660055
178	0xbc164770	-0.009172305
179	0xbdc14eb8	-0.094388425
180	0xbd83a380	-0.064276695
181	0xbd8f712e	-0.07004009
182	0xbd152a68	-0.036417395
183	0xbd99d3ba	-0.07511087
184	0x3bcd5740	0.0062665045
185	0xbd9f81e4	-0.077884465
186	0x3de5191a	0.11186428
187	0x3d0c0bc8	0.034190923
188	0x3dc8b33c	0.09799811
189	0xbd0b1ff8	-0.033966035
190	0xbd84687e	-0.06465243
191	0x3d636308	0.055514365
192	0xbdac532c	-0.08414301
193	0x3d3da824	0.04630293
194	0xbd238ee4	-0.039931193
195	0x3bdb07e0	0.0066842884
196	0x3d1d32ac	0.038378403
197	0x3c9eeba8	0.019399479
198	0x3bfe8840	0.007767707
199	0xbdc548fc	-0.09633061
200	0x3dd2f748	0.103010714
201	0x3dc6e45e	0.09711526
202	0xbdd636b0	-0.104596496
203	0xbd9a096e	-0.0752133
204	0xbd8af804	-0.067855865
205	0xbd6c5144	-0.05769469
206	0xbdda234e	-0.10651265
207	0x3a72cc00	0.0009261966
208	0x3ddb2488	0.10700327
209	0xbdd9dd3e	-0.10637902
210	0x3ccc1058	0.024910137
211	0xbd7723a8	-0.06033674
212	0x3d98e08a	0.074647024
213	0xbd4c7228	-0.049913555
214	0x3dab38f0	0.08360469
215	0xbd223dc0	-0.03960967
216	0x3d876702	0.06611444
217	0xbd1ffe24	-0.039060727
218	0x3d847d24	0.06469181
219	0xbd37bb7c	-0.044856533
220	0xbae39680	-0.0017363578
221	0xbd9b0ffa	-0.07571407
222	0x3d8f6286	0.07001214
223	0xbd8c3d5a	-0.068476394
224	0xbdd1a310	-0.1023618
225	0x3da1dab4	0.079030424
226	0x3dde945e	0.108681425
227	0xbc900908	-0.017582431
228	0x3dcb4044	0.09924367
229	0x3dd54b96	0.104148075
230	0x3d75b5d8	0.059987873
231	0x3cfc2bf8	0.030782685
232	0x3d6d37a4	0.05791439
233	0x3da0705c	0.07833931
234	0xbda511da	-0.080600455
235	0xbd204770	-0.039130628
236	0xbd8f4b00	-0.06996727
237	0xbdc0f62c	-0.094219536
238	0xbdf7de28	-0.1210292
239	0xbd2ca708	-0.04215148
240	0x3d35c390	0.044375956
241	0xba827980	-0.0009954423
242	0xbdd6f296	-0.10495488
243	0x3d26bdb8	0.040708274
244	0x3c57ac60	0.013163656
245	0x3c736590	0.014855757
246	0xbd39dc5c	-0.045376167
247	0x3de738e8	0.11290151
248	0xbdc9ec64	-0.09859541
249	0x3d735e34	0.05941601
250	0xbdf542c2	-0.11975624
251	0xbd26dd54	-0.04073842
252	0x3be8e4e0	0.007107362
253	0x3df70dd0	0.120631814
254	0xbd417080	-0.04722643
255	0xbdbf8752	-0.09351982

transformer.layers.0.self_attn.out_proj.bias f4 [64]
0	0x00000000	0.0
1	0x00000000	0.0
2	0x00000000	0.0
3	0x00000000	0.0
4	0x00000000	0.0
5	0x00000000	0.0
6	0x00000000	0.0
7	0x00000000	0.0
8	0x00000000	0.0
9	0x00000000	0.0
10	0x00000000	0.0
11	0x00000000	0.0
12	0x00000000	0.0
13	0x00000000	0.0
14	0x00000000	0.0
15	0x00000000	0.0
16	0x00000000	0.0
17	0x00000000	0.0
18	0x00000000	0.0
19	0x00000000	0.0
20	0x00000000	0.0
21	0x00000000	0.0
22	0x00000000	0.0
23	0x00000000	0.0
24	0x00000000	0.0
25	0x00000000	0.0
26	0x00000000	0.0
27	0x00000000	0.0
28	0x00000000	0.0
29	0x00000000	0.0
30	0x00000000	0.0
31	0x00000000	0.0
32	0x00000000	0.0
33	0x00000000	0.0
34	0x00000000	0.0
35	0x00000000	0.0
36	0x00000000	0.0
37	0x00000000	0.0
38	0x00000000	0.0
39	0x00000000	0.0
40	0x00000000	0.0
41	0x00000000	0.0
42	0x00000000	0.0
43	0x00000000	0.0
44	0x00000000	0.0
45	0x00000000	0.0
46	0x00000000	0.0
47	0x00000000	0.0
48	0x00000000	0.0
49	0x00000000	0.0
50	0x00000000	0.0
51	0x00000000	0.0
52	0x00000000	0.0
53	0x00000000	0.0
54	0x00000000	0.0
55	0x00000000	0.0
56	0x00000000	0.0
57	0x00000000	0.0
58	0x00000000	0.0
59	0x00000000	0.0
60	0x00000000	0.0
61	0x00000000	0.0
62	0x00000000	0.0
63	0x00000000	0.0

transformer.layers.0.linear1.bias f4 [256]
0	0xbcf501e8	-0.029908136
1	0xbddfc15c	-0.10925552
2	0x3d60d80c	0.05489354
3	0xbd392d80	-0.045209408
4	0x3b66d840	0.003522411
5	0xbdaf6c40	-0.08565569
6	0xbdcbb274	-0.099461466
7	0xbd691650	-0.056906044
8	0xbbc2f480	-0.005949557
9	0xbd88c3fe	-0.066780075
10	0x3da43876	0.080185816
11	0x3affde00	0.0019521117
12	0xbd2e7640	-0.04259324
13	0x3ddd2b88	0.107993186
14	0xba6ae100	-0.0008959919
15	0xbdc5b1ec	-0.096530765
16	0x3dea2a00	0.11433792
17	0x3dc94df4	0.098293215
18	0x3d03ad28	0.032147557
19	0xbdd866fe	-0.10566519
20	0x3d94e72c	0.07270655
21	0x3d97de46	0.07415442
22	0xbc912448	-0.017717496
23	0x3dccd654	0.10001817
24	0x3dacb376	0.08432667
25	0xbd81f8ec	-0.06346306
26	0xbdc3ef68	-0.095671475
27	0xbd6f2c98	-0.058392137
28	0xbdd55894	-0.104172856
29	0x3deb1980	0.11479473
30	0xbd4cd61c	-0.050008878
31	0xbd4baa3c	-0.049722895
32	0xbcc139c8	-0.023587123
33	0xbdd6a5b8	-0.10480827
34	0x3ddfb36c	0.10922894
35	0x3c556d30	0.013026521
36	0xbd6bad38	-0.05753824
37	0x3db90c18	0.0903551
38	0x3d803228	0.062595665
39	0xbd8266fc	-0.06367299
40	0xbd332f4c	-0.043746278
41	0xbd6aa2b0	-0.057284057
42	0x3dd060e2	0.10174729
43	0x3dd652b0	0.1046499
44	0xbd9d8722	-0.0769179
45	0x3d63b2d0	0.05559045
46	0x3dbfc686	0.09364037
47	0x3dc991c2	0.09842254
48	0xbb8148c0	-0.00394544
49	0x3df879e4	0.12132624
50	0x3d86c828	0.065811455
51	0xbd954f24	-0.072904855
52	0x3d917668	0.07102662
53	0xbd99bb9e	-0.07506488
54	0xbdaed6f6	-0.08537094
55	0x3d9faac6	0.07796244
56	0x3df67cb0	0.12035501
57	0xbd79be48	-0.060972482
58	0xbbf19e40	-0.007373601
59	0x3db34bf2	0.0875472
60	0x3d43f0d4	0.047837093
61	0x3d799e38	0.060941905
62	0xbdf97f56	-0.121824905
63	0xbda9ad1c	-0.08284971
64	0x3dee697e	0.11641215
65	0xbce852c0	-0.02835977
66	0x3d4b5e6c	0.049650595
67	0x3dc838c0	0.09776449
68	0x3d9feed4	0.07809225
69	0x3dcd62aa	0.10028584
70	0xba0bce00	-0.00053331256
71	0x3b408580	0.0029376447
72	0xbdd5caaa	-0.10439046
73	0xbd600318	-0.05469045
74	0x3d4ce564	0.05002345
75	0x3d062000	0.03274536
76	0xbd84d222	-0.06485392
77	0x3da5cc3e	0.08095597
78	0x3ce024e8	0.027361348
79	0x3d9d7422	0.07688166
80	0x3da1502a	0.07876618
81	0xbd59710c	-0.053086326
82	0xbdc35c6e	-0.09539114
83	0xbd7a7ea8	-0.061155945
84	0xbccba2b0	-0.024857849
85	0xbddd5f4c	-0.10809192
86	0xbda8e55c	-0.08246872
87	0xbc1f3b90	-0.009718791
88	0xbc91a458	-0.01777856
89	0xbda1f28c	-0.0790759
90	0x3d4ba660	0.049719214
91	0x3d532720	0.051550984
92	0xbdaf6086	-0.08563332
93	0xbb6225c0	-0.0034507364
94	0xbdba2d8c	-0.090907186
95	0x3d58155c	0.052754745
96	0x3d0ce964	0.034402266
97	0x3da5d38a	0.080969885
98	0x3cca47b8	0.024692401
99	0xbd889710	-0.06669438
100	0x3d307734	0.04308243
101	0x3d0bb3d8	0.03410706
102	0xbdd477c4	-0.10374406
103	0xbda1b5ae	-0.07895981
104	0x3de16c86	0.11007027
105	0x3db15712	0.086591855
106	0x3ba7f8a0	0.005126074
107	0xbdfa7bac	-0.1223062
108	0x3d2289d4	0.039682224
109	0x3de21d8e	0.11040793
110	0x3dad2ac2	0.08455421
111	0x3ccb7580	0.024836302
112	0xbd83e10c	-0.06439409
113	0xbd70efac	-0.05882232
114	0x3ceab5d8	0.028651163
115	0xbdd79b92	-0.105277196
116	0xbdbe4142	-0.09289791
117	0x3dd01ea2	0.10162093
118	0xbd5e967c	-0.05434273
119	0x3cb5bf40	0.022185922
120	0xbd2d378c	-0.0422893
121	0x3da62b6a	0.08113749
122	0xbdd75a90	-0.1051532
123	0x3dd69960	0.10478473
124	0x3ce1a5c0	0.027544856
125	0x3b5caec0	0.0033673495
126	0x3d8928d8	0.066972435
127	0xbd09192c	-0.03347127
128	0x3b763380	0.0037567317
129	0x3db144c2	0.08655693
130	0x3c63a420	0.013894111
131	0x3db3bf88	0.08776766
132	0x3d1109c4	0.035409704
133	0x3bbdb6c0	0.0057896078
134	0xbdbdb14e	-0.09262334
135	0x3dd457da	0.10368319
136	0xba823880	-0.0009935051
137	0x3d493a80	0.049128056
138	0x3db5d79c	0.08879015
139	0x3def65f0	0.11689365
140	0xbdddcc3c	-0.1082997
141	0xbda38618	-0.07984561
142	0xbb4ed600	-0.003156066
143	0xbdfc7776	-0.12327473
144	0x3c9866c8	0.018603697
145	0xbce108c0	-0.027469993
146	0xbdc4984a	-0.09599359
147	0x3d09d70c	0.03365235
148	0x3df24ce8	0.11831075
149	0x3ced6848	0.02898039
150	0xbbe6bc60	-0.007041499
151	0xbcb373f0	-0.02190587
152	0xbda3647a	-0.07978149
153	0x3de71a6c	0.112843364
154	0x3d94cf84	0.07266143
155	0xbdf436a6	-0.11924486
156	0xbdaf3468	-0.085549176
157	0xbc8bb6c0	-0.017054915
158	0x3dc25808	0.09489447
159	0x3b06bd40	0.002055958
160	0xbd913b90	-0.07091439
161	0xbdb55c14	-0.08855453
162	0x3da7bf8c	0.081908315
163	0x3cfdc6c8	0.030978575
164	0xbc1e8fe0	-0.009677857
165	0xbd967d02	-0.07348062
166	0xbca2cc20	-0.019872725
167	0x3c012170	0.007881507
168	0xbd42855c	-0.047490463
169	0xbd40f144	-0.04710509
170	0x3ddb4688	0.10706812
171	0xbc3f8110	-0.011688486
172	0x3cc89b48	0.024488106
173	0x3dd5ea6c	0.10445103
174	0x3b9ca120	0.00477995
175	0x3d4255f0	0.047445238
176	0xbd532e48	-0.05155781
177	0xbde14a18	-0.110004604
178	0x3c0bccd0	0.008532718
179	0x3d275a58	0.040857643
180	0xbcbd0d80	-0.023077726
181	0x3d9fe144	0.07806638
182	0x3d896f58	0.0671069
183	0xbc842b38	-0.01613389
184	0x3b64ee00	0.0034931898
185	0xbd8553c4	-0.06510118
186	0x3d904222	0.07043864
187	0xbdb77ace	-0.0895897
188	0x3d91b666	0.07114868
189	0x3cdb6598	0.026781842
190	0xbd25c5b0	-0.040471733
191	0xbd000c58	-0.031261772
192	0xbdd47742	-0.10374309
193	0xbdbf7660	-0.0934875
194	0x3dfce5dc	0.1234853
195	0x3ddf8d8c	0.1091567
196	0xbd95afda	-0.07308932
197	0x3d0cc414	0.034366682
198	0xbd6a282c	-0.057167217
199	0xbde82746	-0.11335616
200	0xbdc85694	-0.097821385
201	0x3ccd6d50	0.025076538
202	0xbd6e54c4	-0.058186308
203	0x3dd47810	0.103744626
204	0xbd7e6778	-0.062110394
205	0xbdbf0cf4	-0.093286425
206	0xbd84513a	-0.06460805
207	0x3d37a920	0.044839025
208	0x3d932b32	0.07185973
209	0x3ccf2ce0	0.025289953
210	0x3dc33c52	0.095329896
211	0x3d099264	0.033586875
212	0x3dcdcd04	0.10048869
213	0xbde51a44	-0.111866504
214	0x3d598938	0.053109378
215	0xbd813de2	-0.06310631
216	0x3dd6612c	0.10467753
217	0xbd651e48	-0.05593708
218	0xbcb7f018	-0.022453353
219	0x3d730e34	0.059339717
220	0xbdbbb75a	-0.09165831
221	0x3ddaf540	0.10691309
222	0xbdfdf62a	-0.12400468
223	0xbcca8f38	-0.024726495
224	0xbdb22406	-0.08698277
225	0x3dfa6df6	0.12228005
226	0xbdc921ae	-0.09820877
227	0x3b240b80	0.0025031269
228	0x3ca96498	0.02067785
229	0x3cb33af0	0.02187869
230	0x3d7a7a94	0.061152056
231	0xbbefa940	-0.0073138773
232	0xbd9a663c	-0.07539031
233	0xbcfedfe0	-0.031112611
234	0xbbb316e0	-0.0054653734
235	0xbd32a724	-0.04361643
236	0xbcae6918	-0.021290347
237	0x3c567b60	0.013090938
238	0xbda0e1d8	-0.07855576
239	0xbc61bb00	-0.013777494
240	0x3dd9783e	0.106186375
241	0x3de46e82	0.1115389
242	0xbd8d61a8	-0.06903392
243	0xbdcc7a42	-0.09984256
244	0xbd5b1210	-0.053484023
245	0x3bbcc3e0	0.005760655
246	0xbaaf0b00	-0.0013354719
247	0xbcf9e5d0	-0.030505091
248	0xbdb7f658	-0.08982533
249	0x3d605ea4	0.054777756
250	0xbc905318	-0.017617747
251	0x3dbb2c96	0.091393635
252	0x3d5a6880	0.053322315
253	0x3dac5d2c	0.084162086
254	0xbd227dec	-0.03967087
255	0x3c2efc80	0.010680318

transformer.layers.0.linear2.bias f4 [64]
0	0x3d10e7aa	0.035377182
1	0xbc873768	-0.016505912
2	0x3d497806	0.04918673
3	0xbd730a44	-0.059335962
4	0xbd5d2bda	-0.0539969
5	0x3d6c788c	0.05773215
6	0x3d3d8e8a	0.046278514
7	0x3c972880	0.01845193
8	0xbc28e830	-0.010309264
9	0x3cacc86c	0.021091662
10	0x3d1a296e	0.037637167
11	0xbd4d12e4	-0.050066844
12	0xbd24e768	-0.04025975
13	0x3cd7d10c	0.026344799
14	0x3d3bb096	0.045822702
15	0xbd2fc6aa	-0.04291407
16	0xbd74b428	-0.059742123
17	0xbd52cccc	-0.05146484
18	0xbd1733ac	-0.036914513
19	0x3d4eef68	0.050521284
20	0x3d417f34	0.04724045
21	0x3d4d13c4	0.050067678
22	0xbaeb9f40	-0.0017976537
23	0xbb98d720	-0.004664317
24	0xbc1a8c08	-0.0094328
25	0x3bcb3f00	0.0062025785
26	0x3ca0eaf8	0.019643292
27	0xbd4206ca	-0.047369756
28	0x3d3e8cce	0.046521
29	0xbd1de776	-0.038550816
30	0x3d1d17e6	0.03835287
31	0x3c3112c8	0.0108077
32	0xbc8829c8	-0.016621485
33	0x3d6715fa	0.056417443
34	0xbc015a00	-0.007894993
35	0xbd1fb90c	-0.038994834
36	0x3d20e516	0.039280973
37	0x3cb8a93c	0.022541635
38	0xbd2a8dc4	-0.041639104
39	0x3d300818	0.04297647
40	0x3c03d9b0	0.008047506
41	0xbc078800	-0.008272171
42	0xbcd7b4d0	-0.026331335
43	0xbcfa14c8	-0.030527487
44	0xbbe8a820	-0.00710012
45	0xbd52115c	-0.051286086
46	0xbc817f70	-0.015807837
47	0xbac1d4c0	-0.0014788136
48	0x3d53acb4	0.051678374
49	0x3c2bf2f8	0.01049494
50	0xbcdaf770	-0.026729316
51	0x3d61d1a4	0.05513157
52	0xbba07110	-0.0048962906
53	0xbd5c0520	-0.053715825
54	0x3d7b8d52	0.06141407
55	0xbd70c5ae	-0.058782272
56	0x3cdb39ec	0.026761018
57	0xbcecd010	-0.028907806
58	0xbce4be14	-0.027922668
59	0xbcb3c128	-0.02194269
60	0x3b8e1990	0.0043365434
61	0xbd2fe93e	-0.042947046
62	0x3d18c8b2	0.037300773
63	0xbcdd1af0	-0.026990384

transformer.layers.0.norm1.weight f4 [64]
0	0x3f800000	1.0
1	0x3f800000	1.0
2	0x3f800000	1.0
3	0x3f800000	1.0
4	0x3f800000	1.0
5	0x3f800000	1.0
6	0x3f800000	1.0
7	0x3f800000	1.0
8	0x3f800000	1.0
9	0x3f800000	1.0
10	0x3f800000	1.0
11	0x3f800000	1.0
12	0x3f800000	1.0
13	0x3f800000	1.0
14	0x3f800000	1.0
15	0x3f800000	1.0
16	0x3f800000	1.0
17	0x3f800000	1.0
18	0x3f800000	1.0
19	0x3f800000	1.0
20	0x3f800000	1.0
21	0x3f800000	1.0
22	0x3f800000	1.0
23	0x3f800000	1.0
24	0x3f800000	1.0
25	0x3f800000	1.0
26	0x3f800000	1.0
27	0x3f800000	1.0
28	0x3f800000	1.0
29	0x3f800000	1.0
30	0x3f800000	1.0
31	0x3f800000	1.0
32	0x3f800000	1.0
33	0x3f800000	1.0
34	0x3f800000	1.0
35	0x3f800000	1.0
36	0x3f800000	1.0
37	0x3f800000	1.0
38	0x3f800000	1.0
39	0x3f800000	1.0
40	0x3f800000	1.0
41	0x3f800000	1.0
42	0x3f800000	1.0
43	0x3f800000	1.0
44	0x3f800000	1.0
45	0x3f800000	1.0
46	0x3f800000	1.0
47	0x3f800000	1.0
48	0x3f800000	1.0
49	0x3f800000	1.0
50	0x3f800000	1.0
51	0x3f800000	1.0
52	0x3f800000	1.0
53	0x3f800000	1.0
54	0x3f800000	1.0
55	0x3f800000	1.0
56	0x3f800000	1.0
57	0x3f800000	1.0
58	0x3f800000	1.0
59	0x3f800000	1.0
60	0x3f800000	1.0
61	0x3f800000	1.0
62	0x3f800000	1.0
63	0x3f800000	1.0

fc.weight f4 [10, 64]
0	0xbbcfddc0	-0.0063435733
1	0x3d4fa9b8	0.050698966
2	0x3d9d27c2	0.07673599
3	0xbd55f7e8	-0.052238375
4	0x3c276cb0	0.010218784
5	0xbc653640	-0.013989985
6	0xbdb92172	-0.09039582
7	0xbd9058de	-0.070482
8	0x3dc63608	0.096782744
9	0x3cbe9e70	0.023268908
10	0xbdabecaa	-0.083947495
11	0x3dfee2d0	0.12445605
12	0xbdfea62a	-0.12434037
13	0x3d87f0ee	0.066377506
14	0x3d978cc6	0.07399897
15	0x3dfb7300	0.12277794
16	0x3dd899de	0.10576223
17	0xbdec93dc	-0.115516394
18	0xbdfcccae	-0.12343727
19	0x39aaca00	0.00032575428
20	0xbdc62a1a	-0.09675999
21	0x3d2e1d78	0.042508572
22	0x3d9aeb5a	0.07564421
23	0x3cb62130	0.022232622
24	0xbd0f0784	-0.034919277
25	0x3c7600f0	0.015014872
26	0xbdeb7ade	-0.114980444
27	0xbdd3f37c	-0.10349175
28	0xbda90566	-0.08252983
29	0xbd8faea8	-0.07015735
30	0x3daec276	0.08533184
31	0xbdd9f5a8	-0.10642558
32	0xbd8b1582	-0.06791212
33	0xbdba4076	-0.09094326
34	0x3df13de6	0.11779384
35	0x3cddec58	0.027090237
36	0x3dd12a88	0.1021319
37	0x3aff7780	0.001949057
38	0x3d087c0c	0.033321425
39	0xbdf82c0a	-0.12117775
40	0x3c668730	0.014070317
41	0x3d95c8b2	0.0731367
42	0x3d2a1484	0.04152347
43	0xbdb351e0	-0.08755851
44	0x3d8d6a84	0.06905082
45	0xbdf91784	-0.121626884
46	0x3dc485d0	0.09595835
47	0xbdddf3d8	-0.10837525
48	0x3de8d4da	0.11368723
49	0xbdaf4f88	-0.08560091
50	0x3d84d782	0.06486417
51	0xbdf9edb4	-0.122035414
52	0x3aea0f80	0.0017857403
53	0xbdb84ecc	-0.08999404
54	0xbc136050	-0.008995131
55	0x3d2d4224	0.042299405
56	0xbd868064	-0.06567457
57	0xbcc48f70	-0.023994178
58	0x3deb07a8	0.1147607
59	0x3cc7d8a0	0.024395287
60	0x3d627c00	0.055294037
61	0x3cb8e830	0.022571653
62	0xbda911f0	-0.082553744
63	0xbda9177a	-0.08256431
64	0xbdd99228	-0.1062358
65	0x3df4caf6	0.11952774
66	0x3c860e20	0.016364157
67	0xbdcb89ac	-0.09938368
68	0x3dc54328	0.0963195
69	0xbd58be00	-0.052915573
70	0xbda3bbb2	-0.079947844
71	0x3d4ee14c	0.05050783
72	0x3dcfe268	0.101506054
73	0xbdf9750e	-0.121805295
74	0xbc9d16f0	-0.019175977
75	0xbdd9c688	-0.1063357
76	0xbdba49b2	-0.090960875
77	0x3d531f60	0.051543593
78	0xbc656e20	-0.014003307
79	0xbd504e38	-0.050855845
80	0xbd754de0	-0.05988872
81	0xbdd42fba	-0.103606656
82	0xbd379440	-0.044819117
83	0xbbc97540	-0.0061480105
84	0x3caaf930	0.020870775
85	0x3de6a448	0.11261803
86	0xbd678a68	-0.05652848
87	0x3dc2fb50	0.0952059
88	0xbd8bab1e	-0.068197474
89	0xbda00a50	-0.07814467
90	0xbd4b08a0	-0.049568772
91	0xbdcf62ec	-0.1012629
92	0x3d171a14	0.036890104
93	0x3dee125c	0.116245955
94	0x3da9bece	0.08288346
95	0xbd8b802a	-0.06811555
96	0x3d4dc15c	0.05023323
97	0x3d2177d8	0.039420933
98	0xbd44fdb8	-0.048093528
99	0x3dfe223a	0.12408872
100	0x3d9d59fe	0.0768318
101	0x3ddcf568	0.10788995
102	0xbcb7c810	-0.022434264
103	0xbc06d000	-0.008228302
104	0x3da1d39e	0.07901691
105	0x3dabc1fe	0.083866104
106	0x3dbd8a32	0.09254874
107	0x3c682550	0.014169052
108	0xbd9bfef0	-0.07616985
109	0xbd83a976	-0.064288065
110	0x3d7d1fa8	0.061797768
111	0x3df39080	0.118927956
112	0xbdf7304e	-0.1206976
113	0xbb55da80	-0.0032631457
114	0xbd7d8a4c	-0.06189947
115	0xbdd37d84	-0.103266746
116	0xbc2f58d0	-0.010702327
117	0x3d134c40	0.03596139
118	0xbdf9d442	-0.12198688
119	0xbd7106f4	-0.05884452
120	0xbdbd775c	-0.092512816
121	0x3cc5ff18	0.02416949
122	0xbdc99b86	-0.09844117
123	0xbc9a2c00	-0.018819809
124	0x3dad6b54	0.08467737
125	0x3d08205c	0.033233985
126	0x3d3e105c	0.04640232
127	0x3bf80b00	0.0075696707
128	0x3ddd5ffe	0.10809325
129	0xbd97c9dc	-0.074115485
130	0x3d5434a8	0.05180803
131	0x3d91fec8	0.07128674
132	0xbdb36e2c	-0.08761248
133	0xbd0b6324	-0.034030095
134	0x3ddde2d8	0.10834283
135	0xbdc8dce0	-0.098077536
136	0xbd18ecc0	-0.037335157
137	0x3db46818	0.08808917
138	0x3dbc83c0	0.09204817
139	0xbc5ee7b0	-0.013605043
140	0x3c6bb260	0.01438579
141	0xbd55f8c4	-0.052239195
142	0x3ca04378	0.019563422
143	0x3cbaeb10	0.022817165
144	0x3dcfd8da	0.10148783
145	0xbdca942e	-0.09891544
146	0x3cb49d10	0.02204755
147	0xbcf22260	-0.029557407
148	0xbc9b8e50	-0.018988758
149	0xbcfce1a8	-0.03086932
150	0xbde5d8f0	-0.11223018
151	0xbdcc854c	-0.09986362
152	0x3d3f8d1c	0.04676543
153	0x3a6f6700	0.00091324747
154	0xbd6c5afc	-0.057703957
155	0x3d457aa0	0.048212647
156	0x3d222bb0	0.039592445
157	0xbde21b2e	-0.1104034
158	0xbdd22e82	-0.10262777
159	0xbdbe0fc2	-0.09280349
160	0xbdacb544	-0.08433011
161	0xbc3faea0	-0.011699349
162	0xbdf68dfe	-0.120388016
163	0xbc19d8f0	-0.009390101
164	0xbd2fe410	-0.042942107
165	0x3df1402e	0.117798194
166	0xbda7eb38	-0.08199161
167	0x3de5348c	0.11191663
168	0xbd9c3d90	-0.076289296
169	0x3d95a06c	0.07305989
170	0xbdd6e3d4	-0.104926735
171	0xbd8556ea	-0.06510718
172	0x3dc796a0	0.09745526
173	0x3df3e74e	0.11909352
174	0x3d3a324c	0.045458123
175	0x3d672798	0.056434244
176	0xbdb73ac4	-0.089467555
177	0x3d12f640	0.035879374
178	0xbd86088c	-0.06544599
179	0x3dadd2b8	0.08487457
180	0x3dbf70d4	0.09347692
181	0xbc2842f0	-0.010269865
182	0xbd12dff0	-0.035858095
183	0x3ba43bc0	0.0050120056
184	0x3cb105a0	0.021609128
185	0x3cd0ee80	0.02550435
186	0xbd17d440	-0.03706765
187	0xbdef41d6	-0.11682479
188	0xbc0f69f0	-0.008753285
189	0x3df6e326	0.12055044
190	0xbcca1088	-0.024666086
191	0x3da6aa4a	0.08137949
192	0xbbf1b660	-0.007376477
193	0xbd4dbfd0	-0.050231755
194	0xbd64da28	-0.055872113
195	0xbd3098cc	-0.04311447
196	0xbc9582d8	-0.018250868
197	0x3d9baac4	0.0760093
198	0x3d3182bc	0.04333757
199	0xbd84298c	-0.06453237
200	0x3d340278	0.043947667
201	0xbdb4ed80	-0.08834362
202	0xbc36a310	-0.011147276
203	0x3c417a90	0.011809006
204	0x3de74538	0.11292499
205	0x3db982f8	0.090581834
206	0xbd9722de	-0.07379697
207	0x3d443444	0.047901407
208	0x3db2b14a	0.087252215
209	0xbc7201d0	-0.01477094
210	0xbc7014e0	-0.0146534145
211	0xbb5f5180	-0.0034075677
212	0x3cc06ea0	0.02349025
213	0x3d9453c6	0.07242541
214	0x3b9741a0	0.0046159774
215	0xbd932b14	-0.07185951
216	0xbcf62760	-0.030048072
217	0x3dfd6f8e	0.12374793
218	0xbcd6c968	-0.026219085
219	0x3d1c9840	0.038231134
220	0x3dcb3d60	0.09923816
221	0x3cdbfd38	0.026854143
222	0xbcb99640	-0.022654653
223	0x3de1a66e	0.11018072
224	0x3b7cf0c0	0.0038595647
225	0x3dfd5fc4	0.123717815
226	0xbdd80b84	-0.105490714
227	0xbcb9f4b0	-0.022699684
228	0xbd2247a0	-0.03961909
229	0xb9f32e00	-0.00046382844
230	0xbd54541c	-0.051838025
231	0x3dc3728a	0.09543331
232	0x3d8c6872	0.06855859
233	0x3dcc4ed6	0.09975974
234	0xbd94e7ea	-0.072707966
235	0x3d9dbf36	0.07702486
236	0xbd1c1d28	-0.038113743
237	0x3dee4eda	0.116361335
238	0x3ca475d0	0.020075709
239	0x3d5ff24c	0.05467443
240	0xbd2ddbcc	-0.042445943
241	0xbded92ac	-0.11600241
242	0xbddf3698	-0.10899085
243	0xbc898278	-0.016785845
244	0x3bde1ac0	0.006778091
245	0x3d8e673a	0.06953283
246	0xbdb6078e	-0.0888816
247	0xba9cf500	-0.0011974871
248	0xbbf617c0	-0.0075101554
249	0x3d82336c	0.06357464
250	0xbde7a268	-0.113102734
251	0x3dd16886	0.102250144
252	0x3d333f38	0.043761462
253	0xbdd0da94	-0.101979405
254	0x3dadc7d8	0.08485383
255	0x3d83cae0	0.0643518

fc.bias f4 [10]
0	0xbc17bf10	-0.009261861
1	0x3d755804	0.05989839
2	0xbdbccf22	-0.09219195
3	0x3de45790	0.11149514
4	0x3da1f87c	0.07908723
5	0xbdcb79b8	-0.099353254
6	0x3d2395a8	0.039937645
7	0xbda161d2	-0.07879986
8	0x3d6190a8	0.055069596
9	0x3dce2360	0.10065341

onnx::MatMul_219 f4 [64, 192]
0	0x3d21fd40	0.03954816
1	0xbbb8c2e0	-0.0056384653
2	0x3dcf1b6a	0.10112651
3	0xbded3ad5	-0.11583487
4	0x3d25ec38	0.04050848
5	0xbe02cb27	-0.12772809
6	0xbda1b387	-0.0789557
7	0x3d4cc2d4	0.04999049
8	0xbda4c571	-0.080454715
9	0xbc4fad50	-0.012675598
10	0xbd40083a	-0.046882845
11	0x3e14296d	0.14468928
12	0xbe1b83d2	-0.15187004
13	0xbcad76b8	-0.021174774
14	0x3d5752d8	0.05256924
15	0xbe18518e	-0.1487486
16	0x3d828a68	0.06374055
17	0x3d907de2	0.0705526
18	0x3d66565c	0.056234702
19	0x3d94c98a	0.07265003
20	0xbd98c388	-0.074591696
21	0xbe0d2030	-0.1378181
22	0x3da84752	0.08216728
23	0xbbfa6e40	-0.0076425374
24	0xbccdc3f0	-0.025117844
25	0x3d0ed5a4	0.034871712
26	0x3e18542f	0.14875863
27	0xbd75dd6c	-0.060025617
28	0xbccd9868	-0.025097087
29	0x3a41dc00	0.0007395148
30	0x3d828b7c	0.06374261
31	0x3bafb120	0.005361691
32	0xbdf9cae1	-0.12196899
33	0x3dca7f8e	0.098876104
34	0xbce66824	-0.02812583
35	0x3dc1e78a	0.09467991
36	0xbe0bf7e6	-0.13668784
37	0x3e13ed35	0.14445956
38	0xbdc48a32	-0.09596671
39	0x3d2c2604	0.042028442
40	0x3df393c2	0.11893417
41	0xbdf73444	-0.12070516
42	0xbbf30c00	-0.007417202
43	0xbdf6baf0	-0.12047374
44	0xbb0a1f40	-0.0021075755
45	0xbcc43be8	-0.023954347
46	0x3e19ea05	0.15030678
47	0x3de50f8a	0.111846045
48	0xbcf60cdc	-0.030035429
49	0xbd465550	-0.048421204
50	0xbdd5f514	-0.104471356
51	0xbd7a5736	-0.061118327
52	0xbdc4d26e	-0.09610449
53	0xbd998213	-0.07495513
54	0xbe15b4dd	-0.14619775
55	0xbdc11fae	-0.094298705
56	0x3dcf1c6e	0.101128444
57	0xbe01d714	-0.12679702
58	0xbd90a18b	-0.07062062
59	0x3d9b0bdc	0.07570621
60	0x3df5903e	0.11990403
61	0xbd2f456e	-0.042790823
62	0x3b1811c0	0.002320394
63	0x3b92a100	0.004474759
64	0x3e1262ff	0.14295577
65	0x3e170c03	0.14750676
66	0xbe07572b	-0.13216846
67	0x3dbaae78	0.091153085
68	0xbac60280	-0.0015106946
69	0xbd755e46	-0.05990436
70	0xbd96378c	-0.073348135
71	0x3d062190	0.03274685
72	0xbe06fbc9	-0.13181986
73	0xbdcdb52e	-0.10044323
74	0x3dc1c2b2	0.09460963
75	0xbdbc1500	-0.09183693
76	0x3c5395c0	0.012914121
77	0x3e197b87	0.14988528
78	0xbd98a876	-0.074540064
79	0x3d38abd4	0.045085743
80	0x3d4b1f08	0.04959014
81	0x3dec5a26	0.11540632
82	0xbdeefa90	-0.11668885
83	0x3de7e6da	0.11323328
84	0xbdddf026	-0.1083682
85	0xbd3d86c4	-0.0462711
86	0x3d9db09c	0.07699701
87	0xbda7d969	-0.081957646
88	0x3dd178b6	0.10228102
89	0x3983ec00	0.000251621
90	0x3db907d8	0.09034699
91	0x3ddd7ad6	0.10814445
92	0x3c0d3280	0.008617997
93	0xbd8c8586	-0.06861405
94	0xbdf92230	-0.12164724
95	0xbd8b57e4	-0.06803873
96	0x3d04b37c	0.032397732
97	0x3df99cda	0.1218812
98	0x3e18cc6b	0.1492173
99	0xbe00cb9e	-0.12577674
100	0x3a9d7780	0.0012013763
101	0x3dfcdb26	0.12346487
102	0xbe09a060	-0.13440084
103	0xbdc83026	-0.097748086
104	0x3e0a0527	0.13478528
105	0xbdd2f6f2	-0.10301007
106	0xbd2d1210	-0.042253554
107	0x3d951948	0.07280213
108	0xbc6644c0	-0.014054477
109	0xbdacf063	-0.08444288
110	0x3de72e16	0.11288087
111	0x3ddf0376	0.10889332
112	0x3d2e7f94	0.042602137
113	0xbc9ba298	-0.01899843
114	0xbd834a6b	-0.064106785
115	0x3df9a546	0.121897265
116	0x3dcf5696	0.10123937
117	0xbde5546a	-0.11197741
118	0xbda29ebc	-0.079404324
119	0xbc4347d0	-0.011918977
120	0x3ddedeea	0.10882361
121	0xbaaa8d80	-0.0013012141
122	0xbdffc676	-0.12489025
123	0x3d6a392c	0.05718343
124	0xbd40d1ae	-0.047074966
125	0x3d867390	0.065650105
126	0xbdae9f75	-0.08526508
127	0x3d965ae0	0.07341552
128	0x3cee26d8	0.029071257
129	0xbdfe8546	-0.12427764
130	0x3c13b8d0	0.009016231
131	0x3e14db49	0.14536776
132	0xbc992968	-0.018696502
133	0xbaea6d00	-0.0017885268
134	0xbd3342e8	-0.04376498
135	0xbda12bef	-0.07869708
136	0xbdfea0f2	-0.12433042
137	0xbdd8e62f	-0.10590779
138	0x3de86be2	0.11348702
139	0x3d9cbff4	0.076538
140	0x3d9ccfe0	0.076568365
141	0x3d7b50f4	0.0613565
142	0x3d087c7c	0.033321843
143	0xbe0f1178	-0.13971508
144	0xbdbf0e06	-0.09328847
145	0xbe1b0ff7	-0.15142809
146	0x3ddef8ea	0.1088732
147	0xbd1032c0	-0.03520465
148	0x3db7d6c2	0.08976509
149	0x3d62e82c	0.055397198
150	0x3dcdc8a6	0.10048036
151	0x3dd53fd6	0.10412566
152	0x3db7492a	0.08949502
153	0xbdb7d3a3	-0.089759134
154	0xbc980cb8	-0.018560752
155	0x3d427020	0.047470212
156	0x3e0dcd0d	0.13847752
157	0x3cd1b470	0.025598735
158	0xbd957703	-0.0729809
159	0xbd9e43fd	-0.077278115
160	0xbddc6262	-0.107609525
161	0x3c61bb80	0.013777614
162	0xbe0d1381	-0.13776971
163	0x3e1b990b	0.151951
164	0x3d09fea8	0.033690125
165	0x3deaba22	0.11461283
166	0xba872d00	-0.0010313094
167	0xbda0c922	-0.07850863
168	0x3de5c9e6	0.1122015
169	0xbd49ebde	-0.049297206
170	0xbccd2048	-0.025039807
171	0x3e049593	0.12947683
172	0x3d751c60	0.059841514
173	0xbd7bdd4a	-0.061490335
174	0x3dd74df2	0.10512914
175	0xbd03efba	-0.032211043
176	0xbe10bc88	-0.14134419
177	0xbcfc685c	-0.030811481
178	0xbd543130	-0.05180472
179	0x3ca7cb68	0.020482734
180	0x3d2879fc	0.04113196
181	0xbc29e1e0	-0.010368794
182	0x3ca5d9f0	0.020245522
183	0x3e104ef7	0.14092623
184	0x3d98ba4a	0.07457407
185	0x3d8b35ba	0.06797357
186	0x3dd33dc2	0.10314514
187	0xbdda1ad9	-0.10649652
188	0xbdf04d7c	-0.11733529
189	0x3e0d359b	0.1378998
190	0xbdfb1b10	-0.12261021
191	0xbddf88d2	-0.10914768
192	0xbdbd3d1a	-0.0924017
193	0xbdbb68c2	-0.0915084
194	0xbc6476b0	-0.013944313
195	0x3d508e70	0.05091709
196	0xbe0d2226	-0.13782558
197	0xbdd502ea	-0.104009464
198	0x3c85a0f8	0.016312107
199	0x3e1c27fb	0.15249626
200	0x3d92c5ac	0.07166609
201	0xbd472df0	-0.048627794
202	0x3dc8690e	0.097856626
203	0xbd82a12e	-0.06378399
204	0x3e11131b	0.14167444
205	0xbe0b5bcc	-0.13609236
206	0xbcbd62c0	-0.023118377
207	0xbbf204e0	-0.007385835
208	0xbb7272c0	-0.0036994666
209	0xbd47526a	-0.04866258
210	0xbdfc89fa	-0.123310044
211	0xbe0a8e77	-0.13530909
212	0xbe012a07	-0.12613688
213	0x3ce311b0	0.027718395
214	0x3d400b98	0.046886057
215	0x3e0b90a7	0.13629399
216	0xbe11a5db	-0.14223425
217	0x3e0c30bf	0.1369047
218	0x3abcd180	0.0014405698
219	0x3ddf5cca	0.1090637
220	0xbd94e4ec	-0.07270226
221	0xbe10b509	-0.1413156
222	0x3d689ba4	0.056789055
223	0xbade7e00	-0.0016974807
224	0xbbab77c0	-0.005232781
225	0x3d18d208	0.037309676
226	0xbe0f3987	-0.13986789
227	0xbe122b42	-0.14274314
228	0xbda07cbd	-0.07836292
229	0x3e0226dd	0.12710138
230	0x3d5ec500	0.054387093
231	0xbd676e18	-0.056501478
232	0xbe15e81a	-0.14639321
233	0xbe0c9f68	-0.13732684
234	0x3bba1520	0.005678788
235	0x3dd1f676	0.10252087
236	0xbd99b059	-0.07504339
237	0xbd8b55a7	-0.06803446
238	0x3d9d03c6	0.07666735
239	0xbe0532ab	-0.1300761
240	0x3d462358	0.04837355
241	0xbd718dfc	-0.058973297
242	0xbdff4771	-0.12464798
243	0x3e0f2ac9	0.13981165
244	0xbc7df980	-0.01550138
245	0xbdc5361e	-0.09629463
246	0x3cb2a3b8	0.021806583
247	0xbdfa494e	-0.12221013
248	0xbdeda849	-0.116043635
249	0xbcb716e0	-0.022349775
250	0x3d74db5c	0.05977951
251	0x3d4b4bb8	0.049632758
252	0xbcedfe48	-0.029051915
253	0xbdc68412	-0.09693159
254	0x3d9935b4	0.07480946
255	0x3e1b585b	0.15170424

onnx::MatMul_239 f4 [64, 256]
0	0xbd9c81ba	-0.07641931
1	0xbd6879f4	-0.05675693
2	0xbd0a61f0	-0.033784807
3	0xbc103780	-0.008802295
4	0xbdf0b74e	-0.117537126
5	0x3dc62cb2	0.09676494
6	0x3cc86030	0.024459928
7	0xbca86900	-0.02055788
8	0x3cff12a0	0.03113681
9	0x3bf4d340	0.007471472
10	0xbd9ac9ea	-0.07558043
11	0xbdd338d2	-0.10313572
12	0x3de536dc	0.11192104
13	0xbc8047a8	-0.015659168
14	0xbd80f65a	-0.06296988
15	0xbc2286e0	-0.009919852
16	0x3cf4abe0	0.029867113
17	0x3d7d712c	0.061875507
18	0x3d8acf92	0.06777872
19	0xbd23e8ec	-0.040017053
20	0x3ce290a0	0.027656853
21	0xbd341d54	-0.043973282
22	0xbdb9b3c0	-0.09067488
23	0x3dfb82d8	0.12280816
24	0xbc534770	-0.01289545
25	0x3d12bb68	0.035823256
26	0xbdfec912	-0.12440695
27	0x3c2d7830	0.010587737
28	0x3d8599c4	0.06523469
29	0xbd471fa8	-0.048614174
30	0x3c6f1b20	0.014593869
31	0x3ceb7cb8	0.028745994
32	0xbda305da	-0.079601005
33	0x3de50816	0.11183183
34	0xbd035058	-0.032059044
35	0xbc938048	-0.018005505
36	0xbd214b04	-0.03937818
37	0x3dc5a41a	0.096504405
38	0xbd18fc38	-0.03734991
39	0x3dfc53f4	0.123207
40	0xbdc0d012	-0.09414686
41	0x3c65a9b0	0.014017507
42	0x3d2c8ff8	0.042129487
43	0x3bf5a7e0	0.007496819
44	0x3dd66786	0.10468964
45	0xbac26800	-0.001483202
46	0x3c498e40	0.012301981
47	0x3dc2adf6	0.09505837
48	0xbdd3aa5e	-0.10335229
49	0x3d97aaa6	0.074055955
50	0xbcb83148	-0.022484437
51	0xba902d00	-0.0010999739
52	0x3d2edce8	0.04269114
53	0xbda7f880	-0.082016945
54	0x3d99e390	0.07514107
55	0x3b9ac100	0.0047227144
56	0xbdc49ec2	-0.09600593
57	0xbd54527c	-0.051836476
58	0xbb1fc800	-0.0024380684
59	0xbce2dca8	-0.027693108
60	0x3dedeeb4	0.11617795
61	0x3d82f68c	0.06394681
62	0xbc9357c0	-0.017986178
63	0x3d9906ae	0.07471977
64	0xbd9077ba	-0.07054086
65	0x3ddd59b6	0.10808127
66	0xbcca7e70	-0.024718493
67	0xbde2c994	-0.11073604
68	0x3dde4d44	0.10854581
69	0xbdb34ea8	-0.08755237
70	0xbde76c18	-0.11299914
71	0x3d821204	0.063510925
72	0x3dd591c2	0.10428192
73	0xbd4afc24	-0.049556866
74	0xbcdbe910	-0.026844531
75	0xbd6d8828	-0.057991177
76	0xbdc387f4	-0.095474154
77	0xbce93b28	-0.02847059
78	0xbd622e08	-0.05521968
79	0x3d96e7da	0.07368441
80	0x399c8800	0.00029855967
81	0xbd0ab91c	-0.03386794
82	0x3d1fce2c	0.03901498
83	0x3d93de88	0.07220179
84	0xbd3226e4	-0.04349412
85	0xbc644410	-0.013932243
86	0xbd505e5c	-0.050871238
87	0xbdeac96e	-0.11464201
88	0xbd8d6398	-0.069037616
89	0x3dd3c5be	0.10340451
90	0x3db47054	0.088104874
91	0x3d49988c	0.049217746
92	0x3daa128c	0.08304319
93	0x3d0a8c98	0.033825487
94	0xbde794d2	-0.11307682
95	0xbdc47bd0	-0.09593928
96	0x3c96a110	0.018387347
97	0x3d8eddca	0.06975897
98	0xbcb27ad0	-0.021787077
99	0xbd276a88	-0.04087308
100	0xbd9814da	-0.07425852
101	0x3d0ab698	0.03386554
102	0x3ca8b168	0.020592406
103	0xbda48f8a	-0.080351904
104	0x3c3fb6e0	0.011701316
105	0x3df5f5de	0.12009786
106	0xbdf3fb90	-0.11913216
107	0xbc3a9fe0	-0.011390656
108	0x3dc73070	0.097260356
109	0xbd0cf724	-0.03441538
110	0xbd0658fc	-0.032799706
111	0xbdb7c0ae	-0.089722976
112	0x3d405e64	0.046965018
113	0x3da8d4ca	0.08243711
114	0x3dbaf2d8	0.0912835
115	0x3cd08188	0.02545239
116	0x3c944e90	0.018103868
117	0x3db520be	0.08844136
118	0xbd3cb7ec	-0.04607384
119	0xbbb83020	-0.0056209713
120	0x3d98b224	0.07455853
121	0x3d9c9588	0.07645708
122	0xbdf961cc	-0.121768564
123	0xbbd98d60	-0.0066391677
124	0x3d40fa78	0.047113866
125	0xbd0da8e4	-0.034584895
126	0xbdc1bd06	-0.094598815
127	0x3da8712a	0.08224709
128	0xbd89c11c	-0.06726286
129	0x3dc1eaa4	0.09468582
130	0xbdb93dd6	-0.090449974
131	0xbd8dcdaa	-0.06923993
132	0x3da147ca	0.07875021
133	0xbda7d47c	-0.08194825
134	0x3db7bac8	0.089711726
135	0xbb2bf640	-0.0026239306
136	0x3dd52f70	0.104094386
137	0x3d7b0980	0.061288357
138	0x3d3964d4	0.045262173
139	0xbdb3d12c	-0.08780131
140	0x3d4e2be0	0.05033481
141	0xbd8c839e	-0.068610415
142	0x3d0754b4	0.033039764
143	0x3bbd3a20	0.0057747513
144	0x3d212934	0.039345935
145	0xbd610f40	-0.054946184
146	0xbd6de9a0	-0.05808413
147	0x3df39f2c	0.11895594
148	0x3aa6a580	0.0012714118
149	0x3dc86a9c	0.09785959
150	0xbd00a264	-0.031404868
151	0x3d6e75cc	0.05821781
152	0xbdcef9a2	-0.101062074
153	0x3dcaab0a	0.09895904
154	0xbd7c5b6c	-0.061610624
155	0xbdbe1d88	-0.092829764
156	0xbbbf2260	-0.0058329552
157	0xbd7ff4c4	-0.062489286
158	0xbdc27e04	-0.09496692
159	0xbdedee9e	-0.11617778
160	0x3dd09a40	0.10185671
161	0x3d23ec18	0.04002008
162	0x3d145ba4	0.036220208
163	0x3daa109e	0.08303951
164	0x3de3bf64	0.11120489
165	0xbd538c88	-0.051647693
166	0xbb5482c0	-0.0032426566
167	0xbd3d7858	-0.046257347
168	0x3b18bac0	0.002330467
169	0xbdff8a84	-0.12477592
170	0x3dccb0ca	0.09994657
171	0x3d164780	0.03668928
172	0x3d07b59c	0.03313218
173	0xbd3701ac	-0.04467933
174	0xbd2c6c98	-0.04209575
175	0xbdfe4236	-0.124149725
176	0x3de5796c	0.112048
177	0x3c4aaf40	0.012370884
178	0x3bdc1260	0.0067160577
179	0xbd9c5f50	-0.07635367
180	0xbdf9d182	-0.121981636
181	0x3d28e878	0.041237324
182	0xbde7b1dc	-0.11313221
183	0x3da0f82a	0.078598335
184	0xbd5a20d0	-0.05325395
185	0x3d3aa0fc	0.045563683
186	0xbcec0ee0	-0.028815687
187	0x3d2412ac	0.04005687
188	0x3d749444	0.05971171
189	0xbd9de4cc	-0.07709655
190	0x3dc10694	0.09425083
191	0xbc5cd610	-0.013478771
192	0xbdaf700a	-0.08566292
193	0x3c59f240	0.013302386
194	0x3d8ca396	0.06867139
195	0xbdbae580	-0.09125805
196	0x3df861f8	0.12128061
197	0x3c4bae40	0.012431681
198	0xbd373a90	-0.044733584
199	0x3dc26c0a	0.09493263
200	0x3ddc217c	0.10748574
201	0xbbe6b160	-0.0070401877
202	0xbc08fc50	-0.008360937
203	0xbdce2daa	-0.100673035
204	0x3dede488	0.116158545
205	0x3d479b90	0.04873234
206	0xbdb2a2fe	-0.087224945
207	0xbdde3e98	-0.108517826
208	0x3d668250	0.05627662
209	0xbb49b340	-0.0030777007
210	0xbdddf11e	-0.10837005
211	0x3d2d8e48	0.042372018
212	0xbbd28fc0	-0.0064258277
213	0xbab02800	-0.0013439655
214	0x3ddad8ce	0.106858835
215	0xbdab5b50	-0.08367026
216	0x3dd7b124	0.10531834
217	0x3daff14a	0.08590944
218	0x3df02fb6	0.1172785
219	0xbdbe4a08	-0.09291464
220	0xbdacdc3c	-0.08440444
221	0xbd8dbdca	-0.06920965
222	0xbdfca65c	-0.12336418
223	0x3d7c9da8	0.06167379
224	0x3d481b58	0.048854202
225	0x3d86471e	0.06556533
226	0x3d24ca88	0.04023221
227	0x3d7d4c9c	0.06184064
228	0x3debef80	0.115202904
229	0xbde7a78a	-0.113112524
230	0xbb950500	-0.004547715
231	0x3c387ea0	0.0112606585
232	0x3dfc1bfa	0.123100236
233	0x3c19b3c0	0.009381235
234	0x3d80a06a	0.062805966
235	0x3df6d99e	0.12053226
236	0xbdc2d904	-0.09514049
237	0xbdbcd688	-0.09220606
238	0xbcd256d0	-0.025676161
239	0x3d0d5af4	0.034510568
240	0x3da45bbe	0.08025311
241	0x3dce5712	0.10075201
242	0xbdbfbffa	-0.093627885
243	0x3d83ccbc	0.06435534
244	0x3d3e56dc	0.046469554
245	0x3dfae16e	0.122500286
246	0x3d6b9d38	0.057522982
247	0x3d14a128	0.036286503
248	0x3dac88ac	0.084245056
249	0xbdd23b9c	-0.10265276
250	0xbcdb1340	-0.026742578
251	0x3da675f6	0.08127968
252	0xbd8001a8	-0.06250316
253	0xbde3682a	-0.11103852
254	0xbcfd4e88	-0.030921236
255	0xbc77a280	-0.015114427
