test_transformer.onnx (onnx, 483601 bytes, 12 tensors)

embedding.weight f4 [1000, 64]
0.5303058 -0.16304757 -0.12450355 -1.6376703 1.9696034 0.6049897 -0.8746361 0.7516473
1.0199201 -0.6530869 0.05397777 1.5081768 -1.4430608 -0.6473842 -0.19387528 -0.67808205
-0.023025844 1.7562689 1.0353097 0.19341058 0.177355 0.9868618 0.44435716 0.71416026
-0.27986678 -0.78474027 -0.27880168 0.4329964 0.101191856 1.3122929 3.463436 -1.1384904
0.40832287 1.3119148 1.6630647 -0.20071186 -1.4551874 -0.77921075 1.6593602 -0.5618257
-0.79197836 -0.86155665 0.6583235 -2.5504096 0.92209375 -0.5716488 0.59809875 -0.41468248
1.4400893 0.6033122 -0.69712716 0.13058634 1.7317257 -0.60065114 0.06647958 0.25613478
1.5648379 -0.22666612 -0.45562884 0.4064632 0.47749704 0.46337053 -0.06337063 -2.0207026
-1.8062583 1.7543082 -0.96333987 1.1806535 0.6576716 0.11513213 0.92456454 -1.4539217
1.3703939 -0.3657002 -0.68821454 -0.5086601 -0.3790258 1.1756454 0.112914726 -0.2063556
-0.14084539 -0.38317493 0.3356822 0.31633013 -1.260012 -1.0494308 -0.13965555 -0.041888434
-1.7337289 -0.44092757 -0.15966845 -1.5381862 0.010989176 -1.0793533 0.80263454 0.26614195
-0.015000736 -0.79603 2.043577 -1.57906 0.2789992 1.4532541 -0.64336526 0.045871727
-0.8668349 0.37825975 -1.0133128 1.3537749 1.1938009 -0.03179461 0.328359 -0.06653261
-2.6123917 1.4260186 -1.2669823 -0.20639221 -0.13419902 -0.9399561 0.36319143 0.36073282
-0.14980519 -0.07997958 0.75285816 0.56576645 0.10701936 -0.20186825 0.16931465 2.2767022
0.8082492 -0.017617855 0.23248164 1.0694056 0.3192938 -0.91752064 0.47689876 -0.28646266
0.45477706 -0.12718709 -0.1973057 0.5335913 0.16913234 -1.0867527 -0.40628752 -1.2269336
-0.48076248 0.42427716 -0.42432138 0.21223232 0.86554354 0.5817297 1.821057 0.18944743
0.33369786 0.4089439 -0.29567325 -0.13337164 -0.12432212 1.4139525 -1.8641044 0.5608456
0.7921823 1.0436105 0.7444318 -0.43912482 0.15648071 0.20469676 0.03334587 -1.7441292
-2.3067691 -0.3329635 -0.38884047 0.3988649 -0.62696904 0.90863764 0.64459085 -1.973951
1.3180635 -2.14735 -0.5602286 0.2717869 -1.0635024 0.4668244 -1.4868338 0.2159772
1.2416372 0.24228205 -0.37874073 -0.39191392 0.7141987 -0.38098228 1.5517942 0.074872755
-0.8715309 0.44969258 -0.70860577 -0.07974801 0.60829854 -0.76726836 0.9683649 -0.8797015
1.7386173 -0.17233112 1.2508641 -0.025216548 0.41578028 0.49908274 0.058447026 1.9866549
-1.2606626 0.091734745 -2.5179389 -2.1746175 1.4007728 1.4267858 -0.7327177 0.12321101
0.8675841 -0.31837368 -0.5322131 1.0642333 0.9471678 0.34533027 -0.9732891 -0.91680247
0.06783036 -1.5155125 0.70307744 -0.842363 -0.33161452 0.8099616 0.21292095 -1.0265505
-1.0901008 1.7639754 1.3119516 -1.6053097 -0.5093463 1.4801279 0.71848476 -1.7711077
-0.42317116 -0.0055163144 0.20049673 -0.39840782 -0.22887224 -0.89050025 -1.4209143 -0.38757175
-0.42332107 0.75057733 -0.71264625 -1.2833531 0.7655612 1.2490078 1.7042649 -0.95665205
00000000: 1fc2 073f f1f5 26be b8fb febd 2e9f d1bf
00000010: f71b fc3f 9be0 1a3f 27e8 5fbf f56b 403f
00000020: be8c 823f b430 27bf cb17 5d3d f00b c13f
00000030: 37b6 b8bf f9ba 25bf 3e87 46be c996 2dbf
00000040: b2a0 bcbc 6bcd e03f 0785 843f 6c0d 463e
00000050: 8d9c 353e faa2 7c3f c882 e33e 35d3 363f
00000060: b34a 8fbe bde4 48bf 18bf 8ebe b4b1 dd3e
00000070: ad3d cf3d 37f9 a73f efa8 5d40 0eba 91bf
00000080: b20f d13e d3ec a73f 4edf d43f 6987 4dbe
00000090: 9543 babf 5b7a 47bf ea65 d43f cfd3 0fbf
000000a0: 18bf 4abf fa8e 5cbf e487 283f e939 23c0
000000b0: 560e 6c3f 9357 12bf 001d 193f 4351 d4be
000000c0: d954 b83f ab72 1a3f ed76 32bf 6db8 053e
000000d0: 30a9 dd3f 46c4 19bf 7226 883d 1924 833e
000000e0: 9c4c c83f 2a1b 68be 2f48 e9be f21b d03e
000000f0: 7e7a f43e e73e ed3e 76c8 81bd 3153 01c0
00000100: 7933 e7bf 2c8d e03f 719d 76bf a71f 973f
00000110: 2a5d 283f 65ca eb3d 43b0 6c3f 1b1a babf
00000120: 1169 af3f 0e3d bbbe d42e 30bf 8c37 02bf
00000130: ab0f c2be 8c7b 963f d63f e73d e24e 53be
00000140: c639 10be 812f c4be 8ade ab3e 06f6 a13e
00000150: 1348 a1bf c053 86bf dd01 0fbe 3593 2bbd
00000160: d4ea ddbf 42c1 e1be 2080 23be 49e3 c4bf
00000170: f20b 343c 4028 8abf 7579 4d3f c243 883e
00000180: a6c5 75bc 9fc8 4bbf f7c9 0240 a31e cabf
00000190: fcd8 8e3e 3b04 ba3f 96b3 24bf fee3 3b3d
000001a0: e4e8 5dbf 43ab c13e 3cb4 81bf 7f48 ad3f
000001b0: 78ce 983f 113b 02bd ac1e a83e 4042 88bd
000001c0: 6d31 27c0 c787 b63f 7a2c a2bf 7b58 53be
000001d0: 786b 09be f7a0 70bf 3af4 b93e f9b1 b83e
000001e0: 8866 19be 56cc a3bd 50bb 403f 12d6 103f
000001f0: f72c db3d 8db6 4ebe d260 2d3e 7db5 1140
00000200: 6be9 4e3f 5253 90bc ab0f 6e3e 48e2 883f
00000210: 7a7a a33e a2e2 6abf 132c f43e 3cab 92be
00000220: 8ad8 e83e 553d 02be 810a 4abe 7099 083f
00000230: 0731 2d3e b61a 8bbf eb04 d0be 290c 9dbf
00000240: 8026 f6be db3a d93e a740 d9be 6e53 593e
00000250: 4394 5d3f 3dec 143f 6518 e93f 82fe 413e
00000260: 72da aa3e 1861 d13e 7c62 97be 9392 08be
00000270: 989c febd 65fc b43f f99a eebf 9493 0f3f
00000280: 76cc 4a3f 0795 853f 1593 3e3f f8d4 e0be
00000290: 7b3c 203e 079c 513e ae95 083d a03f dfbf
000002a0: 1ba2 13c0 317a aabe 1916 c7be 0538 cc3e
000002b0: 0b81 20bf 7a9c 683f e803 253f 6daa fcbf
000002c0: 4eb6 a83f 2f6e 09c0 246b 0fbf a727 8b3e
000002d0: d920 88bf 9c03 ef3e 9250 bebf 2129 5d3e
000002e0: f8ed 9e3f c918 783e 4eea c1be f1a8 c8be
000002f0: bad5 363f 1c10 c3be 31a1 c63f e356 993d
00000300: a61c 5fbf 1b3e e63e 3067 35bf ed52 a3bd
00000310: 74b9 1b3f b36b 44bf c3e6 773f 1e34 61bf
00000320: 038b de3f 9277 30be 511c a03f ef92 cebc
00000330: 27e1 d43e c687 ff3e 2666 6f3d b54a fe3f
00000340: 645d a1bf 6ddf bb3d e925 21c0 ef2c 0bc0
00000350: 864c b33f eba0 b63f 6393 3bbf 0e56 fc3d
00000360: fe19 5e3f e001 a3be 1e3f 08bf cc38 883f
00000370: 9779 723f 21cf b03e 7929 79bf 91b3 6abf
00000380: a5ea 8a3d 50fc c1bf e2fc 333f 1aa5 57bf
00000390: 61c9 a9be a559 4f3f f307 5a3e 0266 83bf
000003a0: 6c88 8bbf f2c9 e13f 08ee a73f ca7a cdbf
000003b0: 8564 02bf d574 bd3f 9eee 373f a8b3 e2bf
000003c0: e4a9 d8be 33c2 b4bb 044f 4d3e 1cfc cbbe
000003d0: 7c5d 6abe d3f7 63bf 85e0 b5bf ce6f c6be
000003e0: 8abd d8be d625 403f fc6f 36bf ea44 a4bf
000003f0: d2fb 433f 7ddf 9f3f 5a25 da3f 26e7 74bf

transformer.layers.0.self_attn.in_proj_bias f4 [192]
0.0 0.0 0.0 0.0 0.0 0.0 0.0 0.0
0.0 0.0 0.0 0.0 0.0 0.0 0.0 0.0
0.0 0.0 0.0 0.0 0.0 0.0 0.0 0.0
0.0 0.0 0.0 0.0 0.0 0.0 0.0 0.0
0.0 0.0 0.0 0.0 0.0 0.0 0.0 0.0
0.0 0.0 0.0 0.0 0.0 0.0 0.0 0.0
0.0 0.0 0.0 0.0 0.0 0.0 0.0 0.0
0.0 0.0 0.0 0.0 0.0 0.0 0.0 0.0
0.0 0.0 0.0 0.0 0.0 0.0 0.0 0.0
0.0 0.0 0.0 0.0 0.0 0.0 0.0 0.0
0.0 0.0 0.0 0.0 0.0 0.0 0.0 0.0
0.0 0.0 0.0 0.0 0.0 0.0 0.0 0.0
0.0 0.0 0.0 0.0 0.0 0.0 0.0 0.0
0.0 0.0 0.0 0.0 0.0 0.0 0.0 0.0
0.0 0.0 0.0 0.0 0.0 0.0 0.0 0.0
0.0 0.0 0.0 0.0 0.0 0.0 0.0 0.0
0.0 0.0 0.0 0.0 0.0 0.0 0.0 0.0
0.0 0.0 0.0 0.0 0.0 0.0 0.0 0.0
0.0 0.0 0.0 0.0 0.0 0.0 0.0 0.0
0.0 0.0 0.0 0.0 0.0 0.0 0.0 0.0
0.0 0.0 0.0 0.0 0.0 0.0 0.0 0.0
0.0 0.0 0.0 0.0 0.0 0.0 0.0 0.0
0.0 0.0 0.0 0.0 0.0 0.0 0.0 0.0
0.0 0.0 0.0 0.0 0.0 0.0 0.0 0.0
00000000: 0000 0000 0000 0000 0000 0000 0000 0000
00000010: 0000 0000 0000 0000 0000 0000 0000 0000
00000020: 0000 0000 0000 0000 0000 0000 0000 0000
00000030: 0000 0000 0000 0000 0000 0000 0000 0000
00000040: 0000 0000 0000 0000 0000 0000 0000 0000
00000050: 0000 0000 0000 0000 0000 0000 0000 0000
00000060: 0000 0000 0000 0000 0000 0000 0000 0000
00000070: 0000 0000 0000 0000 0000 0000 0000 0000
00000080: 0000 0000 0000 0000 0000 0000 0000 0000
00000090: 0000 0000 0000 0000 0000 0000 0000 0000
000000a0: 0000 0000 0000 0000 0000 0000 0000 0000
000000b0: 0000 0000 0000 0000 0000 0000 0000 0000
000000c0: 0000 0000 0000 0000 0000 0000 0000 0000
000000d0: 0000 0000 0000 0000 0000 0000 0000 0000
000000e0: 0000 0000 0000 0000 0000 0000 0000 0000
000000f0: 0000 0000 0000 0000 0000 0000 0000 0000
00000100: 0000 0000 0000 0000 0000 0000 0000 0000
00000110: 0000 0000 0000 0000 0000 0000 0000 0000
00000120: 0000 0000 0000 0000 0000 0000 0000 0000
00000130: 0000 0000 0000 0000 0000 0000 0000 0000
00000140: 0000 0000 0000 0000 0000 0000 0000 0000
00000150: 0000 0000 0000 0000 0000 0000 0000 0000
00000160: 0000 0000 0000 0000 0000 0000 0000 0000
00000170: 0000 0000 0000 0000 0000 0000 0000 0000
00000180: 0000 0000 0000 0000 0000 0000 0000 0000
00000190: 0000 0000 0000 0000 0000 0000 0000 0000
000001a0: 0000 0000 0000 0000 0000 0000 0000 0000
000001b0: 0000 0000 0000 0000 0000 0000 0000 0000
000001c0: 0000 0000 0000 0000 0000 0000 0000 0000
000001d0: 0000 0000 0000 0000 0000 0000 0000 0000
000001e0: 0000 0000 0000 0000 0000 0000 0000 0000
000001f0: 0000 0000 0000 0000 0000 0000 0000 0000
00000200: 0000 0000 0000 0000 0000 0000 0000 0000
00000210: 0000 0000 0000 0000 0000 0000 0000 0000
00000220: 0000 0000 0000 0000 0000 0000 0000 0000
00000230: 0000 0000 0000 0000 0000 0000 0000 0000
00000240: 0000 0000 0000 0000 0000 0000 0000 0000
00000250: 0000 0000 0000 0000 0000 0000 0000 0000
00000260: 0000 0000 0000 0000 0000 0000 0000 0000
00000270: 0000 0000 0000 0000 0000 0000 0000 0000
00000280: 0000 0000 0000 0000 0000 0000 0000 0000
00000290: 0000 0000 0000 0000 0000 0000 0000 0000
000002a0: 0000 0000 0000 0000 0000 0000 0000 0000
000002b0: 0000 0000 0000 0000 0000 0000 0000 0000
000002c0: 0000 0000 0000 0000 0000 0000 0000 0000
000002d0: 0000 0000 0000 0000 0000 0000 0000 0000
000002e0: 0000 0000 0000 0000 0000 0000 0000 0000
000002f0: 0000 0000 0000 0000 0000 0000 0000 0000

transformer.layers.0.self_attn.out_proj.weight f4 [64, 64]
0.11729327 -0.055679932 -0.082888186 0.09797311 0.043789104 0.116661325 -0.09609881 0.011908621
-0.087953135 -0.11455101 -0.008331493 -0.0014462024 -0.12303832 0.053994864 0.066425964 -0.002831772
0.118017256 0.120646864 -0.07249482 -0.08677338 -0.0468968 0.09129238 -0.0042256266 0.09191245
-0.086471006 0.09686607 0.1053673 0.11797468 0.120438755 0.062450916 0.10305902 -0.061977223
0.049008816 -0.0064923763 -0.0988179 -0.10892494 0.055856675 -0.057041377 0.0765194 -0.01660432
-0.080067635 0.08756238 -0.012448072 -0.012695134 -0.057132453 0.06517848 -0.06522271 0.035866305
-0.047410756 -0.028092757 -0.014578775 0.10186462 0.11478506 -0.11227228 0.080347165 0.10417363
-0.0021576434 0.01278995 0.021581694 -0.020175844 -0.10476433 -0.012366265 0.00821355 -0.0787016
-0.010123819 -0.07262406 0.019910261 -0.082363635 0.0608169 0.118047655 -0.0067610443 -0.071523994
-0.05700159 -0.08216913 -0.021582052 -0.0852121 0.10475285 0.019351035 -0.12016176 -0.09970772
0.088748336 0.0721091 0.08747095 -0.026045129 -0.042606562 -0.09441988 0.015864193 -0.068083614
0.08898717 -0.026552826 -0.006958097 0.08738549 -0.11801976 -0.051776603 -0.020574987 0.06077692
0.019439816 0.09289646 0.06581661 -0.00044885278 0.10567488 -0.00613676 -0.03389445 -0.06194283
0.009776905 0.07103056 0.11624162 -0.09976153 0.058130905 0.081463724 0.1164373 0.031817555
-0.058045775 0.078511775 0.015642717 -0.108212814 -0.0076769292 -0.07299696 0.02008897 -0.10309525
0.07226238 -0.0556169 -0.019718125 0.11316116 -0.022364095 -0.062443316 -0.06510612 -0.08981858
-0.11987586 0.054990306 0.008729085 -0.054112405 0.03051591 0.088882774 -0.034077406 -0.06744538
0.07673217 -0.09145054 0.11110583 -0.014325872 -0.08930355 -0.072818205 -0.002054304 0.12311076
-0.027505249 0.028059676 -0.05719249 -0.061314866 0.051263854 -0.070448846 -0.051221177 0.057051018
0.097357124 -0.045103833 0.107960254 -0.074925154 -0.04431127 0.1124167 -0.066297054 -0.06266002
-0.030301139 0.081801206 0.008586317 0.06862114 -0.11492394 -0.019561023 0.015174225 0.06041415
0.08110148 -0.04047349 0.04572934 -0.042482674 0.0599557 0.06456663 -0.08742763 -0.026288584
-0.007721767 0.024267957 -0.027952641 0.095690235 0.073461145 -0.04232897 -0.010915965 -0.066090584
0.06835978 -0.11527002 -0.10112901 0.05023238 0.12300943 -0.011124551 -0.09047432 -0.0042702407
-0.058886066 0.043044597 -0.074567825 -0.07323393 -0.047478437 0.028291225 -0.078857586 0.0900276
0.0066208392 0.09668076 0.04124701 0.1231572 0.053863004 -0.0797635 0.062145457 0.120770514
-0.09934163 0.00401406 0.07515232 -0.031754732 -0.0006940812 -0.039457366 -0.05771275 -0.103685275
0.11003935 -0.07240771 0.013145849 0.0049249977 -0.057276517 0.057722017 -0.0046413243 0.05426243
-0.081186384 0.05036524 -0.058456257 -0.0053439736 -0.012983948 -0.029360667 -0.040182024 -0.05611974
0.08725542 -0.015784115 0.04255326 -0.019679204 0.07379168 0.0365963 -0.054236367 0.10018921
-0.04378678 -0.08091523 -0.038569823 0.008295596 0.043422386 0.037619486 -0.11135113 -0.027072266
0.06479184 0.060439125 0.12342854 0.0077886432 0.07045527 0.033727333 0.06747249 0.03071244
00000000: 7437 f03d a410 64bd 48c1 a9bd 20a6 c83d
00000010: 345c 333d 22ec ee3d 74cf c4bd 601c 433c
00000020: c620 b4bd b899 eabd d080 08bc 808e bdba
00000030: 84fb fbbd b829 5d3d 560a 883d 4095 39bb
00000040: 08b3 f13d b415 f73d 2a78 94bd 3eb6 b1bd
00000050: dc16 40bd 80f7 ba3d 2077 8abb 983c bc3d
00000060: b617 b1bd b861 c63d d0ca d73d b69c f13d
00000070: 98a8 f63d 88cc 7f3d 9c10 d33d d4db 7dbd
00000080: 78bd 483d 00be d4bb 0a61 cabd 0a14 dfbd
00000090: f8c9 643d 38a4 69bd 34b6 9c3d c805 88bc
000000a0: 80fa a3bd e853 b33d 00f3 4bbc 40ff 4fbc
000000b0: b803 6abd 4c7c 853d 7c93 85bd 8ce8 123d
000000c0: c831 42bd c822 e6bc d0db 6ebc 669e d03d
000000d0: 6e14 eb3d 02ef e5bd 0e8d a43d fc58 d53d
000000e0: 4067 0dbb f08c 513c 18cc b03c d047 a5bc
000000f0: ae8e d6bd e09b 4abc 2092 063c 4e2e a1bd
00000100: 60de 25bc ecbb 94bd d81a a33c 44ae a8bd
00000110: 241b 793d f8c2 f13d c08b ddbb 2c7b 92bd
00000120: 807a 69bd 4a48 a8bd d8cc b0bc ae83 aebd
00000130: aa88 d63d 1086 9e3c 5e17 f6bd 9033 ccbd
00000140: b0c1 b53d f0ad 933d f823 b33d 985c d5bc
00000150: 3884 2ebd 365f c1bd a0f5 813c 6c6f 8bbd
00000160: e83e b63d 5085 d9bc c000 e4bb 2af7 b23d
00000170: 58b4 f1bd b413 54bd e08c a8bc 38f1 783d
00000180: 4040 9f3c 8040 be3d dcca 863d 0054 ebb9
00000190: 126c d83d e016 c9bb e8d4 0abd c4b7 7dbd
000001a0: 502f 203c 7878 913d 1610 ee3d c64f ccbd
000001b0: ac1a 6e3d 74d6 a63d ae76 ee3d 2053 023d
000001c0: 68c1 6dbd c8ca a03d 2825 803c ae9e ddbd
000001d0: c08e fbbb 6e7f 95bd a091 a43c 9a23 d3bd
000001e0: 4cfe 933d 8cce 63bd e887 a1bc 0ac1 e73d
000001f0: e834 b7bc 90c4 7fbd 5c56 85bd cef2 b7bd
00000200: 7a81 f5bd 843d 613d 7004 0f3c f8a4 5dbd
00000210: 80fc f93c 2c08 b63d c094 0bbd ce20 8abd
00000220: c225 9d3d 6c4a bbbd 748b e33d 10b7 6abc
00000230: c8e4 b6bd b621 95bd 80a1 06bb 7e21 fc3d
00000240: b052 e1bc 68dd e53c ac42 6abd 4c25 7bbd
00000250: 0cfa 513d 7c47 90bd 4ccd 51bd 54ae 693d
00000260: 2c63 c73d ccbe 38bd 441a dd3d 5c72 99bd
00000270: bc7f 35bd ba3a e63d c0c6 87bd e653 80bd
00000280: 183a f8bc 6487 a73d a0ad 0c3c 3e89 8c3d
00000290: 3e5d ebbd 703e a0bc 509d 783c d474 773d
000002a0: 8818 a63d 88c7 25bd b04e 3b3d 5002 2ebd
000002b0: 1c94 753d 823b 843d 420d b3bd 285b d7bc
000002c0: e006 fdbb 98cd c63c f0fc e4bc 3ef9 c33d
000002d0: cc72 963d 2461 2dbd e0d8 32bc 805a 87bd
000002e0: 3600 8c3d b012 ecbd ba1c cfbd 78c0 4d3d
000002f0: 5eec fb3d c043 36bc 9a4a b9bd 60ed 8bbb
00000300: 8432 71bd 884f 303d 04b7 98bd acfb 95bd
00000310: c078 42bd 00c3 e73c 1680 a1bd 6460 b83d
00000320: a0f3 d83b 9000 c63d a0f2 283d d839 fc3d
00000330: 749f 5c3d 0c5b a3bd 3c8c 7e3d 8856 f73d
00000340: a073 cbbd 6088 833b 76e9 993d 4011 02bd
00000350: 00f3 35ba 0c9e 21bd 3464 6cbd f258 d4bd
00000360: 505c e13d 7e4a 94bd b061 573c e061 a13b
00000370: c89a 6abd ec6d 6c3d 4016 98bb 4842 5e3d
00000380: 0c45 a6bd c84b 4e3d d46f 6fbd 801c afbb
00000390: a0ba 54bc c885 f0bc e895 24bd d0dd 65bd
000003a0: f8b2 b23d b04d 81bc 544c 2e3d 4836 a1bc
000003b0: 1820 973d 00e6 153d f426 5ebd 0030 cd3d
000003c0: c459 33bd e2b6 a5bd 64fb 1dbd 40ea 073c
000003d0: acdb 313d e416 1a3d 100c e4bd a8c6 ddbc
000003e0: 96b1 843d 048f 773d 1ac8 fc3d e037 ff3b
000003f0: da4a 903d ac25 0a3d 042f 8a3d a898 fb3c

transformer.layers.0.self_attn.out_proj.bias f4 [64]
0.0 0.0 0.0 0.0 0.0 0.0 0.0 0.0
0.0 0.0 0.0 0.0 0.0 0.0 0.0 0.0
0.0 0.0 0.0 0.0 0.0 0.0 0.0 0.0
0.0 0.0 0.0 0.0 0.0 0.0 0.0 0.0
0.0 0.0 0.0 0.0 0.0 0.0 0.0 0.0
0.0 0.0 0.0 0.0 0.0 0.0 0.0 0.0
0.0 0.0 0.0 0.0 0.0 0.0 0.0 0.0
0.0 0.0 0.0 0.0 0.0 0.0 0.0 0.0
00000000: 0000 0000 0000 0000 0000 0000 0000 0000
00000010: 0000 0000 0000 0000 0000 0000 0000 0000
00000020: 0000 0000 0000 0000 0000 0000 0000 0000
00000030: 0000 0000 0000 0000 0000 0000 0000 0000
00000040: 0000 0000 0000 0000 0000 0000 0000 0000
00000050: 0000 0000 0000 0000 0000 0000 0000 0000
00000060: 0000 0000 0000 0000 0000 0000 0000 0000
00000070: 0000 0000 0000 0000 0000 0000 0000 0000
00000080: 0000 0000 0000 0000 0000 0000 0000 0000
00000090: 0000 0000 0000 0000 0000 0000 0000 0000
000000a0: 0000 0000 0000 0000 0000 0000 0000 0000
000000b0: 0000 0000 0000 0000 0000 0000 0000 0000
000000c0: 0000 0000 0000 0000 0000 0000 0000 0000
000000d0: 0000 0000 0000 0000 0000 0000 0000 0000
000000e0: 0000 0000 0000 0000 0000 0000 0000 0000
000000f0: 0000 0000 0000 0000 0000 0000 0000 0000

transformer.layers.0.linear1.bias f4 [256]
0.09722911 0.024354547 -0.033782735 0.048624665 0.066159576 -0.041525975 0.10863201 -0.056130484
-0.08656752 0.017550811 0.046733156 0.060394004 -0.044333056 0.09663315 -0.08683133 -0.08485888
0.010078073 -0.09688173 -0.047271907 -0.105881155 0.04703158 0.10855441 0.06275588 0.06759468
0.027175844 0.10979387 0.110599905 0.11930509 -0.121414736 0.08413343 0.05317901 -0.0884978
0.11347611 0.072820485 0.08338098 -0.030745715 -0.08991152 0.020999834 0.029738232 -0.105562806
0.018468335 0.104577124 -0.07064223 0.041942 -0.08659853 -0.030295089 0.031231344 -0.04653856
-0.10166493 0.052444875 -0.048290297 0.077386215 0.060733348 0.052193552 -0.038871706 0.02380474
-0.006308958 -0.010657519 0.07694961 -0.073046505 0.08184184 -0.08202571 0.12489951 0.09287125
-0.0732778 -0.06851818 0.006326854 0.12308848 0.039666727 0.009183258 -0.016018584 -0.0987789
0.054068193 -0.072920725 -0.09543683 -0.12091611 -0.023026079 -0.08222094 0.07121861 0.08960359
0.0724269 0.025060818 -0.057266727 -0.022980273 -0.05072646 0.020426914 0.094733715 -0.0913344
-0.063694924 0.026191637 0.04463072 -0.0023636967 0.017826632 0.11783327 0.027851418 0.07255413
-0.049807474 0.043000802 -0.106963485 0.083406925 0.11501764 -0.051843464 -0.08324362 -0.09355076
-0.0804103 0.119587734 0.103687674 0.058293477 0.07112689 0.041227683 -0.03758061 0.03168416
-0.12211579 -0.00035104156 0.047816217 -0.052558452 0.07544954 0.11483368 -0.029957756 -0.06886166
0.10987654 -0.075114265 -0.033598185 -0.07872634 0.06417079 0.034905463 -0.04577604 -0.12412791
0.030844927 -0.092329875 -0.07094841 -0.10021612 -0.11600898 0.008807421 -0.025798187 0.1049847
0.12087335 -0.07373798 -0.11465019 -0.048011377 0.059540227 0.054364696 0.07555285 -0.0017665625
0.09302406 0.06518698 -0.109488174 -0.008477598 -0.019418076 -0.03370084 -0.07002415 -0.06714724
0.04381098 -0.11778022 0.0762662 0.10313393 0.10037252 0.09024829 -0.121602565 0.07068159
0.016502246 -0.039811537 -0.051234886 0.12233254 0.10161719 0.091174126 0.06768118 0.084065065
0.0667392 -0.049938753 -0.017413303 -0.10590765 0.0069778264 0.046311006 0.015287042 0.0188642
-0.057693645 0.02654238 -0.105384916 -0.12444885 0.09364924 -0.06984013 -0.12360324 0.067337796
0.0010633171 0.034366876 -0.05267051 -0.10726677 -0.048790857 -0.027642533 0.01257816 -0.041362032
-0.0005965382 0.06902468 0.10872376 0.060150698 -0.11163275 -0.10155122 0.027310908 0.12060739
-0.09202382 0.07271449 -0.076892525 -0.059442863 0.0039732605 -0.012708187 -0.028469801 -0.0028788596
0.034780815 0.082670435 -0.010660917 -0.02162151 -0.049931914 0.030221224 0.06120953 -0.0674061
0.04302585 -0.043232977 -0.06874226 0.0034032762 -0.016916364 0.10058661 0.12365976 -0.09829335
-0.033777684 -0.07239951 0.055196956 0.11838496 -0.055170357 -0.036984295 -0.026390284 0.09387712
0.09597261 -0.0038952231 0.0060290545 0.05404374 -0.043646008 -0.11468169 0.10730238 -0.0048849285
0.09514418 0.0026846826 -0.06741013 0.029995427 0.008685142 0.05683647 -0.098957375 -0.07661323
-0.08442126 0.037681654 -0.06297305 -0.021531865 0.015248224 0.02185376 0.013088062 -0.0768705
00000000: 0e20 c73d 3083 c73c c45f 0abd a82a 473d
00000010: ac7e 873d 2417 2abd 767a de3d 14e9 65bd
00000020: 504a b1bd b8c6 8f3c 446b 3f3d b45f 773d
00000030: 9496 35bd 9ae7 c53d a0d4 b1bd 7eca adbd
00000040: 801e 253c ee69 c6bd 30a0 41bd 38d8 d8bd
00000050: 30a4 403d c651 de3d 2886 803d 146f 8a3d
00000060: e09f de3c 9cdb e03d 3482 e23d 3a56 f43d
00000070: 4aa8 f8bd 264e ac3d 3cd2 593d 563e b5bd
00000080: 2a66 e83d e822 953d a6c3 aa3d 70de fbbc
00000090: 8823 b8bd d807 ac3c 989d f33c 5031 d8bd
000000a0: e84a 973c 882c d63d e0ac 90bd 60cb 2b3d
000000b0: 925a b1bd 682d f8bc e0d8 ff3c 389f 3ebd
000000c0: b435 d0bd 70d0 563d 0ccc 45bd aa7c 9e3d
000000d0: 88c3 783d e8c8 553d f037 1fbd 2802 c33c
000000e0: 60bb cebb e09c 2ebc c297 9d3d 6899 95bd
000000f0: b29c a73d 18fd a7bd 50cb ff3d 4833 be3d
00000100: ac12 96bd 4253 8cbd 8051 cf3b d015 fc3d
00000110: 9479 223d 6075 163c 6839 83bc 984c cabd
00000120: 9c76 5d3d 7657 95bd 6274 c3bd dea2 f7bd
00000130: 30a1 bcbc 7463 a8bd 10db 913d 1682 b73d
00000140: 8e54 943d 584c cd3c 8490 6abd 2041 bcbc
00000150: 8cc6 4fbd 5856 a73c c003 c23d 880d bbbd
00000160: 7c72 82bd d88f d63c b4ce 363d 40e8 1abb
00000170: 2809 923c 9252 f13d a828 e43c 4297 943d
00000180: ec02 4cbd 9c21 303d ac0f dbbd 40d1 aa3d
00000190: 5e8e eb3d d059 54bd a27b aabd 8a97 bfbd
000001a0: 28ae a4bd 6aea f43d 345a d43d 24c5 6e3d
000001b0: faaa 913d 5cde 283d 20ee 19bd 40c7 013d
000001c0: d817 fabd 000c b8b9 f0da 433d 8847 57bd
000001d0: 4a85 9a3d ec2d eb3d f869 f5bc 5807 8dbd
000001e0: f406 e13d 82d5 99bd 409e 09bd 463b a1bd
000001f0: fa6b 833d 08f9 0e3d a87f 3bbd c636 febd
00000200: 80ae fc3c 7217 bdbd 664d 91bd 1c3e cdbd
00000210: 1e96 edbd 004d 103c b856 d3bc 3802 d73d
00000220: 728c f73d f003 97bd b8cd eabd 94a7 44bd
00000230: 74e0 733d 84ad 5e3d 74bb 9a3d 008c e7ba
00000240: 6683 be3d c080 853d 563b e0bd a0e5 0abc
00000250: a812 9fbc e409 0abd d268 8fbd 7e84 89bd
00000260: 2473 333d c236 f1bd 7431 9c3d e237 d33d
00000270: 1c90 cd3d 18d4 b83d c40a f9bd 82c1 903d
00000280: b82f 873c 6c11 23bd acdb 51bd 7c89 fa3d
00000290: ac1c d03d 80b9 ba3d 6e9c 8a3d 4e2a ac3d
000002a0: 90ae 883d 948c 4cbd 58a6 8ebc 1ce6 d8bd
000002b0: 40a6 e43b 9cb0 3d3d 8076 7a3c 1889 9a3c
000002c0: 2c50 6cbd 686f d93c 0cd4 d7bd 0adf febd
000002d0: 2ccb bf3d 5808 8fbd b223 fdbd 66e8 893d
000002e0: 005f 8b3a 48c4 0c3d 08bd 57bd aeae dbbd
000002f0: ecd8 47bd 9872 e2bc a014 4e3c 3c6b 29bd
00000300: 0061 1cba d05c 8d3d 90aa de3d 9460 763d
00000310: b69f e4bd 16fa cfbd 20bb df3c 0201 f73d
00000320: fc76 bcbd 56eb 943d d479 9dbd 5c7a 73bd
00000330: 2032 823b 0036 50bc 8039 e9bc 40ab 3cbb
00000340: 5476 0e3d 1e4f a93d 20ab 2ebc 981f b1bc
00000350: 6885 4cbd 8092 f73c d8b6 7a3d 360c 8abd
00000360: e03b 303d 1015 31bd bec8 8cbd 8009 5f3b
00000370: 3094 8abc 5a00 ce3d 5441 fd3d 064e c9bd
00000380: 785a 0abd 3246 94bd 3416 623d d073 f23d
00000390: 50fa 61bd d87c 17bd 7030 d8bc a642 c03d
000003a0: 4a8d c43d 0047 7fbb 608f c53b f85c 5d3d
000003b0: 28c6 32bd 3cde eabd 5ac1 db3d c011 a0bb
000003c0: f4da c23d 80f1 2f3b 520e 8abd f8b8 f53c
000003d0: 204c 0e3c 5ccd 683d 2aaa cabd 66e7 9cbd
000003e0: 0ee5 acbd 1458 1a3d 04f8 80bd 9863 b0bc
000003f0: b0d3 793c a806 b33c 506f 563c 486e 9dbd

transformer.layers.0.linear2.bias f4 [64]
-0.0509741 -0.0326757 -0.04315661 -0.015890934 0.062442966 0.009437963 -0.05431199 -0.0346288
0.06026099 -0.049442425 -0.05969158 0.0488204 0.0056063235 -0.010208599 0.008073628 -0.03617792
-0.021320611 0.02000238 -0.027737662 -0.044544823 -0.031144425 0.020203426 -0.038286068 -0.020641886
-0.009399004 -0.048119806 0.039250888 -0.025716268 -0.025944911 -0.042301916 0.033741795 -0.04879968
0.0310006 0.060700335 0.043335073 -0.0069967136 0.00977388 0.052911185 0.04273574 0.023482278
-0.03722909 -0.031241074 0.03448812 0.044522807 -0.009495527 0.034192435 -0.025764242 0.018675528
0.053400345 -0.056071423 -0.030867271 -0.011449277 0.04583925 -0.0027832836 -0.046873532 -0.023020044
0.020106249 -0.03337822 -0.0018186718 -0.031398334 -0.058723643 -0.03436864 0.055123396 -0.03819868
00000000: 38ca 50bd f4d6 05bd fcc4 30bd b42d 82bc
00000010: 32c4 7f3d b0a1 1a3c 4076 5ebd eed6 0dbd
00000020: 3ad4 763d 2484 4abd 287f 74bd e6f7 473d
00000030: 40b5 b73b f841 27bc 4047 043c 4c2f 14bd
00000040: 90a8 aebc 08dc a33c 183a e3bc a274 36bd
00000050: 9822 ffbc a881 a53c dad1 1cbd 2c19 a9bc
00000060: 48fe 19bc 4619 45bd 8ac5 203d ecaa d2bc
00000070: 6c8a d4bc c644 2dbd d634 0a3d 2ce2 47bd
00000080: f8f4 fd3c eaa0 783d 1e80 313d b044 e5bb
00000090: a022 203c 66b9 583d ac0b 2f3d e85d c03c
000000a0: 887d 18bd 48ed ffbc 6a43 0d3d 8c5d 363d
000000b0: 2093 1bbc 5e0d 0c3d 880f d3bc 6cfd 983c
000000c0: 52ba 5a3d 26ab 65bd 5cdd fcbc c095 3bbc
000000d0: f0c1 3b3d c067 36bb 76fe 3fbd 8894 bcbc
000000e0: dcb5 a43c 9ab7 08bd 8060 eeba 8a9b 00bd
000000f0: 3488 70bd 22c6 0cbd 12c9 613d 3876 1cbd

transformer.layers.0.norm1.weight f4 [64]
1.0 1.0 1.0 1.0 1.0 1.0 1.0 1.0
1.0 1.0 1.0 1.0 1.0 1.0 1.0 1.0
1.0 1.0 1.0 1.0 1.0 1.0 1.0 1.0
1.0 1.0 1.0 1.0 1.0 1.0 1.0 1.0
1.0 1.0 1.0 1.0 1.0 1.0 1.0 1.0
1.0 1.0 1.0 1.0 1.0 1.0 1.0 1.0
1.0 1.0 1.0 1.0 1.0 1.0 1.0 1.0
1.0 1.0 1.0 1.0 1.0 1.0 1.0 1.0
00000000: 0000 803f 0000 803f 0000 803f 0000 803f
00000010: 0000 803f 0000 803f 0000 803f 0000 803f
00000020: 0000 803f 0000 803f 0000 803f 0000 803f
00000030: 0000 803f 0000 803f 0000 803f 0000 803f
00000040: 0000 803f 0000 803f 0000 803f 0000 803f
00000050: 0000 803f 0000 803f 0000 803f 0000 803f
00000060: 0000 803f 0000 803f 0000 803f 0000 803f
00000070: 0000 803f 0000 803f 0000 803f 0000 803f
00000080: 0000 803f 0000 803f 0000 803f 0000 803f
00000090: 0000 803f 0000 803f 0000 803f 0000 803f
000000a0: 0000 803f 0000 803f 0000 803f 0000 803f
000000b0: 0000 803f 0000 803f 0000 803f 0000 803f
000000c0: 0000 803f 0000 803f 0000 803f 0000 803f
000000d0: 0000 803f 0000 803f 0000 803f 0000 803f
000000e0: 0000 803f 0000 803f 0000 803f 0000 803f
000000f0: 0000 803f 0000 803f 0000 803f 0000 803f

fc.weight f4 [10, 64]
0.10500528 -0.03349337 -0.09894627 0.0048261434 0.008862093 0.08342621 -0.10515827 0.024519444
0.061128914 -0.0125234425 -0.087226555 -0.053409517 0.006645605 0.11158916 -0.03930512 -0.122091174
-0.012104824 0.059091777 -0.08501227 0.01739186 0.06480321 0.062677145 -0.05849415 0.11973454
-0.02693151 -0.105611295 0.028700814 -0.0102925 0.018872857 -0.05285889 -0.1038544 0.09205076
-0.052522957 -0.10437004 0.10954729 -0.033615306 -0.015401617 0.07088736 -0.08727266 -0.05786802
-0.072782665 -0.050124317 -0.032794893 0.10208775 0.11786997 -0.013869122 0.11451323 0.1057138
0.05254303 0.04797104 0.072828606 0.042262435 -0.08607581 0.04515475 0.006595552 -0.09062742
0.014964387 0.124994814 0.032907233 -0.010060653 -0.011453718 0.04233004 -0.026245192 0.09429748
-0.022151247 -0.11322248 -0.078241825 -0.099161 0.067005485 -0.09574433 -0.050769985 -0.040402845
0.07515003 -0.053750634 0.07077113 0.08488269 -0.05087571 -0.0075990707 -0.042720824 0.08464812
-0.023600653 -0.06380166 -0.0701689 0.11438762 -0.08196734 0.06921695 0.026492745 -0.028755203
0.014426887 -0.109617576 -0.027070954 0.03555177 -0.11338964 0.11279631 -0.107230246 0.011739358
-0.06600301 -0.075771555 0.0009520948 -0.07934299 -0.044176668 -0.042773098 -0.007923663 -0.07937816
-0.0051717013 0.016394556 -0.12495646 -0.0013361424 -0.09985274 -0.06651534 0.0012141615 -0.115982816
-0.062195808 -0.07287152 0.0031556785 0.03197038 0.03326267 -0.042563632 0.022714868 0.062339276
-0.0044837147 0.11129247 0.095865786 0.09217614 -0.019809589 -0.10436937 -0.04601668 -0.069572136
0.064459145 0.09509124 0.029955119 -0.023157805 -0.058579102 -0.090666085 0.09661463 -0.029626995
0.11818731 -0.10219316 -0.11237453 -0.018857494 0.04283932 -0.08667053 -0.12263757 -0.015952721
0.024324536 -0.083402485 0.07554874 0.1117114 -0.093438014 -0.022101507 0.045483157 -0.06590286
0.040035456 0.11819787 0.013368785 -0.053567857 -0.019010544 -0.05815786 -0.042330116 -0.0051368177
0.12280749 -0.008839846 -0.11671977 0.115789026 0.11994195 -0.011577681 0.11377536 0.045461446
-0.060492948 -0.12146078 -0.0024945587 0.048128426 -0.024677813 -0.118101925 0.02040103 0.031018034
-0.073628455 -0.07653549 -0.09054704 0.09949671 -0.016921207 -0.013306469 0.033245713 0.044482812
-0.03277436 0.042934373 -0.12335564 -0.091464296 0.08063586 0.019193098 -0.04036267 -0.058513045
-0.067696825 0.062567815 -0.04187414 -0.051316187 -0.11548714 -0.022982493 -0.12302326 -0.006785333
-0.0027217865 -0.04279335 -0.025664419 0.028127953 -0.1150125 0.016778976 0.10869312 0.04043825
0.10936713 -0.012315005 -0.0006893724 0.012099564 -0.03410019 -0.10698438 -0.040310174 -0.042535126
0.033362582 -0.026670069 0.05571556 0.09028372 -0.03393823 -0.027327403 0.10052648 0.0921531
0.01673302 0.097385496 0.1054374 0.073093176 -0.06604703 0.105706364 0.117243156 -0.09096295
0.040374145 0.018324226 -0.12294939 0.05810201 -0.03313203 0.120820865 0.005437419 0.007484138
0.06647158 -0.052111715 -0.019937366 0.061818182 0.00030699372 0.049560204 0.079396635 0.057995632
0.055655494 -0.04342723 -0.09966296 -0.02108112 0.079478666 0.10693592 0.04720919 -0.041291967
00000000: 020d d73d 5830 09bd 58a4 cabd a024 9e3b
00000010: 5032 113c 5cdb aa3d 385d d7bd 00dd c83c
00000020: 5062 7a3d 202f 4dbc d6a3 b2bd f0c3 5abd
00000030: 60c3 d93b dc88 e43d 68fe 20bd f00a fabd
00000040: 5053 46bc 380a 723d ea1a aebd 6079 8e3c
00000050: 8cb7 843d e05c 803d 9097 6fbd 6237 f53d
00000060: 789f dcbc bc4a d8bd f81d eb3c e0a1 28bc
00000070: 409b 9a3c 9082 58bd 9eb1 d4bd 1c85 bc3d
00000080: 5022 57bd f6bf d5bd 545a e03d 34b0 09bd
00000090: 1057 7cbc 642d 913d 02bc b2bd 0407 6dbd
000000a0: 140f 95bd 284f 4dbd f053 06bd 6213 d13d
000000b0: d065 f13d 503b 63bc ea85 ea3d 7a80 d83d
000000c0: 5c37 573d 487d 443d 2a27 953d 601b 2d3d
000000d0: 8448 b0bd 30f4 383d 801f d83b de9a b9bd
000000e0: 302d 753c 48fd ff3d bcc9 063d 70d5 24bc
000000f0: 60a8 3bbc 4462 2d3d 2800 d7bc 0a1f c13d
00000100: 8876 b5bc 30e1 e7bd 403d a0bd ec14 cbbd
00000110: 2c3a 893d 9a15 c4bd 30f4 4fbd 747d 25bd
00000120: 42e8 993d a029 5cbd 74f0 903d fad6 ad3d
00000130: 0c63 50bd a001 f9bb 08fc 2ebd fe5b ad3d
00000140: 2856 c1bc 72aa 82bd b6b4 8fbd 0e44 ea3d
00000150: 7ede a7bd 9ec1 8d3d 5007 d93c 0890 ebbc
00000160: c05e 6c3c 2e7f e0bd e8c3 ddbc bc9e 113d
00000170: d438 e8bd c001 e73d 889b dbbd 7056 403c
00000180: 962c 87bd 1e2e 9bbd 0096 793a 947e a2bd
00000190: 98f2 34bd d832 2fbd 40d2 01bc 0491 a2bd
000001a0: 6077 a9bb e04d 863c 2ce9 ffbd 8021 afba
000001b0: 987f ccbd 3239 88bd 8024 9f3a 6688 edbd
000001c0: 08c1 7ebd aa3d 95bd 80cf 4e3b 60f3 023d
000001d0: 703e 083d 3457 2ebd 8814 ba3c 7857 7f3d
000001e0: 20ec 92bb 4eed e33d 4855 c43d d8c6 bc3d
000001f0: b847 a2bc 9cbf d5bd fc7b 3cbd d67b 8ebd
00000200: 2803 843d 32bf c23d 7064 f53c 70b5 bdbc
00000210: a4f0 6fbd 24af b9bd e4dd c53d 50b4 f2bc
00000220: 300c f23d a64a d1bd 9e24 e6bd 087b 9abc
00000230: 4878 2f3d 5280 b1bd 6829 fbbd 48af 82bc
00000240: 4044 c73c ecce aabd 4cb9 9a3d f2c8 e43d
00000250: 6e5c bfbd 380e b5bc 8c4c 3a3d 14f8 86bd
00000260: 38fc 233d ba11 f23d c008 5b3c f869 5bbd
00000270: 00bc 9bbc f036 6ebd 5862 2dbd c052 a8bb
00000280: 7e82 fb3d 00d5 10bc c60a efbd cc22 ed3d
00000290: 20a4 f53d 50b0 3dbc 0e03 e93d c835 3a3d
000002a0: 74c7 77bd 6ec0 f8bd c07b 23bb 5022 453d
000002b0: 2029 cabc 6cdf f1bd 1020 a73c 8819 fe3c
000002c0: 84ca 96bd a4be 9cbd ba70 b9bd eec4 cb3d
000002d0: 589e 8abc 6003 5abc a82c 083d 9c33 363d
000002e0: 683e 06bd f4db 2f3d e2a1 fcbd a251 bbbd
000002f0: 6a24 a53d d83a 9d3c 5453 25bd 60ab 6fbd
00000300: a2a4 8abd 8e23 803d 3884 2bbd ec30 52bd
00000310: 8684 ecbd c845 bcbc 9ef3 fbbd 8057 debb
00000320: 0060 32bb 1448 2fbd 303e d2bc 986c e63c
00000330: ac8b ebbd 1074 893c 809a de3d 94a2 253d
00000340: e0fb df3d e0c4 49bc 00b7 34ba 403d 463c
00000350: a4ac 0bbd a01a dbbd 481c 25bd 5039 2ebd
00000360: 34a7 083d 307b dabc 0036 643d ace6 b83d
00000370: d002 0bbd b8dd dfbc d4e0 cd3d c4ba bc3d
00000380: b013 893c 0c72 c73d 90ef d73d e0b1 953d
00000390: aa43 87bd 947c d83d 2e1d f03d c84a babd
000003a0: 5c5f 253d b01c 963c e4cc fbbd 60fc 6d3d
000003b0: 74b5 07bd ee70 f73d 602c b23b 803d f53b
000003c0: 4022 883d 1873 55bd b053 a3bc 1035 7d3d
000003d0: 00f4 a039 a4ff 4a3d b49a a23d d48c 6d3d
000003e0: 04f7 633d c0e0 31bd 181c ccbd 50b2 acbc
000003f0: b6c5 a23d 3801 db3d 6c5e 413d c421 29bd

fc.bias f4 [10]
-0.0382649 0.023768812 0.10849799 -0.065551996 0.09930472 0.10145444 -0.024106994 0.054666594
-0.100182965 0.06046754
00000000: a8bb 1cbd d0b6 c23c 3234 de3d 2040 86bd
00000010: 4660 cb3d 58c7 cf3d 087c c5bc 14ea 5f3d
00000020: ba2c cdbd d0ac 773d

onnx::MatMul_219 f4 [64, 192]
0.06384571 -0.002171874 0.08488384 -0.14696616 0.14896242 0.11148019 -0.043090522 -0.016329065
0.02390699 0.06965101 -0.059932724 0.12575345 0.102364615 0.0653926 -0.0924696 -0.02980575
-0.0782582 0.1287135 0.10272582 0.06823145 0.09009561 0.14455776 0.14517452 -0.09651135
-0.056577563 -0.0677655 -0.14314532 0.03332904 -0.061428264 -0.06494112 0.08831321 -0.15308116
0.08965042 -0.12099458 0.032893285 -0.06765019 -0.06106799 -0.01353161 -0.0040906966 0.057070613
0.0071121156 0.06373778 0.039998323 0.003912151 0.038127467 0.101408616 0.08108221 -0.046738394
-0.1396875 0.028737187 -0.061534844 -0.013078108 0.079962894 -0.05427663 0.049786896 -0.09500586
0.123769686 0.0054540187 -0.10349921 -0.08986969 0.045104697 0.05404684 0.107528254 -0.11545494
-0.073731914 -0.0036977232 -0.14573126 -0.082828745 0.02040656 0.083283916 -0.036789358 -0.054940313
-0.14503103 -0.10138946 0.13236569 -0.1431881 0.14291592 0.14231013 0.094513506 -0.117908634
0.12262677 -0.05668574 0.0006286651 -0.050717436 0.016932517 -0.08308988 -0.09259566 0.1399674
0.038285673 -0.12321644 -0.0227077 -0.0789853 0.053254396 0.10250513 0.056219578 0.036652237
0.120228216 0.08358589 0.15137608 0.0020342022 0.09700562 -0.10345808 0.046284348 0.027384058
0.01279743 0.070580825 -0.11787622 -0.036619946 -0.047486454 0.07230154 -0.057262674 -0.020188391
0.15189944 -0.029205084 -0.06862099 -0.018857881 -0.08661829 -0.13087577 0.062519714 -0.06640894
0.075046286 0.08936435 0.1290672 0.094044715 0.08927292 0.10902004 0.11321892 0.05067478
0.06508878 -0.06582551 -0.040011533 -0.03900312 0.06277689 0.08193976 0.052630424 0.09656967
0.1362731 -0.08910414 0.011624292 0.10356288 0.09299411 0.048472524 0.057332844 -0.007645324
-0.14973266 -0.044112876 -0.14867336 -0.08878852 0.019278929 0.026945308 0.11602236 0.077213496
0.07735893 0.098967955 0.034663454 -0.06532242 0.09502223 0.03797181 0.013255432 0.026184514
0.017355248 -0.092680976 0.014563948 0.038352758 0.029774323 -0.076707065 -0.15195604 0.113885835
-0.15060738 -0.036916256 -0.10154041 0.07726234 0.051876128 -0.02091217 0.07274483 0.05046448
0.04380195 -0.07055422 0.14372365 -0.10332089 -0.14422818 -0.13942915 0.13145487 0.088560045
-0.15265997 -0.005606368 -0.05487647 0.020254448 0.056978285 -0.13288242 0.06643529 -0.043554083
-0.12073529 -0.03343942 -0.0078826845 -0.08524064 -0.047344394 -0.13537389 0.06654523 0.14114304
-0.14377816 0.014048353 -0.02340296 0.1282319 0.06839861 0.10157053 0.027392924 0.03479004
0.047643676 -0.048258267 0.12692676 0.07316664 0.13761498 0.0022115707 0.11086799 0.014582336
-0.05622521 -0.024950147 0.07426228 0.001597777 0.014934912 -0.049065962 0.10185011 0.019863635
-0.12078656 -0.09164742 -0.13175055 0.14989145 -0.12826468 0.050130054 0.106845185 0.020800382
0.14313255 0.15208133 0.14767303 0.07962704 0.016008765 0.022943467 0.041259453 0.048727974
-0.10188265 -0.062885664 0.04986143 -0.02639784 -0.008358896 0.040649787 -0.0500257 0.09134953
-0.1305565 -0.0741997 0.03269455 0.0069800466 -0.12920108 0.1509176 -0.10667428 -0.017820328
00000000: 8ac1 823d 0056 0ebb 94d7 ad3d 4c7e 16be
00000010: 9b89 183e ba4f e43d b07f 30bd 88c4 85bc
00000020: 98d8 c33c 30a5 8e3d 047c 75bd 83c5 003e
00000030: 8aa4 d13d 8eec 853d b460 bdbd 302b f4bc
00000040: d645 a0bd 79cd 033e ea61 d23d eebc 8b3d
00000050: 0c84 b83d f306 143e a1a8 143e bea7 c5bd
00000060: e0bd 67bd a3c8 8abd b094 12be 0884 083d
00000070: 349c 7bbd daff 84bd 8edd b43d 4fc1 1cbe
00000080: a49a b73d 02cc f7bd 1cbb 063d 2f8c 8abd
00000090: 6e22 7abd b0b3 5dbc 400b 86bb e0c2 693d
000000a0: c00c e93b f488 823d 48d5 233d 8031 803b
000000b0: 8c2b 1c3d 52af cf3d 6e0e a63d c270 3fbd
000000c0: 3d0a 0fbe 406a eb3c f60b 7cbd 9045 56bc
000000d0: 96c3 a33d 2c51 5ebd 58ed 4b3d 6f92 c2bd
000000e0: f67a fd3d a0b7 b23b 65f7 d3bd 9a0d b8bd
000000f0: b4bf 383d 3860 5d3d c637 dc3d a473 ecbd
00000100: c200 97bd 8055 72bb 933a 15be 1ea2 a9bd
00000110: a82b a73c c290 aa3d 70b0 16bd 1809 61bd
00000120: 0483 14be 47a5 cfbd df8a 073e e79f 12be
00000130: 8d58 123e bfb9 113e 4c90 c13d 157a f1bd
00000140: be23 fb3d 4e2f 68bd 00cd 243a 16bd 4fbd
00000150: 10b6 8a3c 072b aabd cba2 bdbd 9d53 0f3e
00000160: 70d1 1c3d e758 fcbd 8005 babc 0cc3 a1bd
00000170: 4821 5a3d 36ee d13d 8046 663d a820 163d
00000180: 363a f63d 142f ab3d 5502 1b3e 4050 053b
00000190: e2aa c63d d4e1 d3bd a894 3d3d 8854 e03c
000001a0: 50ac 513c ae8c 903d 1669 f1bd ccfe 15bd
000001b0: 2881 42bd d412 943d 448c 6abd 2062 a5bc
000001c0: 878b 1b3e 803f efbc 2989 8cbd d87b 9abc
000001d0: ee64 b1bd 4c04 06be 560a 803d 6901 88bd
000001e0: deb1 993d a804 b73d 312a 043e 849a c03d
000001f0: b8d4 b63d e645 df3d 52df e73d 5c90 4f3d
00000200: 444d 853d 86cf 86bd 22e3 23bd bcc1 1fbd
00000210: 2c91 803d 08d0 a73d 0093 573d 52c6 c53d
00000220: 2d8b 0b3e 3b7c b6bd d073 3e3c c618 d43d
00000230: b273 be3d 208b 463d d8d5 6a3d a085 fabb
00000240: 8553 19be b4af 34bd d43d 18be c1d6 b5bd
00000250: d8ee 9d3c 68bc dc3c 229d ed3d 1c22 9e3d
00000260: 5c6e 9e3d b6af ca3d 44fb 0d3d c3c7 85bd
00000270: 049b c23d 5488 1b3d 502d 593c e880 d63c
00000280: 982c 8e3c 86cf bdbd a09d 6e3c c817 1d3d
00000290: 48e9 f33c 9818 9dbd 5d9a 1bbe fa3c e93d
000002a0: d238 1abe 8035 17bd 6bf4 cfbd b83b 9e3d
000002b0: 107c 543d 0050 abbc 3efb 943d d8b3 4e3d
000002c0: ac69 333d bb7e 90bd 4b2c 133e e799 d3bd
000002d0: 8db0 13be 84c6 0ebe 1b9c 063e f85e b53d
000002e0: e552 1cbe a0b5 b7bb 26c6 60bd a8ec a53c
000002f0: 1062 693d 5412 08be 3a0f 883d c465 32bd
00000300: 1044 f7bd c6f7 08bd 6026 01bc a592 aebd
00000310: 32ec 41bd 749f 0abe de48 883d cd87 103e
00000320: 953a 13be 102b 663c 90b7 bfbc 394f 033e
00000330: 9214 8c3d 3604 d03d 2067 e03c 0080 0e3d
00000340: 0426 433d 76aa 45bd 17f9 013e 64d8 953d
00000350: f1ea 0c3e 00f0 103b c20e e33d c0ea 6e3c
00000360: 684c 66bd 4064 ccbc d216 983d 806c d13a
00000370: 90b1 743c 64f9 48bd ca96 d03d 10b9 a23c
00000380: f25e f7bd a4b1 bbbd 9ee9 06be 257d 193e
00000390: d157 03be 2c55 4d3d a6d1 da3d 9065 aa3c
000003a0: 5791 123e 35bb 1b3e 9937 173e 8013 a33d
000003b0: d024 833c f0f3 bb3c acff 283d fc96 473d
000003c0: daa7 d0bd 33ca 80bd 803b 4c3d 4840 d8bc
000003d0: c0f3 08bc 6480 263d c0e7 4cbd 7615 bb3d
000003e0: 9ab0 05be 03f6 97bd b8ea 053d e0b8 e43b
000003f0: 4a4d 04be 258a 1a3e 0b78 dabd f0fb 91bc

onnx::MatMul_239 f4 [64, 256]
0.09959413 0.12013544 0.09154664 0.030698717 0.095304504 -0.08500983 0.0066750795 -0.07276571
-0.029372126 0.0053064823 -0.012297496 0.00578101 0.05259782 -0.08443129 -0.084020495 -0.06258094
-0.062691554 0.10443948 -0.051397264 -0.12455219 0.00821346 0.057307437 0.08664079 0.0889308
0.110121295 -0.04771985 -0.100237966 0.06768267 -0.04678668 -0.030920684 0.059040546 0.10763846
0.07601319 -0.01970689 -0.012523815 -0.117258236 -0.05269356 -0.11932336 0.06736094 0.09778386
0.09677462 -0.031042337 0.12398273 0.025373504 -0.11830576 -0.027382806 -0.050161198 0.08993225
-0.099791005 0.10947931 0.09730449 -0.021641895 0.05741328 -0.057469994 -0.0485864 -0.10762499
0.02425924 -0.07171017 -0.023533508 -0.07343212 0.106916964 0.022783294 -0.05136302 0.05185263
0.11825593 -0.098256335 -0.11308071 -0.120474786 -0.09006472 0.07639626 0.07322778 -0.025593564
-0.09521687 -0.11245625 -0.12267664 0.08029856 -0.08295205 0.095016465 0.10498223 -0.08454828
0.04651822 -0.07405323 0.10240583 -0.043416172 -0.047565192 0.12043822 -0.08815965 0.055916652
0.09177795 0.087399736 0.040242642 0.07681143 -0.027689353 0.0067099184 -0.013570175 -0.055261686
0.022522077 -0.118272886 -0.028423712 -0.07673903 0.11832404 -0.036161736 0.0138537735 0.057247907
0.06266728 -0.027795076 0.053869903 -0.031536028 0.037368536 0.059346795 -0.03268075 0.034523964
-0.089854226 -0.06969045 0.028430402 -0.080383465 0.060672656 0.05205804 0.025981963 0.110252514
-0.11162767 -0.07779169 -0.12126899 0.03826621 -0.0978584 0.031483755 0.10526441 0.054229677
0.060917675 -0.07967317 -0.110340804 -0.09829065 0.1074799 -0.062111184 0.11100282 -0.04038301
0.02512689 -0.022527695 0.026361674 0.023561388 0.01663202 0.027586251 -0.07738119 0.07910597
-0.020974219 -0.093309015 0.034330353 0.10581836 -0.017389506 -0.037947416 0.09309797 0.098598376
0.1075791 0.033778995 0.07178618 -0.03671892 -0.06319384 -0.032022983 0.03821002 -0.019356936
-0.07363653 -0.063987836 -0.08546054 -0.04225053 0.026484981 -0.05310589 0.09497054 0.07518929
0.015610352 -0.095060766 -0.0011612922 -0.042366385 -0.059403256 -0.049468935 0.10547194 -0.09157579
0.080137745 -0.08720891 0.11908057 -0.054120347 -0.026150197 0.075581536 -0.115741044 -0.043711126
0.078815 -0.09407826 0.12299015 -0.006700456 0.010617897 -0.11244699 -0.10032061 -0.045026496
-0.09857313 0.044368386 0.031877607 0.111257076 -0.08437985 0.08196816 0.112331346 -0.012656063
-0.12277627 -7.870793e-05 -0.08157349 -0.10462044 0.092592895 0.105056524 -0.088045746 0.009647265
0.060799137 0.00061254203 0.05682811 0.040129155 0.042508036 0.0034947991 0.006592393 0.03489633
-0.032135487 -0.07990681 0.018981695 -0.09581524 0.07256693 0.11197333 -0.10022853 0.104551226
0.08169916 0.03733979 -0.10293746 -0.011661246 -0.025551304 -0.013555929 0.08798787 -0.017137542
0.09015368 -0.056614608 0.050716057 -0.10538252 -0.05489482 -0.028944656 0.08639836 -0.040996104
-0.045418993 -0.012828037 -0.05689162 0.099993885 -0.058061153 -0.040333286 0.059696466 0.0052722543
-0.042803377 -0.0018586069 0.069002956 0.028106138 0.1083827 0.019723535 0.07911381 0.09076396
00000000: 02f8 cb3d 9209 f63d ce7c bb3d e07b fb3c
00000010: 022f c33d a219 aebd a0ba da3b 3006 95bd
00000020: d09d f0bc 00e2 ad3b 707b 49bc a06e bd3b
00000030: d070 573d 50ea acbd f012 acbd 702a 80bd
00000040: 6e64 80bd 5ee4 d53d f085 52bd 3815 ffbd
00000050: c091 063c 34bb 6a3d ba70 b13d 5a21 b63d
00000060: 4687 e13d e475 43bd 9049 cdbd 369d 8a3d
00000070: 64a3 3fbd 604d fdbc 80d4 713d 8e71 dc3d
00000080: ceac 9b3d 5870 a1bc b030 4dbc 1625 f0bd
00000090: 34d5 57bd ce5f f4bd 88f4 893d e842 c83d
000000a0: c631 c63d 804c febc a8ea fd3d 18dc cf3c
000000b0: 4a4a f2bd e851 e0bc d475 4dbd 662e b83d
000000c0: 3a5f ccbd b036 e03d 9447 c73d 584a b1bc
000000d0: 302a 6b3d a865 6bbd 8802 47bd 7e6a dcbd
000000e0: 50bb c63c c8dc 92bd 58c9 c0bc 9463 96bd
000000f0: 48f7 da3d 08a4 ba3c 0862 52bd 6c63 543d
00000100: 2a30 f23d 9e3a c9bd dc96 e7bd 7cbb f6bd
00000110: da73 b8bd a475 9c3d 72f8 953d 98a9 d1bc
00000120: 1001 c3bd 764f e6bd e43d fbbd 9273 a43d
00000130: c4e2 a9bd fe97 c23d ec00 d73d a627 adbd
00000140: e489 3e3d 38a9 97bd 26ba d13d 28d5 31bd
00000150: b8d3 42bd 50a8 f63d 0c8d b4bd dc08 653d
00000160: 14f6 bb3d a2fe b23d 78d5 243d 504f 9d3d
00000170: c8d4 e2bc e0de db3b 7055 5ebc 145a 62bd
00000180: 3880 b83c 0e39 f2bd d8d8 e8bc 5a29 9dbd
00000190: e053 f23d 541e 14bd f0fa 623c c87c 6a3d
000001a0: b457 803d 80b2 e3bc b0a6 5c3d ec2b 01bd
000001b0: c00f 193d a015 733d 40dc 05bd 0069 0d3d
000001c0: 7e05 b8bd deb9 8ebd e0e6 e83c 16a0 a4bd
000001d0: e483 783d d03a 553d 20d8 d43c 12cc e13d
000001e0: 0c9d e4bd 4051 9fbd e05b f8bd 08bd 1c3d
000001f0: fc69 c8bd 1cf5 003d de94 d73d f01f 5e3d
00000200: d084 793d b02b a3bd 5cfa e1bd 9c4c c9bd
00000210: 6c1e dc3d 4c68 7ebd 7255 e33d a868 25bd
00000220: e8d6 cd3c 008c b8bc 70f4 d73c d003 c13c
00000230: e03f 883c 90fc e13c 087a 9ebd 5002 a23d
00000240: 20d2 abbc cc18 bfbd fc9d 0c3d 4cb7 d83d
00000250: 7074 8ebc c06e 1bbd 26aa be3d f2ed c93d
00000260: 6e52 dc3d d85b 0a3d a204 933d 9466 16bd
00000270: c66b 81bd 882a 03bd 1c82 1c3d 7092 9ebc
00000280: c0ce 96bd 0e0c 83bd f005 afbd e40e 2dbd
00000290: 08f7 d83c 9085 59bd ea7f c23d d8fc 993d
000002a0: 90c2 7f3c 38af c2bd 8036 98ba 6088 2dbd
000002b0: d450 73bd f09f 4abd ac01 d83d 168c bbbd
000002c0: 421f a43d 969a b2bd 84e0 f33d 4cad 5dbd
000002d0: f038 d6bc 7eca 9a3d a409 edbd 700a 33bd
000002e0: c269 a13d 1aac c0bd 42e2 fb3d 808f dbbb
000002f0: b0f6 2d3c 9c4a e6bd e474 cdbd b46d 38bd
00000300: b6e0 c9bd a0bb 353d 1892 023d c0da e33d
00000310: 58cf acbd ecde a73d fa0d e63d 605b 4fbc
00000320: 2072 fbbd 0010 a5b8 0010 a7bd 3e43 d6bd
00000330: 58a1 bd3d e027 d73d 5451 b4bd 900f 1e3c
00000340: 8408 793d 0093 203a 98c4 683d 785e 243d
00000350: e81c 2e3d 0009 653b 0005 d83b 74ef 0e3d
00000360: 80a0 03bd 2ea6 a3bd 807f 9b3c c83a c4bd
00000370: f89d 943d 4652 e53d 9e44 cdbd f41e d63d
00000380: e451 a73d 9cf1 183d e0d0 d2bd d00e 3fbc
00000390: f850 d1bc b019 5ebc fc32 b43d 0864 8cbc
000003a0: 7ea2 b83d b8e4 67bd a4bb 4f3d cad2 d7bd
000003b0: 64d9 60bd 581d edbc a0f1 b03d 88eb 27bd
000003c0: 4409 3abd b02c 52bc 3007 69bd 98c9 cc3d
000003d0: 88d1 6dbd 8434 25bd 4884 743d e0c2 ac3b
000003e0: 9852 2fbd 809c f3ba 6c51 8d3d d83e e63c
000003f0: c0f7 dd3d 4093 a13c 6c06 a23d 74e2 b93d
