test_cnn.onnx (onnx, 67789 bytes, 6 tensors)

conv1.weight f4 [16, 3, 3, 3]
000000 f2 c2 ae bd 6d 16 27 be 58 bb c2 3c dc ab 59 3d
       -0.085332766 -0.16317149 0.023770973 0.053142413
000010 42 75 a7 bd ca 6d a2 3d 78 db 9c 3c 5c 74 1d be
       -0.08176662 0.07931097 0.01914762 -0.15376419
000020 60 e1 43 be a1 ec bd bd 5e 38 aa 3d f0 e7 a8 bd
       -0.19128942 -0.09273649 0.083115324 -0.082473636
000030 33 89 36 3e bb 28 2f 3e e8 26 53 bd b3 b8 15 3e
       0.17825775 0.17105381 -0.051550776 0.14621238
000040 4a 98 f6 3d 68 53 a8 bc 46 13 83 3d 16 cb 8f 3d
       0.120407656 -0.020547584 0.064001605 0.070211574
000050 aa b3 0f be ce 4f e3 3d 9b d2 18 3e 0f 7c 14 3e
       -0.1403338 0.11099206 0.1492409 0.1450045
000060 bc 98 53 bd 28 83 53 bd 90 98 20 3d 18 b0 56 bd
       -0.05165933 -0.051638752 0.039207995 -0.05241403
000070 93 a9 3e 3e 0a 37 a9 3d 90 af 07 be 80 cb 04 3b
       0.18619375 0.08262451 -0.13250566 0.0020262897
000080 d7 82 35 3e 8a e3 e5 bd 59 81 1c 3e cb c5 e5 bd
       0.17725693 -0.1122504 0.15283717 -0.11219367
000090 98 3a 06 bd 8c 1f ab bd 88 ce 87 bc 5e d4 90 3d
       -0.032770723 -0.083556265 -0.016577974 0.07071756
0000a0 c6 88 12 be 88 4c a8 bc 40 4f 40 bc 02 cf 1c be
       -0.14309987 -0.020544305 -0.011737645 -0.15313342
0000b0 f4 64 4d 3d ca a2 31 be f5 64 16 3e 96 09 01 be
       0.050145105 -0.17347255 0.1468695 -0.12601313
0000c0 70 68 4a 3d bc 76 55 3d a9 ea 43 be 0d 08 2b be
       0.049416006 0.052115187 -0.19132484 -0.1670229
0000d0 9d b0 1b be b4 b3 3e bd 21 a0 44 be 0a a5 cd 3d
       -0.15204091 -0.046558097 -0.1920171 0.10041244
0000e0 17 c4 0f 3e a2 a3 c3 3d ca 8f be 3d 7c d6 cd bd
       0.14039646 0.09552695 0.09304769 -0.10050675
0000f0 0e ce 8d bd 61 70 0f be 20 65 e2 bc d6 09 f4 3d
       -0.069240674 -0.14007713 -0.02763611 0.119159386
000100 8d 33 42 3e 20 8f ba 3c a8 3a 9c bc ba 5e 9e 3d
       0.18964978 0.022773325 -0.019070938 0.077329114
000110 ad cf 3c be ab 80 10 3e 38 50 89 bc 21 31 31 be
       -0.18438597 0.14111583 -0.016761884 -0.17303897
000120 ea cd fb 3d da 71 0a be 89 5e c0 bd c3 bd 2e be
       0.12295134 -0.13519993 -0.09393031 -0.17064576
000130 90 63 c5 bc 66 b1 ff 3d 24 f9 7c bd e0 bb 53 bd
       -0.024095327 0.12485008 -0.061761037 -0.051692843
000140 09 73 1d be 84 f8 60 3d ce e1 01 be 70 3c fb bd
       -0.15375914 0.054924503 -0.12683794 -0.12267387
000150 4a 1d 20 be 3a 68 f6 3d 13 a7 8a bd e2 30 85 3d
       -0.15636173 0.120315984 -0.06770148 0.06503464
000160 f0 e4 0d 3d 68 09 18 be 28 72 3f 3d f6 cd a6 3d
       0.03464216 -0.14847338 0.046739727 0.08144753
000170 90 c0 40 3c aa cd c4 3d 02 93 e8 3d ee 04 d1 3d
       0.0117646605 0.0960954 0.113561645 0.102060184
000180 40 3b 4c bb 42 7c ca 3d 20 10 1f bd 6a 7b 96 3d
       -0.0031163245 0.098869815 -0.038833737 0.07347758
000190 58 12 2a 3d 8a 42 bd 3d 50 63 54 3c e6 f0 f9 3d
       0.0415214 0.09241207 0.012963131 0.12204151
0001a0 3f 7b 26 3e 70 3f e3 bc 7c ae 06 be 06 04 8a bd
       0.16257952 -0.02774021 -0.13152498 -0.06739049
0001b0 72 b4 85 3d 22 fe 30 be fa a6 ab 3d 7c 4d 06 be
       0.06528558 -0.17284444 0.083814576 -0.13115495
0001c0 b0 55 76 3c 78 cd b0 bc 77 cd 0f 3e 34 07 70 3d
       0.015035078 -0.02158235 0.14043222 0.05860062
0001d0 6f 12 3b 3e b6 31 9b 3d 60 19 ff 3c 8a 55 e0 3d
       0.1826875 0.07577841 0.03114003 0.10953815
0001e0 fc 55 2a 3d 48 7c 4c bd 46 59 ea 3d 32 22 e2 3d
       0.041585907 -0.04992321 0.11442809 0.110416785
0001f0 60 24 df bb 1c 1a 22 be e2 62 ff 3d df 0d 06 3e
       -0.006809756 -0.15830272 0.12470032 0.13091229
000200 aa 9a 83 bd e0 38 7f bc 30 e2 09 be 54 fc 16 be
       -0.06425984 -0.015577525 -0.1346519 -0.14744693
000210 2a 28 84 bd 18 73 e6 bc e9 75 04 3e f2 b9 82 3d
       -0.06452973 -0.028131053 0.12935604 0.063831225
000220 f3 6d c8 bd 40 07 b0 3c 8c 45 36 3d 12 d0 b1 3d
       -0.09786596 0.021487832 0.04449992 0.086822644
000230 fc ac a2 bd 51 dd 09 3e 24 25 33 bd e9 00 3d be
       -0.079431504 0.13463332 -0.043736592 -0.18457378
000240 2a 96 9e bd f6 55 cc 3d 9c f3 59 3d 35 db 1f 3e
       -0.07743485 0.09977333 0.05321084 0.15610965
000250 e4 06 b4 bd ee 12 9c 3d 7e f2 9b 3d 6a 0b 90 3d
       -0.08790377 0.07620798 0.07614611 0.07033427
000260 4e 2c b8 3d 50 49 44 bd 70 3e 4a bc e8 aa 96 bc
       0.089928254 -0.04792148 -0.012343988 -0.018392041
000270 d8 3f 82 3c 42 4b f4 3d 3e 9a 2c be a0 91 38 bd
       0.015899584 0.11928417 -0.16855714 -0.045060754
000280 e3 a7 3f 3e c6 20 b4 3d a6 65 1d be ac c6 b3 bd
       0.18716387 0.087953135 -0.15370807 -0.08778128
000290 b2 b9 d8 3d 6a a8 d9 3d c7 73 31 be bf 6e e7 bd
       0.105822936 0.106278256 -0.17329322 -0.1130042
0002a0 6c 0d 05 3d b3 f6 ec bd 30 fc 7e 3c 08 14 0c be
       0.032483503 -0.11570492 0.015563056 -0.13679516
0002b0 f2 7e 9b 3d b0 dc 61 3c 80 ba e9 bd d9 70 33 3e
       0.07592572 0.013785526 -0.11412525 0.17523517
0002c0 cc c1 48 3d 30 d8 e1 bc fc d5 2f bd fd 47 ec bd
       0.049012944 -0.027568907 -0.04292868 -0.11537168
0002d0 92 ed 98 3d 1e f0 88 bd 2d c5 35 3e 90 04 a9 3c
       0.07467188 -0.06686424 0.17750998 0.020632058
0002e0 64 45 0d be ce f3 b2 bd 70 76 34 bc f4 43 03 be
       -0.13796002 -0.08737908 -0.011014566 -0.12818891
0002f0 d2 73 29 be 18 e6 04 be af 61 06 3e 44 2f 43 bd
       -0.16548088 -0.12978399 0.13123201 -0.047652498
000300 a0 f6 94 bb e0 61 e7 3b c9 80 10 be 36 89 03 be
       -0.0045460016 0.007061228 -0.14111628 -0.1284531
000310 78 0d 59 bd e0 97 2b 3c 90 1c 2d 3c 79 d2 05 be
       -0.05299136 0.010473222 0.010565892 -0.1306857
000320 92 a0 b4 3d 9d eb 2b 3e 5c 3c 78 3d 16 f8 aa 3d
       0.08819689 0.16789098 0.06060444 0.083481
000330 35 45 21 3e 3d b4 23 3e 9d 14 06 3e 46 91 1e be
       0.15749057 0.15986724 0.13093801 -0.15485105
000340 f6 89 a9 3d 40 e3 9a 3c 2e 35 e4 3d 52 92 9e 3d
       0.08278267 0.01890719 0.11142956 0.07742752
000350 2f b7 2c 3e 9b 71 32 3e b6 f4 8f 3d 86 9e 89 bd
       0.16866754 0.1742615 0.07029097 -0.06719689
000360 00 f8 0a b9 f8 63 6a bd 65 3b 3c 3e 38 c2 b8 bc
       -0.00013253093 -0.057224244 0.18382032 -0.022553548
000370 5a cc de 3d 60 98 c0 3c 60 de 43 3c 92 d5 eb 3d
       0.10878821 0.023510158 0.011954874 0.11515345
000380 18 52 4d 3d e6 0b 85 bd b2 67 c5 3d b6 7d c9 bd
       0.05012712 -0.0649641 0.09638919 -0.098384306
000390 20 a7 52 bc 30 94 8f bd 36 97 c8 3d 51 cf d6 bd
       -0.0128572285 -0.070106864 0.09794466 -0.10488761
0003a0 b0 fe b6 bc a0 d1 fb 3b 2f 9c 11 3e 60 d3 a7 bb
       -0.022338241 0.0076849014 0.14219736 -0.0051216334
0003b0 ec 70 2c 3d aa c9 97 3d ce f1 81 bd 38 ff 9c 3c
       0.04209988 0.07411511 -0.06344949 0.019164667
0003c0 f1 12 2f 3e f5 31 10 3e b6 b0 9f 3d 0a 12 33 be
       0.1709707 0.14081557 0.07797377 -0.1748735
0003d0 6f 07 35 3e b0 d3 59 3d bb 11 3a be b6 ee f0 3d
       0.17678617 0.053180397 -0.18170826 0.117642805
0003e0 30 0d 8e bc 68 66 e9 3c a1 e4 37 3e 20 37 b7 3b
       -0.017340273 0.028491214 0.17958309 0.005591288
0003f0 37 9c 12 3e 53 af 27 3e dc 77 10 bd 52 2f 8f bd
       0.14317404 0.16375475 -0.035270557 -0.069914475

conv1.bias f4 [16]
000000 c9 73 05 3e 12 68 99 3d f1 27 37 3e 80 4a 13 bd
       0.1303245 0.07490553 0.1788633 -0.03595972
000010 50 1b 85 bd e0 bb 97 bb c8 bc 41 be 54 db 1f bd
       -0.0649935 -0.0046305507 -0.1891967 -0.039027527
000020 a0 62 9b 3c 6c de 07 3d 51 a5 09 be 7e 9c a7 bd
       0.018967927 0.033171102 -0.1344197 -0.081841454
000030 2d 75 01 3e d6 07 27 be 7c e6 7d bd a9 6d 0d 3e
       0.12642355 -0.16311583 -0.061987385 0.13811363

conv2.weight f4 [32, 16, 3, 3]
000000 b1 41 9a 3d 7c 89 b1 bc fb 9f 0a bd d8 f8 3a bd
       0.07532061 -0.021672003 -0.033843976 -0.045647472
000010 14 6c a4 3c 01 7f 98 3d b8 68 33 bc d0 b7 cd 3c
       0.020071067 0.07446099 -0.01095026 0.025112063
000020 74 b2 9f 3c 4b 05 43 bd bf cb 84 bd ee 3f 51 3d
       0.019494273 -0.04761247 -0.06484174 0.05108636
000030 86 99 b5 bc b0 56 78 bd 82 0b 34 3d a8 df 57 3c
       -0.022167932 -0.060629547 0.043956287 0.013175882
000040 40 0f f9 3b 46 17 d5 bc 10 18 de 3c ca b2 87 bd
       0.007600695 -0.026012074 0.027111083 -0.06625898
000050 e3 f6 44 bd 28 91 64 bc 00 10 e9 b8 ff 42 90 bd
       -0.048087012 -0.013950624 -0.00011113286 -0.070440285
000060 68 94 71 3c 81 43 91 3d 59 18 8e 3d b6 dd 63 bd
       0.014744855 0.070929535 0.06938238 -0.055631362
000070 9a 5f 77 3d d8 ce 14 bc d0 31 8f 3c 5c d0 eb 3c
       0.060393907 -0.0090825185 0.017479807 0.028785877
000080 5b 15 97 3d a2 3a 08 3d 2c 8c e9 bc 74 8c 93 bd
       0.0737712 0.03325904 -0.028509222 -0.07204524
000090 9c d8 da bc d3 3d 2e bd 3b 6c 8e 3d 5c 4f 82 bc
       -0.026714616 -0.04253943 0.06954237 -0.015906982
0000a0 8b bf a9 bd 00 80 8b b7 11 ff 87 3d 6c 3e a0 3c
       -0.08288487 -1.6629696e-05 0.06640447 0.019561015
0000b0 80 61 bf 3b 78 b0 2b bd 00 24 2e bd fb 3d 58 bd
       0.0058404803 -0.04191634 -0.0425148 -0.052793484
0000c0 d4 3e 8d bc 7f 63 90 3d 84 d3 87 3c 8c c2 ea bc
       -0.017241873 0.070502274 0.01658035 -0.02865722
0000d0 dc 18 ae bc b8 f2 0f bc b8 41 32 bd 70 ab 0d bd
       -0.021252088 -0.008785896 -0.043519706 -0.034587324
0000e0 2a 3e a1 bd 00 f9 49 3c e0 0f 82 bc 32 97 90 bd
       -0.07873185 0.012327433 -0.01587671 -0.07060088
0000f0 7e ed 4b bd d6 4d 6d 3d c0 4e ee 3c 80 22 5c bd
       -0.049787037 0.05793556 0.029090285 -0.05374384
000100 96 9f 82 bd 00 8c 80 b9 a4 07 ae 3c 72 d3 0f 3d
       -0.06378095 -0.0002451837 0.021243878 0.03511376
000110 d6 f6 15 bd 0a e8 33 3d f6 20 52 3d 26 51 4c 3d
       -0.036612354 0.04392246 0.051300965 0.049882077
000120 de a7 78 bd e0 05 1a 3d a8 10 6b 3c e4 e5 e4 3c
       -0.060706966 0.03760326 0.014347233 0.027941652
000130 26 2d 54 3d 8a 05 7f 3d bd d1 9f 3d fb 2b 40 bd
       0.05180087 0.06226114 0.07803676 -0.046916943
000140 ed f3 88 3d 6c 35 84 bd 78 07 2d bc ad ee 97 3d
       0.0668715 -0.06455502 -0.010560863 0.07418571
000150 f8 b2 66 3c 62 62 70 3d e6 7d 1f bd 30 19 cb bc
       0.014080755 0.058687575 -0.038938425 -0.024792284
000160 14 b5 be 3c 80 1f 97 3c 86 8b 32 3d c0 66 d1 3b
       0.023279704 0.018447638 0.04359009 0.0063904226
000170 d6 3d 13 3d f6 b4 4b bd c0 71 a3 ba a8 78 8a bd
       0.035947643 -0.049733125 -0.0012469813 -0.067612946
000180 20 81 10 3b 76 56 2c bd ba 00 00 3d 4f 3f a3 bd
       0.002204962 -0.042074643 0.031250693 -0.079710595
000190 90 d5 67 bd 6d 3f 95 3d 56 84 58 3d c1 3b 9a 3d
       -0.056600153 0.07287488 0.05286058 0.075309284
0001a0 69 9c 93 3d 9a 3b 53 3d 00 3d 99 39 28 e8 3f 3c
       0.07207567 0.051570512 0.00029227883 0.011713065
0001b0 50 85 be 3b 4b 38 a1 3d 28 72 76 bc 78 ed 44 bc
       0.005814232 0.07872065 -0.015041865 -0.012019508
0001c0 da b9 7c 3d f4 35 8d bc c0 a2 b8 3a c5 5b 81 3d
       0.06170068 -0.01723764 0.0014086589 0.06316332
0001d0 4e 47 4c 3d 00 bb 2d bc 60 17 d7 bc ac 37 c4 bc
       0.04987269 -0.010603666 -0.026256263 -0.023952328
0001e0 80 b5 69 3b 2c 6a c5 bc a3 72 34 bd 12 88 1b 3d
       0.003566116 -0.024098478 -0.04405464 0.037971564
0001f0 e8 d0 88 bd a0 1f 73 3c 5e 97 4c 3d d8 1d 3e bd
       -0.06680471 0.014839083 0.049949042 -0.04641518
000200 40 8d 82 3c 3e 7a 4e 3d 68 4c 71 bd bc bd 83 bc
       0.015936494 0.050409548 -0.058910757 -0.016081683
000210 00 92 b0 ba 10 29 99 bb 18 93 0c bc ae 51 4e 3d
       -0.0013471246 -0.0046740845 -0.008579992 0.050370865
000220 f6 76 98 bd 64 2d 91 3c a8 b7 83 bd b4 bc 8d bd
       -0.07444565 0.01772184 -0.06431514 -0.06920758
000230 c9 b4 81 3d 88 80 31 bd a4 e7 a4 bc e4 1e 81 bc
       0.0633331 -0.043335468 -0.020129986 -0.0157618
000240 7e ea 35 bd d0 8a 2c bd 46 b5 7c bd 7b 15 23 bd
       -0.044413082 -0.04212457 -0.061696313 -0.039815407
000250 bc 55 96 bd 48 2f 5e 3c 6d 0b 98 3d 22 53 64 3d
       -0.07340571 0.013561077 0.07424054 0.055743344
000260 c9 9b 9d 3d 30 48 20 3d f2 f0 11 3d 9c e6 ab 3c
       0.07695729 0.039131343 0.035630174 0.020983987
000270 4d 68 8e 3d b4 17 8e bd 34 35 8a bd 66 7e 9e bd
       0.069534875 -0.06938115 -0.06748429 -0.07738952
000280 58 79 8e bd db a4 6b bd 6f 0d 8c 3d c0 bc 0e bd
       -0.06956738 -0.057530265 0.068385 -0.034847975
000290 5e e3 37 3d f0 5e b8 bb 89 d3 9c 3d f1 bc 82 3d
       0.04489457 -0.005626552 0.07657535 0.06383694
0002a0 37 5a 94 bd 90 f8 a6 bc 60 4f 66 bb db 38 46 bd
       -0.072437696 -0.020382196 -0.0035142526 -0.048394065
0002b0 00 d8 6d 3a 58 a2 10 bc 88 c9 54 3c 88 b9 52 bc
       0.0009073019 -0.008827768 0.012987502 -0.012861617
0002c0 f3 1b 2c bd 20 e4 29 3c fb 3c 63 bd 08 c0 64 bc
       -0.042018842 0.010369331 -0.055478077 -0.013961799
0002d0 cc e1 ee 3c 20 f4 b9 3c 4c 40 8f 3c 96 29 c0 bc
       0.029160403 0.022699416 0.017486714 -0.02345733
0002e0 31 06 80 3d 9a 4f 91 bd 0b fb 50 bd f0 b1 da bc
       0.06251181 -0.07095261 -0.051020663 -0.026696175
0002f0 53 62 0d bd 9e 8c 01 bd 1d fb a5 3d 9c 43 a1 bd
       -0.034517597 -0.031628244 0.08104537 -0.078742236
000300 a1 b9 94 3d 06 d6 46 bd 3b 85 00 bd 1a 44 97 bd
       0.072619684 -0.048543952 -0.03137706 -0.07386036
000310 1e 32 7d bd 63 c9 7c bd 5c 48 e8 bc 9e 19 4d bd
       -0.061815374 -0.061715495 -0.028354816 -0.05007326
000320 1b 8a 9e bd 24 3e 81 3c b0 fb 80 bb 68 60 22 3d
       -0.07741185 0.015776701 -0.0039362535 0.03964272
000330 46 ca 7a 3d 92 f0 16 3d e2 81 33 3d 40 fa fb bc
       0.06122806 0.03685052 0.043825038 -0.030758977
000340 a7 4f a1 3d 83 be 8d 3d 33 ce 49 bd 15 0c 9c 3d
       0.078765206 0.06921103 -0.049268913 0.07619492
000350 d2 4a 43 3d 90 ee 56 bd 98 f8 77 bd 88 8e 09 bd
       0.047678776 -0.052473605 -0.06053981 -0.033583194
000360 5a ec 58 3d 7c c7 b4 3c ce 70 44 3d ea 2b 52 3d
       0.052959777 0.022067778 0.04795914 0.05131141
000370 c8 d0 2a bd db a1 35 bd b1 32 91 3d 00 02 e0 3c
       -0.041703016 -0.04434381 0.07089747 0.027344704
000380 ba 08 9a bd 3a 49 63 3d f9 ba 97 3d ce 9d 38 3d
       -0.07521196 0.055489756 0.07408709 0.04507237
000390 0f 64 9f bd cc 7e e1 3c 4c c2 e2 3c 26 52 8a bd
       -0.077827565 0.027526282 0.027680539 -0.0675395
0003a0 be 2f 62 bd 8e c8 71 3d a7 27 a2 bd be 9a a2 bd
       -0.05522131 0.059029154 -0.07917719 -0.07939671
0003b0 20 b6 27 bc 03 ae 16 bd 50 f2 bd bc 18 b0 51 3c
       -0.010236293 -0.036787044 -0.023186833 0.012798332
0003c0 90 53 de bc 38 85 3a bd 63 b7 7c bd e0 91 ff bc
       -0.027139455 -0.045537204 -0.06169833 -0.031197488
0003d0 30 cb 9e bc ab 2e 1a bd c3 7c a6 3d 86 ed 88 bd
       -0.019383997 -0.037642162 0.08129265 -0.06685929
0003e0 20 56 2d bc f1 ee 8b 3d c4 0c ba 3c cb b9 02 bd
       -0.010579616 0.06832684 0.022711165 -0.031915467
0003f0 d0 11 a1 bb 48 8c 0e 3d 96 a4 43 bd 18 5f 23 3d
       -0.0049154535 0.03480175 -0.047764383 0.03988561

conv2.bias f4 [32]
000000 2c 76 80 3c 7d 70 a3 3d 01 62 a4 3d 40 1e 02 3d
       0.015681349 0.0798044 0.08026505 0.03176713
000010 98 18 2d bd bb ae 12 bd d2 cd 50 3d 84 3f dc 3c
       -0.042259783 -0.035811167 0.050977536 0.026885755
000020 88 23 20 bc d3 98 8b bd 12 9c 50 3d 80 1b 91 bd
       -0.009774096 -0.06816258 0.05093009 -0.07085323
000030 73 c1 97 bd 8c 73 e3 3c 10 f0 e6 3c e2 eb 9b bd
       -0.074099444 0.027765058 0.028190643 -0.076133505
000040 3d a7 9a 3d 6e 4b 87 bd d2 fc 61 3d b0 a0 af bb
       0.075514294 -0.06606184 0.05517275 -0.0053597316
000050 80 23 2c 3b 7c 23 87 3c a0 fe b0 3c d8 7e 48 3c
       0.0026266277 0.016496412 0.02160579 0.012237273
000060 cc 0e 86 3c d2 84 48 3d 80 cc ca 3b 96 22 2c 3d
       0.016364478 0.048954792 0.006188929 0.04202517
000070 ee c4 26 3d cb d4 1d bd 40 69 2b bc 34 91 95 bc
       0.04071515 -0.038533013 -0.010462105 -0.018257715

fc.weight f4 [10, 1152]
000000 16 61 1c bc 08 98 0e bb 8b c5 d9 bc a0 f8 46 ba
       -0.0095446315 -0.0021758098 -0.026583454 -0.00075901486
000010 5e 64 45 bc d1 76 a3 3c 18 d2 e2 bc 46 7e 35 3c
       -0.012047855 0.019954117 -0.027688071 0.011077469
000020 35 db b6 bc d6 6b e3 bc 6e 0e 12 3c 19 92 af 3c
       -0.022321323 -0.027761381 0.008914573 0.02143197
000030 20 3f ec bc b9 06 9f 3c 17 f7 bf 3c 10 46 a1 ba
       -0.028838694 0.019412385 0.023433251 -0.0012304205
000040 38 4e 10 3b 98 a8 60 bb c0 1f b4 ba c0 df e7 3a
       0.0022019278 -0.0034280177 -0.0013742372 0.0017690584
000050 c7 39 bc 3c 5a f0 0e 3c 91 36 f1 bc 98 c1 3e bc
       0.02297677 0.008724296 -0.029444965 -0.011642836
000060 e7 9f c3 bc f9 2e d8 bc 91 17 d8 3c 15 c3 bf 3c
       -0.023879958 -0.026389586 0.026378425 0.023408452
000070 8a 39 55 3c 38 79 11 3b e0 7b 6e 3a d8 d1 16 bc
       0.013014207 0.0022197496 0.00090974383 -0.009205304
000080 53 ce de 3c 69 1a c7 3c 54 fc ef bb 76 45 78 3c
       0.027197992 0.024304586 -0.007323781 0.0151532795
000090 b4 b6 da bc 6a d6 12 bc 9c b7 9a bc 5a 63 2e 3c
       -0.026698448 -0.008962253 -0.01888638 0.010643804
0000a0 80 2d d7 b9 a4 6e f8 3b bb 5c e1 3c b3 d0 9f 3c
       -0.00041041896 0.0075815488 0.027510038 0.019508695
0000b0 bf 55 99 3c 28 55 02 3b 40 23 a2 bc 9d ad 84 3c
       0.018717645 0.0019887183 -0.0197922 0.016196067
0000c0 56 9d aa bc 62 7e 0c bc c5 62 90 bc 78 36 f6 bb
       -0.020826977 -0.008575054 -0.017625222 -0.0075138174
0000d0 7c a6 ce 3b 8d 98 cf 3c 65 51 a2 3c 53 e7 d3 bc
       0.0063064676 0.025341297 0.019814203 -0.02586714
0000e0 9c 0a b9 3b 57 c2 e0 3c 7f 91 8e 3c ab 4f 98 3c
       0.0056470167 0.027436418 0.017403362 0.018592676
0000f0 af 98 b2 bc cc a2 94 3b 5e a5 27 3c 80 5a b3 bb
       -0.02180132 0.0045360085 0.010232298 -0.005473435
000100 7b 48 9a 3c e6 40 6c 3c c8 1f 07 bc fb d1 f0 3c
       0.01883339 0.01441977 -0.008247323 0.029397001
000110 e9 c6 c6 3c e0 f9 00 3a e6 27 44 3c 14 94 55 bc
       0.02426477 0.0004920047 0.011972403 -0.013035793
000120 62 3e 2b 3c e4 70 8c 3b af c6 a7 3c a4 c0 9b bc
       0.010451885 0.0042859185 0.020480482 -0.019012757
000130 0a df 5a 3c c1 46 8b bc 98 a2 c0 bb f3 89 be bc
       0.013358841 -0.017001512 -0.0058787577 -0.023259139
000140 eb 61 ad bc ef 72 ac 3c 20 79 34 3a ce b3 91 bc
       -0.021164855 0.021050898 0.0006884504 -0.017785933
000150 68 e8 29 3b 71 2b 6b bc 45 a9 b8 3c 0a 8e ad bc
       0.0025925878 -0.014353619 0.022541652 -0.021185894
000160 5b 54 d2 bc f2 66 ea bc 3c c1 d7 bb 9d 72 b0 3c
       -0.02567499 -0.028613541 -0.0065843146 0.021539027
000170 00 37 b0 bb 50 6b ba bb 6c 14 4c bc e9 1e cb bc
       -0.0053776503 -0.005689062 -0.012456041 -0.024795013
000180 cf e7 d1 3c 21 2d 8e bc 29 9f d8 3c 00 44 ab b9
       0.02562323 -0.017355504 0.026443081 -0.00032666326
000190 73 28 a0 3c ba 31 1c bc 08 80 9f bc 78 57 2f 3b
       0.019550538 -0.00953334 -0.01947023 0.0026755016
0001a0 60 8d 02 ba bc 4b 89 bc 2a 2a 54 3c 73 8b 66 bc
       -0.0004980173 -0.016759746 0.012949506 -0.014071333
0001b0 8f cf c7 bc da be 60 3c b0 9a a2 ba df f8 80 bc
       -0.024390964 0.013717378 -0.001240572 -0.015743671
0001c0 18 5c fa bb 80 8d 76 bc 5a d8 1d bc a0 16 e0 3a
       -0.007640373 -0.015048385 -0.009634102 0.0017096587
0001d0 12 08 1f 3c 80 a3 85 3a 83 95 a6 3c b2 dd 31 3c
       0.009706514 0.0010195822 0.020334965 0.010856079
0001e0 f1 f1 ea bc d8 86 30 bc 79 c3 cd 3c 34 54 80 3b
       -0.02867982 -0.010774337 0.025117623 0.003916288
0001f0 1c 2e 56 bc 64 d8 dd 3b 89 12 87 3c 70 7d 9a 3a
       -0.013072517 0.0067701805 0.01648833 0.0011786651
000200 04 10 92 bb 4f 03 e1 3c b6 e1 9c bc ca ff 3b 3c
       -0.0044574756 0.027467398 -0.019150596 0.011474559
000210 ec 55 e5 3b b2 84 56 3c 52 1f 92 bc 2f 6a b1 3c
       0.006998768 0.01309316 -0.0178372 0.021657078
000220 58 73 3b 3b d0 75 dd ba 1e 9d 04 3c bc a7 30 bc
       0.0028602686 -0.0016896073 0.0080941 -0.0107821785
000230 6b a0 a4 bc 1e 8f 4b bc 58 74 c4 bc 42 3d 9f bc
       -0.020096024 -0.0124242585 -0.023981258 -0.01943839
000240 7d 7f 8d 3c 70 cc d9 bc 35 96 bb 3c 87 66 a5 bc
       0.017272705 -0.026586741 0.022898773 -0.02019049
000250 5b 47 a0 3c 24 a2 87 bc 5a f6 eb bc 4a db 95 bc
       0.019565275 -0.016556807 -0.028803993 -0.018293042
000260 90 08 cc ba d0 a2 99 bb 6c cd 9a bc 26 cc d2 bc
       -0.0015566517 -0.004688598 -0.01889678 -0.025732111
000270 20 33 34 ba b3 7c 94 3c 59 e8 8c 3c 53 4b b9 3c
       -0.00068740733 0.018125867 0.017200636 0.022618925
000280 dc 24 1f bc 58 08 b4 bc d5 66 8c 3c b6 6d c5 bc
       -0.009713378 -0.021976635 0.017138878 -0.024100166
000290 fa cf 31 3c 44 1e 8d bb 8d 5d ef bc e4 c6 c4 3b
       0.010852808 -0.0043065865 -0.029219413 0.006005155
0002a0 d2 70 32 bc 9c 1f ac 3b 31 23 bc 3c 90 4e c3 bc
       -0.010891156 0.0052527916 0.022966 -0.023841172
0002b0 0e b3 c1 bc 94 87 ff 3b da a7 a5 bc 05 d6 f0 bc
       -0.02364495 0.0077981446 -0.02022164 -0.029398927
0002c0 c8 1d 15 bc 3c d2 e2 3b de 42 47 3c 66 38 7a 3c
       -0.009101339 0.0069220345 0.0121619385 0.0152722355
0002d0 38 f7 9a bc 51 cc 70 bc 9a 84 17 3c cb 3d af 3c
       -0.018916711 -0.01469715 0.009247923 0.02139177
0002e0 f2 ce 03 bc 48 73 f8 bb 90 22 ca ba 21 66 b1 3c
       -0.008044945 -0.007582102 -0.0015421677 0.021655144
0002f0 1a 21 8e bc 23 46 e4 3c 74 20 80 3b 48 27 a1 bc
       -0.017349768 0.027865475 0.0039101187 -0.019672051
000300 04 d4 f3 3b ca 13 cc bc e0 dd c1 bb e8 d1 39 3b
       0.0074410457 -0.02491178 -0.005916342 0.0028353874
000310 21 af 9a bc 0a d5 8c bc 1b e9 c0 3c 86 48 9a bc
       -0.018882336 -0.017191429 0.023548653 -0.01883341
000320 c4 3f ed bc 4f 13 83 3c 58 dc 17 3b 25 bd e2 3c
       -0.02896107 0.016000418 0.0023172107 0.027678082
000330 0a f7 a7 bc d4 29 af 3b 52 27 23 3c fb d4 e4 3c
       -0.02050354 0.0053455625 0.009958105 0.027933588
000340 e6 a3 3b bc f1 56 de 3c 2e b7 5f 3c d2 53 7d 3c
       -0.011452651 0.027141066 0.013654513 0.015461879
000350 78 7a 4d bc 02 68 7d bc 02 17 5b 3c e4 75 80 3b
       -0.012541406 -0.015466692 0.013372185 0.0039203037
000360 b0 e4 99 bc e1 d2 e6 3c 38 32 11 3b 5e bf 92 bc
       -0.018785805 0.028176727 0.0022155177 -0.017913517
000370 4b cb a0 3c 25 4d e9 3c f7 a9 ab bc f8 29 33 3b
       0.019628188 0.028479168 -0.020955069 0.0027338248
000380 80 d4 6c ba c4 14 fb 3b c3 4e db bc a5 dc da 3c
       -0.00090343505 0.0076623876 -0.026770955 0.02671654
000390 78 88 ac bc af 23 d9 3c 85 e5 e4 3c 7d b1 6f bc
       -0.021061167 0.026506273 0.027941475 -0.014629719
0003a0 a8 5e 47 bc 68 a7 5d bc 1e ae 1e 3c 08 0a 16 3b
       -0.012168564 -0.013528682 0.009685067 0.0022894163
0003b0 21 9e d1 3c b4 0d a7 bc 90 74 b0 ba c9 8d 94 3c
       0.025588097 -0.020392276 -0.0013462473 0.018134015
0003c0 f8 8a 1d bc 34 e8 8c 3b 9d a3 ce 3c 68 16 1e bc
       -0.009615652 0.0043001417 0.025224501 -0.009648897
0003d0 f1 3b 8b 3c 20 7b 99 3a d9 8f 90 3c 5c 85 f4 bb
       0.016996356 0.0011709668 0.017646717 -0.0074621867
0003e0 10 fd e4 bb 00 e8 7a b8 70 ec db 3a f6 4d 17 3c
       -0.006988175 -5.982071e-05 0.0016778838 0.009234896
0003f0 8e cc 0e 3c f0 42 37 bb 38 ce 44 3b 58 a2 c4 bc
       0.008715762 -0.0027963482 0.0030030143 -0.024003193

fc.bias f4 [10]
000000 e9 3a d3 3c 7a 73 78 3c b4 d0 60 bc 2c 1c e7 3b
       0.025784926 0.0151642505 -0.013721634 0.007052919
000010 fd 64 86 bc 31 f5 bd 3c bc e7 ef 3b 80 38 a1 b9
       -0.016405577 0.023188205 0.007321326 -0.0003075041
000020 94 82 c1 bb 84 f0 2b bc
       -0.0059054587 -0.010494355
