test_cnn.onnx (onnx, 67789 bytes, 6 tensors)

conv1.weight f4 [16, 3, 3, 3]
00000000: 9056 293c e0f4 8abb 585f cfbc 5fc1 18be
00000010: 80e6 f93b 11d7 1c3e 7122 043e 2c3c edbd
00000020: 5de2 8cbd 1887 3abe 30ae 483d 3fc7 06be
00000030: b67c c73d f93c 053e f0c4 72bd 2c65 6d3d
00000040: d0ca 44bc a5a2 2b3e 3c15 41be 998e 2dbe
00000050: 02a9 1abe 3440 1cbe 5352 0a3e 94fa b2bd
00000060: 55cc 3ebe f401 6a3d 9a47 a93d 3f70 a8bd
00000070: b308 dcbd 4ae4 bc3d c5c8 2a3e 5357 333e
00000080: 039b 193e 96e9 833d aee2 b6bd 2a67 d03d
00000090: 1744 243e 915d 9fbd 103a 4b3d e0bf f7bb
000000a0: eb31 0ebe 601c a6bd 179e 44be f372 1f3e
000000b0: 4734 303e 8827 83bc ade7 42be f63d 2cbe
000000c0: c0d5 193c 4b91 113e 4b0a 0b3e 567b ad3d
000000d0: 7b20 383e f6e8 ff3d c850 a63c 7e67 f23d
000000e0: c291 12be a268 38be 887f ddbd 9cc6 623d
000000f0: 5e13 bc3d 00fe a339 4429 78bd 3f00 0ebe
00000100: 7e7f f2bd a027 2cbe b0de 2fbe 0c0d 92bd
00000110: 678c 203e ac1a 3dbd 2c06 78bd b0a9 e2bc
00000120: 98cf 1bbd 6d54 27be 8807 8dbc 5d69 133e
00000130: 409d 533c 3c10 313d 9c68 20bd 20fa b93c
00000140: 1c28 16be 50f9 7e3c 35ce 19be 22ab 06be
00000150: 09d2 c1bd 0b55 283e 8846 68bd e4f3 0fbd
00000160: 1626 9a3d 56f4 f03d a845 8abd 015d 073e
00000170: 63d2 35be a026 7d3c c1ab 0c3e 00a6 f1bd
00000180: 063d f33d 725e a03d ff3f 0dbe 0005 1d3b
00000190: b0a4 5abd a730 253e 6873 6dbd 2075 24bc
000001a0: 500a 63bd a305 3f3e 9a1e f5bd ec9c 4d3d
000001b0: 4a1e 9d3d 6f88 d1bd a97a 113e 63fe a5bd
000001c0: 77b0 2b3e 71d2 313e 5b96 95bd 6aa7 2fbe
000001d0: ab54 143e 5e1d d13d 1783 223e e0cb 4fbd
000001e0: 6876 65bd c2d6 0abe 004e b039 2470 703d
000001f0: 120a be3d 431c 253e db46 3d3e a5fe 3bbe
00000200: 89a9 3a3e a04f 6f3c 3a24 1bbe 4077 9abb
00000210: 19c2 233e ff99 343e 5326 d5bd 783d db3c
00000220: 2e40 2ebe b6a5 a13d cc3a e7bd 3e9e f03d
00000230: 8bd0 103e ae19 f43d 7a91 863d d357 e4bd
00000240: 180f 093d 176a 1e3e 287b 8b3c c69d 8b3d
00000250: 2d2d 343e 0694 9f3d 8c7c 343d 4023 0fbe
00000260: 2891 98bc f9f7 31be 0025 1bbe 1a07 02be
00000270: 90f6 11bd 00ac 2eba c05a ad3b 8a6c 1abe
00000280: 66c8 bc3d c00a 393c 3b33 213e 6a8b e2bd
00000290: 39a7 33be 69cb 373e 55f6 01be 9055 72bd
000002a0: 99b9 053e 9225 853d 00ad 5fbc 41e4 90bd
000002b0: d84c 6abd b131 423e de48 963d ed9e 3ebe
000002c0: f45b 35bd f23e 8fbd d18a 3b3e 8fcb 3fbe
000002d0: 54a0 2dbe 6407 14be e30d 0f3e fb02 d8bd
000002e0: 2c2c 38be 0631 e43d 32d2 b63d 3b8f 213e
000002f0: 3f0c 22be 2031 eebd 79a2 403e af36 353e
00000300: eff3 063e 3594 abbd cd2b 0d3e 5c7d cebd
00000310: 40cd 52bd 9b31 a8bd a0be 723c 3876 5fbd
00000320: 9f3b e8bd c4f9 2abe 6b53 333e 7a2d a4bd
00000330: 6da1 203e aa83 a93d 68ed 553d 0574 ebbd
00000340: bdf2 033e c1c7 3c3e cc51 4abd ea58 dabd
00000350: b825 643d b25a da3d 0358 17be a004 c7bc
00000360: 8423 20be bf0a 14be f08c 013c 154a 103e
00000370: 76e8 81bd 60f4 e43b e603 923d 063b ac3d
00000380: b3aa 23be 3083 e33c bf41 afbd 2ca3 713d
00000390: 83f9 fcbd 0e98 b9bd 8dd8 28be c819 143d
000003a0: 08be 88bd 9c96 1d3d 1bed 033e 8597 373e
000003b0: 02d4 903d d097 72bc b8d6 63bd ce23 f63d
000003c0: 0cc7 9ebd 78a2 f7bc cce7 52bd a46e 363d
000003d0: ea04 fdbd 8b05 023e cf79 2fbe 9312 3dbe
000003e0: 379e e4bd 198b b3bd a6ce df3d e011 54bc
000003f0: c4a8 4a3d 18b7 b6bc d419 6c3d 4840 8abd
0.0103355795 -0.004240617 -0.025314018 -0.14917515 0.0076263547 0.15316416 0.12903763 -0.115837425
-0.06879113 -0.18215597 0.048994243 -0.13161944 0.097405836 0.1301154 -0.059269845 0.057957813
-0.012011245 0.16761263 -0.18855757 -0.16948928 -0.15103534 -0.15258867 0.13507967 -0.087392
-0.18632634 0.05713077 0.0826561 -0.08224534 -0.10743847 0.0922323 0.1667815 0.1751378
0.15000539 0.06441037 -0.089299545 0.10175927 0.16041599 -0.07781518 0.04961592 -0.007560715
-0.1388623 -0.08110881 -0.19200931 0.15571193 0.17207442 -0.01601006 -0.1903369 -0.16820511
0.009389341 0.14215581 0.13578145 0.0847079 0.1798114 0.12495606 0.020302191 0.11836146
-0.14313415 -0.18008664 -0.1081534 0.05536519 0.091833815 0.00031279027 -0.06058623 -0.13867281
-0.118407235 -0.1681199 -0.17174792 -0.07131395 0.15678559 -0.046168014 -0.06055276 -0.027668804
-0.038039774 -0.163408 -0.017215505 0.14395662 0.012915909 0.043228373 -0.039162263 0.022702277
-0.14663738 0.01556237 -0.15020068 -0.1315122 -0.09463889 0.16438691 -0.05670789 -0.0351447
0.075267956 0.117653534 -0.06751567 0.13219072 -0.17756037 0.015451103 0.13737394 -0.1179924
0.11876874 0.07830514 -0.13793944 0.002395928 -0.053379714 0.1613184 -0.057971388 -0.01003769
-0.055429757 0.18654494 -0.119687274 0.05019848 0.07671793 -0.10231101 0.14206947 -0.08105161
0.16766535 0.17365433 -0.07304069 -0.17153707 0.14485423 0.102106795 0.1587032 -0.05073154
-0.056021124 -0.13558486 0.0003362745 0.058700696 0.092792645 0.16124062 0.1848406 -0.18358858
0.18228735 0.014606386 -0.15150538 -0.0047139227 0.15992011 0.1763687 -0.104077004 0.026762709
-0.1701667 0.07892935 -0.112905115 0.11748932 0.14142053 0.119189605 0.06570716 -0.11149564
0.03346166 0.15470158 0.017026499 0.06817202 0.17595358 0.07791905 0.04406409 -0.1397829
-0.018623903 -0.1737975 -0.15150833 -0.12698022 -0.03563553 -0.0006663203 0.0052903593 -0.15080467
0.092179105 0.011294067 0.15742199 -0.11061747 -0.17544259 0.17948689 -0.12691624 -0.05916363
0.13059081 0.065013066 -0.013652086 -0.07074786 -0.05720219 0.18964268 0.07338117 -0.18615313
-0.044277146 -0.06994428 0.18314673 -0.18729995 -0.16955692 -0.14455944 0.13970141 -0.105474435
-0.179856 0.11142163 0.0892681 0.15777294 -0.15824984 -0.116304636 0.18811978 0.17696641
0.13178991 -0.083778776 0.1378624 -0.10082504 -0.051465273 -0.082125865 0.014815956 -0.0545561
-0.11339497 -0.1669684 0.1751229 -0.080164865 0.15686579 0.08277066 0.05222836 -0.11496738
0.12885566 0.18435575 -0.049394414 -0.1066149 0.055700034 0.1066183 -0.14779668 -0.024294198
-0.15638548 -0.14457224 0.007907137 0.1409076 -0.063431665 0.0069871396 0.0712965 0.08409695
-0.15983085 0.027772516 -0.08557462 0.058993503 -0.12352278 -0.09062205 -0.16488858 0.0361574
-0.066768706 0.03847371 0.12883417 0.17928894 0.07071687 -0.014806703 -0.055624694 0.12018548
-0.07752809 -0.030228838 -0.05149059 0.04453911 -0.12354453 0.12697427 -0.1713631 -0.18464117
-0.111629896 -0.08766765 0.10928087 -0.012943715 0.049477354 -0.022304103 0.05764182 -0.06750542

conv1.bias f4 [16]
00000000: 9e82 913d f439 91bd 546c 5ebd b7e9 2bbe
00000010: 007f 28ba e407 d3bd c54b 44be 30b6 1e3c
00000020: 5f62 2f3e 913c d7bd 26f0 e9bd a87a f9bd
00000030: f085 f2bc ceb6 a23d 0068 e038 1613 c13d
0.071049914 -0.07091132 -0.05430253 -0.16788374 -0.0006427616 -0.103042394 -0.19169529 0.009686992
0.1712737 -0.10509599 -0.11422758 -0.12181598 -0.029604882 0.079450235 0.00010700524 0.094274685

conv2.weight f4 [32, 16, 3, 3]
00000000: d6ca 0dbd b00c c7bb 85e9 953d 3c9f d0bc
00000010: 9c95 93bc e8a7 71bd 603b 74bb 4274 003d
00000020: db0a 1bbd c0b8 613c 7364 7cbd a545 853d
00000030: 2e90 31bd 883e 0e3d 28df 7bbc d025 ee3b
00000040: 9ecc 723d 4b34 1cbd 704e 253d b20a 8fbd
00000050: ac5f d43c 07ad 8d3d d275 343d 4640 66bd
00000060: 0692 d5bc 1b6e a93d 809e ae3b 76a0 0f3d
00000070: 80bb 913c d092 e6bc 382d 303c 8e29 203d
00000080: 905f d53c 061c eebc 375e 9bbd 6b40 a9bd
00000090: b094 bcbb b4ce fc3c b01b c7bc c188 9d3d
000000a0: 2804 44bd 7a52 93bd 70ad 06bd ce59 053d
000000b0: d894 37bc c354 1cbd 10c9 8bbd 2807 2abd
000000c0: 6cad a8bd a411 9bbd 0edf 08bd 0867 21bc
000000d0: 7804 343c 26d9 b7bc c07c 593c a095 dbbc
000000e0: 9f29 a1bd 5432 c13c 355d a63d f8a2 4cbd
000000f0: 0b71 3dbd 00f4 aeb8 1d43 a03d 0082 d8ba
00000100: bf34 86bd 20e8 f83c 376f 9dbd c28c 323d
00000110: a0d8 bfbc ce85 453d a2db 5f3d eec0 59bd
00000120: 004e 79b9 e60a ffbc 5ddd 873d 6e27 003d
00000130: 795d 963d b8c1 093c 115e 863d 26fb 583d
00000140: 3e92 7fbd aaed 8ebd e449 de3c 2eb6 9ebd
00000150: 1d1b 853d 9877 133c 9066 89bc 9041 7fbd
00000160: c029 92bb 0299 313d 6fa7 903d 7515 963d
00000170: e236 3c3d 0097 96b9 d411 d83c c879 79bc
00000180: 3cd3 dd3c dafb 493d 77bc 94bd 7190 9b3d
00000190: 30a9 89bc 7d12 983d ee35 46bd 1032 acbc
000001a0: 7473 9dbd 9293 673d f25b 613d 2039 583b
000001b0: 60b8 633c 90b0 983b 8130 963d 1148 9c3d
000001c0: 1595 833d 3fa1 a53d 78a8 19bd 7c53 87bd
000001d0: e20e 163d 7635 dbbc a0f6 39bd 5e34 87bd
000001e0: 28a2 53bc 66e2 0b3d 80a6 9dbd 9b9d 35bd
000001f0: 30ab 00bd 6072 b83c fe37 673d 63f0 43bd
00000200: e341 3fbd b7b4 86bd d0cc eebb 21ca 9e3d
00000210: 507a d13b e79e 82bd 442c ce3c defa 4d3d
00000220: 4209 1a3d 3389 24bd e26f 693d cb0c 7abd
00000230: ecc2 e83c b67a 7dbd 9ee2 0f3d 5b90 873d
00000240: a0ab 49bd fe10 1abd 2561 9a3d 20ae 023d
00000250: 5a0c 7c3d 4ba8 5abd aee6 4bbd c05c e63c
00000260: 2d10 843d 6854 8bbd 8688 01bd 3e56 353d
00000270: 1986 913d 007e 793c 6d8b 903d a225 9abd
00000280: a01f 24bb 13dc 22bd aa3d aabd 1b17 62bd
00000290: 10b8 dbbc bca7 c3bc 28e4 1abc 1316 9abd
000002a0: e0d4 cdbc 2a58 5e3d 72bd 3d3d decf 3c3d
000002b0: 4573 953d 5ed6 73bd ea5b 81bd 78d5 4cbc
000002c0: c023 6cbd e5f0 863d d6c1 57bd 000a a7bb
000002d0: e6f0 053d b687 c7bc 00a2 4b39 4ceb ed3c
000002e0: 0cac 8dbd 20f5 253c b573 963d f4ba 963c
000002f0: 281c 64bd 095b 893d 08df 633c 98c2 a0bd
00000300: b21e a6bd 88b2 41bc 3038 a8bd c657 76bd
00000310: ccd1 af3c dc22 f5bc aa09 743d 0040 283a
00000320: 3e23 3a3d d58e 873d 00d9 a3b9 a6a8 2c3d
00000330: 25e5 953d 708b 97bc 8c01 ffbc 4239 2c3d
00000340: d6d1 a6bd b261 6d3d 9ada 4a3d 8c88 c0bc
00000350: 26a4 27bd b820 41bc ae15 01bd 0bf1 6ebd
00000360: 60f8 413b 8302 50bd 2688 fdbc 436b 49bd
00000370: a8f8 1bbd 23c5 823d e065 7bbb 3973 843d
00000380: 6362 6abd 8038 7f3a 13d6 65bd 502c 0bbd
00000390: c01d ae3c 402a 7abd aa9a 433d 66e5 a6bd
000003a0: 76ef 23bd e4e9 c83c 123d 5e3d 92fb 7b3d
000003b0: d818 6cbd ea11 3a3d 4ee7 9bbd ec28 8f3c
000003c0: 5058 ad3c c099 863c 106c f23c d329 90bd
000003d0: e818 093d 14a0 b43c 4e4a 63bd 1072 3cbd
000003e0: bcfc c0bc 80ad 76bd 436d 9b3d c7fb 8c3d
000003f0: 3030 d33c dbf8 91bd b0cd 9ebb 9226 283d
-0.034617268 -0.0060745105 0.07319931 -0.025466554 -0.018015675 -0.05899802 -0.0037266836 0.031360872
-0.03785215 0.013776958 -0.061619233 0.06507424 -0.04335039 0.034727603 -0.015373029 0.007267691
0.05927717 -0.038135808 0.040358007 -0.06984462 0.025924526 0.06917768 0.044057675 -0.05621364
-0.026070606 0.08272954 0.0053289533 0.035065137 0.017789602 -0.028146178 0.0107529685 0.03910213
0.026046544 -0.029066097 -0.075863294 -0.0826424 -0.0057550296 0.030860282 -0.024305195 0.07692099
-0.047855526 -0.071934655 -0.032880247 0.032556348 -0.011204921 -0.038166773 -0.06825459 -0.04151073
-0.082362026 -0.07571724 -0.033415847 -0.009851225 0.010987394 -0.022442412 0.013274372 -0.026804745
-0.07869267 0.023583569 0.081232466 -0.049960107 -0.046250384 -8.342415e-05 0.07825301 -0.0016518235
-0.06553029 0.030384123 -0.07687228 0.04359127 -0.023418725 0.04822331 0.054652818 -0.053162508
-0.00023775548 -0.031133126 0.066340186 0.031287603 0.07342047 0.008408003 0.065609105 0.05297389
-0.062395327 -0.069789246 0.027134843 -0.07749592 0.06499312 0.009000681 -0.016772538 -0.062318385
-0.0044605434 0.04335881 0.070631854 0.07328311 0.045950778 -0.00028722733 0.026375689 -0.015226789
0.027078263 0.04931245 -0.07262509 0.075959094 -0.016804308 0.07425401 -0.048391275 -0.021019965
-0.076880366 0.05653722 0.055019327 0.0032993034 0.013898939 0.0046597198 0.0733347 0.07630933
0.064249195 0.08087396 -0.03751418 -0.0660772 0.036635287 -0.02675889 -0.045401216 -0.06601785
-0.012917079 0.034151457 -0.07697773 -0.044339757 -0.031413257 0.022515476 0.056449883 -0.047836673
-0.046693694 -0.06577437 -0.007287599 0.07753397 0.0063927546 -0.063779645 0.025167592 0.050288074
0.037606485 -0.040169906 0.056991465 -0.061047357 0.028413258 -0.061884604 0.03512823 0.066193305
-0.04923594 -0.03761386 0.0753806 0.03190434 0.061535217 -0.053383153 -0.04978054 0.028120399
0.06448398 -0.068032086 -0.03162434 0.0442717 0.07105655 0.015227795 0.07057843 -0.07526709
-0.0025043264 -0.03976066 -0.08312543 -0.055197816 -0.026821166 -0.023883693 -0.009453811 -0.075237416
-0.02512592 0.0542833 0.046323247 0.046096675 0.072973765 -0.05953061 -0.06316359 -0.012502067
-0.05765128 0.06588916 -0.05267509 -0.0050976276 0.03270044 -0.024356704 0.00019419938 0.029042862
-0.06917581 0.010129243 0.07346288 0.018399693 -0.055690914 0.06706817 0.013908155 -0.07849616
-0.081113234 -0.01182235 -0.08213842 -0.0601423 0.021462344 -0.029923849 0.05957953 0.0006418228
0.045443766 0.0661904 -0.0003125146 0.042153023 0.073190965 -0.018499106 -0.031128667 0.042046793
-0.08145492 0.057954498 0.04952488 -0.02350261 -0.04092803 -0.011787586 -0.031514816 -0.058335345
0.0029597506 -0.050783645 -0.03094871 -0.04917456 -0.038078934 0.06385257 -0.0038360283 0.064672895
-0.057222735 0.0009735897 -0.05611236 -0.033977807 0.02125442 -0.06107545 0.04775492 -0.08149223
-0.04002329 0.02452559 0.05425746 0.061519213 -0.05764088 0.04542724 -0.07612477 0.017475568
0.021160275 0.016430736 0.029592544 -0.07039227 0.033471018 0.022048987 -0.055490784 -0.046007216
-0.023558013 -0.060224056 0.075891994 0.0688396 0.025779814 -0.071275435 -0.004846297 0.04105241

conv2.bias f4 [32]
00000000: 06bb 3abd 1371 9b3d 1a0e 523d ee2d 66bd
00000010: 00e1 60bb ce7c 5cbd e037 52bc 16d5 593d
00000020: 30cb e3bb a049 56bd 469e 593d fb60 9fbd
00000030: ab0b 8fbd 8cb3 f2bc 7a01 773d 32cc 3a3d
00000040: ca42 6e3d b83f 2cbd e0d6 2b3c 6203 553d
00000050: 301b a2bc 8e57 76bd 1077 9a3c 66f2 03bd
00000060: d0e1 eabc de07 84bd 547f 84bd babb 7f3d
00000070: 0000 6f39 ebfd 52bd c0a2 eb3c 9e2b 82bd
-0.045588516 0.075899266 0.05128298 -0.056196146 -0.0034313798 -0.05382996 -0.012830704 0.05318173
-0.006951712 -0.052316308 0.053129457 -0.077821694 -0.06984647 -0.02962663 0.060304143 0.045604892
0.058169164 -0.042052954 0.010488242 0.05200518 -0.019788355 -0.060142092 0.018855602 -0.03221359
-0.028672129 -0.06446813 -0.064695984 0.06243489 0.00022792816 -0.051511686 0.028764129 -0.063559756

fc.weight f4 [10, 1152]
00000000: f42a 3bbc 6844 3e3b ceda 03bc fc91 89bc
00000010: 0141 f13c fb52 bfbc 7859 2a3b 543a cfbb
00000020: e29e 2c3c 100c ef3a 83e8 b23c 4c06 cabb
00000030: f87f 3ebb d4cf c2bc 469f 12bc 6d36 dbbc
00000040: 80d9 8b3a 383e 2abb 6eaa 45bc 0407 a2bc
00000050: cae4 0fbc c6d5 653c 92e8 c8bc 02a3 1f3c
00000060: f77c b93c 4407 13bc 6dc2 e9bc 1096 00bb
00000070: af15 9e3c 4213 1cbc 452d cc3c a71a ebbc
00000080: 4bd3 ae3c d2d0 a9bc 7718 d03c 00dc 303a
00000090: 33a7 d43c 425c edbc e091 4ebb f48f c6bc
000000a0: 5186 e13c dba5 d2bc 71ad b83c 1e02 94bc
000000b0: b30b dd3c a048 343a 80e1 4039 7bf5 db3c
000000c0: e0ed 63bb 9a5e 8cbc 648d 97bc 60a1 31bb
000000d0: 9814 abbc 4c72 d2bc 7a37 113c da9d 613c
000000e0: 7ed5 2a3c 2148 883c 7e91 2e3c 0f2a dcbc
000000f0: 315f 79bc d9f2 ee3c ca59 e3bc b5b2 f03c
00000100: d520 d63c 8e91 3fbc 0616 6c3c a01f 133a
00000110: f2df 653c 9daa a1bc a432 f33b 43ae b03c
00000120: 4050 63bc 78c7 2cbb e11c e43c 4a31 773c
00000130: f526 95bc 2ed4 abbc a639 5a3c e8a9 b0bc
00000140: 1f87 853c 4039 6cbb 7898 05bb e090 3fbb
00000150: f90c d13c 40a3 8a3a abcb b1bc 3b2b a33c
00000160: f647 4c3c dcca 923b efc3 b43c dcc4 60bc
00000170: fea1 333c 506c b1bc dd18 8a3c bed0 9fbc
00000180: 767c 0d3c f066 ecbb 8621 6f3c 1d84 dc3c
00000190: a383 e43c 5279 4dbc 74bd d7bb 0861 cbbb
000001a0: f9c0 893c be39 0c3c 8f12 933c 1815 1e3b
000001b0: 40e1 54bb f915 dc3c 241d a53b c01a 4fbc
000001c0: 01f7 9abc 10a8 dfbc b3b6 d7bc f8e4 3b3b
000001d0: 000c 56bb 1b44 ea3c 8985 9abc 1427 9bbb
000001e0: 5716 e43c 0479 e73b ff0e 8ebc 591e be3c
000001f0: b4c2 96bc 8521 dd3c e3a6 d63c 785c 7ebb
00000200: f298 033c f8fe 37bb d2d6 0d3c 46f9 bbbc
00000210: 5698 0b3c fcc9 b53b 2c6d af3b f9e3 c03c
00000220: 605b bdbb b460 c6bc 66fb 2e3c 9f22 90bc
00000230: cd99 d83c 10de c63a cbb3 d33c e971 87bc
00000240: b0c8 26bb e95d b13c aaf2 01bc d17e d33c
00000250: 39cb ebbc 65aa f03c 4575 63bc f1c3 95bc
00000260: 6568 eb3c 40d2 d139 acc8 3cbc 2c6b 21bc
00000270: 8223 d4bc ca26 50bc 6f30 cbbc 610c b7bc
00000280: 30ac acbb 2b25 e63c 3cb4 c4bc bd5c 933c
00000290: f470 d93b 30c3 7dbb d257 3a3c ee1c e7bc
000002a0: 31b5 e13c 847f 80bb 58d5 31bc 773c c9bc
000002b0: e608 e3bc 30cb 14bb 3653 183c a179 953c
000002c0: 18ff d6bc 50dd 823a 5187 7fbc 6b37 65bc
000002d0: b1ac ba3c b26a 9bbc 7822 7ebb 80bb b439
000002e0: 42dd 4a3c 44cb e7bc 0a32 bdbc f7d9 d3bc
000002f0: b0f8 5bbc 1f43 993c 619e ba3c d97b a43c
00000300: 9167 db3c 80da c8b9 78ea d9bc 6ecc 0cbc
00000310: df11 dfbc 7ef5 723c 585a 39bb 0c7d 39bc
00000320: 9abd 46bc 067a 7bbc 4f8d 9fbc ff26 74bc
00000330: e8f6 edbb 9e45 3abc 8cbf da3b 0a87 113c
00000340: 2428 b4bc 3e1e 083c 0c62 c3bc 65e2 8e3c
00000350: f86b cbbc 06a7 18bc 8c7c e3bc d52b e83c
00000360: 1bf3 cc3c 4a95 573c c4db d03b 7453 da3b
00000370: 2670 463c 0a04 663c 75ea e9bc 5d8e e63c
00000380: 4e40 253c 3a13 6ebc 009e ac39 aa01 84bc
00000390: 8885 c9bc 58b3 9abc dc02 5fbc 7f55 ca3c
000003a0: 60e8 b5bb 0e84 033c dd4b e0bc ef93 bcbc
000003b0: e40c 9d3b af09 8f3c 1818 613b d2e7 a6bc
000003c0: af07 85bc ec92 debc 4eaa 183c 5fad 8f3c
000003d0: 18c9 713b 4e0a 6f3c f6db 103c fcee cc3b
000003e0: 106e b0bc 5f61 b93c 0c0c 99bb 344f 8abc
000003f0: c040 95ba 4bd3 d1bc 366b 87bc d227 8bbc
-0.011423815 0.0029032473 -0.008047773 -0.016793244 0.029449942 -0.023354998 0.002599327 -0.006324092
0.0105359275 0.0018237848 0.021839386 -0.0061653014 -0.0029067975 -0.02378074 -0.008949107 -0.02675935
0.0010669678 -0.0025977027 -0.012064559 -0.019778736 -0.008782575 0.014028018 -0.02452496 0.009743454
0.022642596 -0.0089739 -0.028535092 -0.0019620694 0.019297449 -0.009526076 0.02492393 -0.028699232
0.021340987 -0.020729456 0.02540229 0.000674665 0.025958633 -0.028974656 -0.0031520054 -0.024238564
0.027529867 -0.025713852 0.02254364 -0.018067416 0.026983118 0.0006877277 0.00018394552 0.026850453
-0.0034779236 -0.017134953 -0.018500037 -0.0027104244 -0.020883843 -0.025689267 0.008863324 0.013770545
0.010426877 0.016635956 0.010654805 -0.026875524 -0.015220449 0.029168533 -0.027752776 0.02938209
0.026138702 -0.011692418 0.014409548 0.00056123175 0.0140304435 -0.019734675 0.0074218083 0.02156747
-0.013874114 -0.002636401 0.027845802 0.015087435 -0.018207053 -0.020975199 0.0133194085 -0.021565393
0.016299782 -0.0036044866 -0.0020385068 -0.002923064 0.025518881 0.0010577217 -0.021703562 0.019918075
0.012468329 0.004479749 0.022066085 -0.01371881 0.010963915 -0.021658093 0.016857559 -0.019508716
0.008635631 -0.0072144195 0.014595395 0.026918465 0.0278948 -0.012541132 -0.006583864 -0.0062066354
0.01681565 0.008558689 0.017953185 0.002412146 -0.0032482892 0.026865946 0.005038874 -0.012640655
-0.018916609 -0.027301818 -0.026332235 0.0028670412 -0.003266096 0.028596928 -0.018862503 -0.004734883
0.027842684 0.0070639867 -0.017341135 0.02320783 -0.018403389 0.026993522 0.026202625 -0.003881244
0.0080320705 -0.0028075557 0.008657174 -0.022946011 0.008520206 0.00554776 0.0053535905 0.023546206
-0.005778715 -0.024216034 0.010680055 -0.017594634 0.026440525 0.0015172381 0.025842568 -0.016533809
-0.002544921 0.021651225 -0.007931391 0.025817307 -0.028783428 0.029378125 -0.01388294 -0.018281909
0.028736303 0.00040020235 -0.011522453 -0.009852212 -0.025895838 -0.0127045605 -0.024803368 -0.02234477
-0.00526955 0.028093895 -0.024011724 0.017988557 0.0066357795 -0.0038721077 0.011373477 -0.028212037
0.02755222 -0.003921451 -0.010854088 -0.024564965 -0.027714204 -0.0022704117 0.009297183 0.018246474
-0.026244685 0.0009984169 -0.015596227 -0.013990263 0.022787424 -0.018971775 -0.003877787 0.00034471974
0.012381854 -0.028295167 -0.02309515 -0.02586077 -0.013425991 0.018708764 0.0227806 0.020078586
0.026782783 -0.00038309768 -0.026601061 -0.008593662 -0.027230201 0.014829038 -0.002828261 -0.011321317
-0.0121301655 -0.015348917 -0.01947656 -0.0149018755 -0.0072620995 -0.011369137 0.006675666 0.0088822935
-0.021991797 0.008307992 -0.023850463 0.017441938 -0.024831757 -0.009317165 -0.02776935 0.028341213
0.025018265 0.013158152 0.0063738544 0.0066627804 0.012111699 0.014039049 -0.02855418 0.028144056
0.010086132 -0.014530951 0.00032924116 -0.016114075 -0.024599805 -0.018884346 -0.013611522 0.02469897
-0.005551383 0.00802709 -0.027379924 -0.023019759 0.0047927964 0.017460672 0.0034346636 -0.020374212
-0.016239015 -0.027169667 0.009317948 0.017538724 0.0036893543 0.014589859 0.008841505 0.006254075
-0.021536857 0.022629438 -0.0046706256 -0.01688347 -0.0011387095 -0.025613448 -0.016530614 -0.016986761

fc.bias f4 [10]
00000000: c7d4 b3bc ce07 e1bc 40d9 dbbb 599e 923c
00000010: 9475 d3bc b7b5 ec3c 57cb 933c 1db8 cf3c
00000020: 0fe3 a5bc 5d28 913c
-0.021952046 -0.027469542 -0.006709248 0.017897772 -0.025812902 0.028895242 0.018041296 0.025356347
-0.020249872 0.017719442
