test_mlp.onnx (onnx, 264164 bytes, 4 tensors)

fc1.weight f4 [256, 128]
0	0xbcb97010	-0.022636443
1	0xbc0bef68	-0.008540966
2	0x3da7f993	0.082018994
3	0xbd7f710c	-0.06236367
4	0x3ac2fe40	0.0014876798
5	0xba576200	-0.0008216202
6	0xbd9f2858	-0.07771367
7	0x3c488f80	0.012241244
8	0xbd9ad6cb	-0.075605
9	0xbd3d510e	-0.046219878
10	0xbd4c4508	-0.04987052
11	0xbdab541f	-0.08365654
12	0x3cb94950	0.022617966
13	0xba36e180	-0.0006976351
14	0x3cbfccc0	0.023413062
15	0xbd82b9b8	-0.06383079
16	0xbd37c093	-0.044861387
17	0x3ceb7140	0.028740525
18	0xbcebda26	-0.028790545
19	0xbc19d410	-0.009388939
20	0xbd922dee	-0.07137667
21	0xbd4e12c0	-0.05031085
22	0xbbff3da0	-0.0077893287
23	0xbd749558	-0.059712738
24	0xbd17bae1	-0.037043456
25	0xbd9205a7	-0.07129984
26	0x3d091038	0.033462733
27	0xbd53fbf5	-0.051753957
28	0xbdae109c	-0.08499262
29	0x3d7efa0a	0.062250175
30	0x3cdc0000	0.026855469
31	0xbc893180	-0.016747236
32	0xbd24272b	-0.040076416
33	0x3d68a2d2	0.056795903
34	0xbcf8d170	-0.030373305
35	0xbcc11188	-0.02356793
36	0x3c82838c	0.015931867
37	0x3d6fdd3a	0.058560587
38	0x3da87783	0.0822592
39	0xbd2fbab2	-0.042902656
40	0x3d04e7c2	0.032447584
41	0x3d830421	0.06397272
42	0x3cc041c0	0.023468852
43	0xbb70a160	-0.003671728
44	0xbc0d42a0	-0.008621842
45	0x3d469282	0.048479564
46	0xbaf2c5c0	-0.0018522069
47	0xbcc96d74	-0.024588324
48	0xbbb982a0	-0.0056613237
49	0xbd4ea13b	-0.05044673
50	0xbda7ef86	-0.08199982
51	0xbcd84386	-0.026399385
52	0x3d613392	0.054980822
53	0xbda10e15	-0.07864014
54	0x3db35733	0.08756866
55	0x3c26b148	0.010174103
56	0x3cc09e54	0.023512997
57	0x3ce2b960	0.027676284
58	0xbd99b950	-0.07506049
59	0x3d816a89	0.06319148
60	0xbcdba31e	-0.026811179
61	0xbd8b4795	-0.068007626
62	0x3d381fb2	0.044952102
63	0xbd725942	-0.059167154
64	0xbd308444	-0.04309489
65	0x3da8ff53	0.08251824
66	0xbd632588	-0.055455714
67	0x3dadda3b	0.0848889
68	0xbc55f1d8	-0.013058148
69	0x3d31a232	0.043367572
70	0xbda95884	-0.08268836
71	0x3c1838d8	0.009290896
72	0x3d2c5322	0.04207147
73	0xbd51ede2	-0.051252253
74	0x3c76e0c0	0.015068233
75	0x3c965930	0.018353075
76	0xbd9146ab	-0.07093557
77	0x3d38cfca	0.045120038
78	0x3b9319f0	0.004489176
79	0x3d3cc6d2	0.046088047
80	0x3c9de1cc	0.019272707
81	0x3c3c8e80	0.011508584
82	0xbd77db3e	-0.06051182
83	0x3d922559	0.0713603
84	0xbc67f5b0	-0.014157698
85	0xbd3c02cd	-0.04590111
86	0x3d19d08a	0.037552394
87	0x3cb2bae4	0.021817632
88	0xbd04ed56	-0.032452904
89	0x3da1e2a7	0.07904559
90	0x3d420fae	0.047378235
91	0x3ca6eda0	0.02037698
92	0xbd8b2de9	-0.06795866
93	0xbc2bfc10	-0.010497108
94	0x3da8d427	0.0824359
95	0x3cc73e98	0.02432184
96	0xbd359d6b	-0.04433958
97	0xbd7fdb12	-0.06246478
98	0x3d7567be	0.05991339
99	0xbcc48f78	-0.023994192
100	0x3d5fdc86	0.054653667
101	0x3dac29e1	0.08406425
102	0x3c1928f8	0.009348147
103	0x3d61310e	0.054978423
104	0x3d12cac8	0.03583792
105	0x3db20ab7	0.0869345
106	0x3d88e511	0.06684316
107	0xbc2d9d48	-0.010596581
108	0xbd128a25	-0.035776276
109	0xbd6de7ae	-0.058082275
110	0xbd1ac4ba	-0.03778527
111	0xbd68e837	-0.056862082
112	0xbcf83baa	-0.030301888
113	0x3da1bde9	0.078975506
114	0x3d26e966	0.04074993
115	0x3d186fa2	0.037215836
116	0x3c423a40	0.011854708
117	0xbd12769a	-0.03575764
118	0xbc9068ac	-0.017628036
119	0x38790000	5.9366226e-05
120	0x3d033930	0.03203696
121	0x3d44a746	0.048011087
122	0xbd958092	-0.072999135
123	0x3c83edf0	0.016104668
124	0xbc5224a0	-0.012826115
125	0xbd1c1385	-0.038104553
126	0xbcc1e618	-0.023669288
127	0x3d970fa1	0.07376028
128	0x3d5ea352	0.054354973
129	0x3da57fd5	0.08081023
130	0xbc6bf208	-0.014400966
131	0xbdab1740	-0.08354044
132	0xbda76bfa	-0.08174892
133	0xbd899ec8	-0.06719738
134	0x3da83431	0.0821308
135	0x3d86ec95	0.06588093
136	0xbd9b5384	-0.07584289
137	0xbda266c5	-0.07929758
138	0xbda689e2	-0.08131768
139	0xbcf7e9d0	-0.030262858
140	0xbcac2488	-0.021013513
141	0x3bb60f80	0.005556047
142	0xbd811f3e	-0.06304787
143	0x3af7a880	0.0018894821
144	0x3cff051c	0.031130366
145	0xbd8ce4b4	-0.06879559
146	0xbb878b50	-0.0041364804
147	0x3d42893a	0.04749415
148	0xbd85f923	-0.0654166
149	0xbc1e25a0	-0.009652525
150	0xbc875770	-0.016521186
151	0xbd7e1512	-0.062031813
152	0xbc441548	-0.0119679645
153	0xbd644dab	-0.055738132
154	0xbdb47007	-0.0881043
155	0xbd889ab4	-0.06670132
156	0xbd2bfa7d	-0.04198693
157	0x3c075800	0.008260727
158	0xbcafd5f8	-0.021464333
159	0xbcdbd936	-0.026836973
160	0x3d90cff7	0.07070916
161	0x3d69d3da	0.057086803
162	0x3d5ff44a	0.05467633
163	0xbd8ff806	-0.070297286
164	0xbd588400	-0.05286026
165	0x3a07cf80	0.0005180761
166	0xbdb3a20f	-0.087711446
167	0xbd015898	-0.03157863
168	0xbcc8e7e4	-0.024524637
169	0x3d9b8375	0.07593433
170	0xbc20a918	-0.00980594
171	0xbdb00fa7	-0.085967354
172	0x3dafa6db	0.08576747
173	0x3c4d7388	0.012539752
174	0x3d6c4f26	0.05769267
175	0xbd988b93	-0.07448497
176	0x3c569160	0.013096184
177	0x3d746e5a	0.059675552
178	0x3c763640	0.015027583
179	0x3cf46994	0.0298355
180	0xbc9271f0	-0.017876595
181	0xbcb7fbc4	-0.022458918
182	0x3d8291bd	0.063754536
183	0xbd912e8b	-0.070889555
184	0xbd0bff08	-0.034178764
185	0x3d96f5eb	0.07371124
186	0x3d23fefe	0.0400381
187	0x3c52a250	0.012856081
188	0xbc4b73f8	-0.012417786
189	0xbd80c509	-0.062875815
190	0xbd9f8f8c	-0.07791051
191	0x3cafd89c	0.021465592
192	0x3d81fbad	0.063468315
193	0x3da95af5	0.08269302
194	0x3cf4f2d4	0.029900946
195	0xbccfcbcc	-0.025365733
196	0xbc81abf0	-0.015829057
197	0x3c89a634	0.016802885
198	0x3d8aaf4f	0.06771719
199	0x3d3290ae	0.04359501
200	0xbd9ab289	-0.07553584
201	0x3b686b20	0.0035464242
202	0x3c920f58	0.017829582
203	0xbd4e0ab8	-0.05030319
204	0xbd941ed9	-0.07232446
205	0xbdb23657	-0.08701771
206	0xbd59c0fc	-0.05316256
207	0x3cd45a30	0.025921911
208	0xbd380e1d	-0.044935334
209	0xbcef2334	-0.02919159
210	0x3d8cb375	0.06870166
211	0xbdb2cc74	-0.087304026
212	0xbd969b7d	-0.07353876
213	0x3d617152	0.05503971
214	0xbd3608a5	-0.044441838
215	0xbcd93da8	-0.026518658
216	0xbd466479	-0.048435662
217	0xbbc126d0	-0.0058945194
218	0xbd42a286	-0.047518276
219	0xbd9a8439	-0.07544751
220	0x3d796b9a	0.060893632
221	0x3db15ead	0.08660636
222	0x3c91a320	0.01777798
223	0xbc28ce00	-0.0103030205
224	0x3d47e8c2	0.04880596
225	0x3d879eed	0.066221096
226	0xbc162b38	-0.009165578
227	0xbc02ac98	-0.00797572
228	0x3d7ccb46	0.061717294
229	0x3c2ebb38	0.010664754
230	0xbd33a505	-0.043858547
231	0x3be2e3a0	0.0069241077
232	0x3d5992da	0.053118564
233	0xbc05dcc8	-0.008170314
234	0xbd1551fe	-0.036455147
235	0x3ba645d0	0.0050742403
236	0xbd2b4aaa	-0.041819252
237	0x3d0bdefc	0.0341482
238	0xbc29de00	-0.01036787
239	0xbda33ae5	-0.079702176
240	0xbd9d1fea	-0.07672103
241	0x3d7cac3e	0.0616877
242	0x3adb9b00	0.0016754568
243	0x3c216000	0.009849548
244	0xbcbada1c	-0.02280908
245	0xbd933b70	-0.07189071
246	0xbd38fa3c	-0.045160517
247	0xbd8bb854	-0.06822267
248	0xbcbbc254	-0.022919811
249	0xbd802a73	-0.062580965
250	0x3d01f100	0.031723976
251	0x3da9b2d3	0.08286061
252	0xbd624cf8	-0.055249184
253	0xbc9b6734	-0.01897011
254	0xbd7bec7a	-0.06150482
255	0x3c9c310c	0.019066356

fc1.bias f4 [256]
0	0x3c95d410	0.018289596
1	0xbdaf2d9a	-0.0855362
2	0x3d336b9a	0.04380379
3	0xbd452e00	-0.048139572
4	0xbd323353	-0.043505978
5	0xbd31d0c0	-0.04341197
6	0xbd2c89a2	-0.042123444
7	0x3c52b2f0	0.012860045
8	0xbda7c0a3	-0.081910394
9	0x3cd44090	0.025909692
10	0xbda8897f	-0.0822935
11	0x3ca941f0	0.020661324
12	0xbd4feb9b	-0.0507618
13	0x3da6a843	0.08137562
14	0xbd19d21a	-0.037553884
15	0xbc2784c0	-0.010224521
16	0xbd5584d5	-0.05212863
17	0x3c2d1320	0.010563642
18	0xbc3a26f8	-0.01136183
19	0xbcc30b38	-0.02380906
20	0x3d1f483e	0.038887255
21	0xbd25db8a	-0.040492572
22	0x3d83403f	0.06408738
23	0x3d8e2701	0.06941033
24	0x3ca5cfd0	0.020240694
25	0x3d9bb287	0.07602411
26	0xbc4ba8f0	-0.012430415
27	0x3daf8af9	0.08571429
28	0x3dab11df	0.08353018
29	0xbc9d2f48	-0.019187585
30	0x3d85990f	0.06523334
31	0xb96a1800	-0.0002232492
32	0x3d3231aa	0.043504395
33	0x3bacc670	0.005272679
34	0x3d018c04	0.03162767
35	0xbda6864f	-0.08131086
36	0x3d7e1256	0.062029205
37	0x3d8e46bd	0.06947086
38	0x3cc61220	0.024178565
39	0x3d8e90db	0.06961223
40	0x3d1d7ec6	0.03845098
41	0x3cfdc8e8	0.030979589
42	0xbca93d84	-0.020659216
43	0x3d133476	0.035938703
44	0x3cd6c320	0.02621609
45	0x3d63e736	0.05564042
46	0xbd95bb7f	-0.07311153
47	0xbca6ebb4	-0.020376064
48	0x3d8d7e77	0.06908887
49	0x3c5d5108	0.013508089
50	0x3c15bd18	0.009139322
51	0xbcaf1a30	-0.021374792
52	0xbd56289e	-0.05228483
53	0x3d9a864f	0.075451486
54	0xbd895808	-0.06706244
55	0x3d7fabea	0.06241981
56	0xbd5d8f74	-0.054091886
57	0x3d9afd85	0.07567886
58	0xbd3c65c4	-0.04599549
59	0xbd842782	-0.06452848
60	0xbcb2f940	-0.021847367
61	0x3d00efda	0.03147874
62	0x3d9bcb37	0.076071195
63	0x3db377b9	0.0876307
64	0xbd8185bd	-0.06324337
65	0x3d603f9e	0.05474817
66	0x3d7d305a	0.06181369
67	0x3da02009	0.0781861
68	0x3c050188	0.008118041
69	0xbccd8b70	-0.025090903
70	0x3da10357	0.07861965
71	0xbd984459	-0.07434911
72	0xbdb04d99	-0.086085506
73	0xbd5f4a26	-0.054514073
74	0xbd9ddbc8	-0.077079356
75	0x3c6a2df8	0.014293186
76	0x3cbc1110	0.022957355
77	0xbc32e488	-0.010918744
78	0x3d1fa906	0.038979553
79	0xbd87868e	-0.06617461
80	0xbd830573	-0.06397524
81	0xbd3e614d	-0.046479512
82	0x3ceec1f4	0.029145218
83	0xbd8257db	-0.06364413
84	0x3ca2bb00	0.01986456
85	0xbd850368	-0.0649479
86	0xbd40ae96	-0.047041498
87	0x3da4c8c7	0.08046108
88	0x3c30e878	0.010797612
89	0xbd4fdb6b	-0.050746363
90	0x3d8b6183	0.06805708
91	0xbd7df880	-0.062004566
92	0x3d71e66e	0.059057645
93	0xbcbe1438	-0.023203
94	0xbc230490	-0.009949818
95	0xbd04e43e	-0.03244423
96	0xbbbadb40	-0.005702406
97	0x3d08fece	0.033446126
98	0xbcf7c578	-0.030245528
99	0xbcd6ce70	-0.026221484
100	0xbd1e6994	-0.038674906
101	0x3c866dc4	0.016409762
102	0xbb4d28c0	-0.0031304806
103	0x3c1fcd08	0.009753473
104	0x3d900a35	0.07033197
105	0xba9e58c0	-0.0012080893
106	0x3c4731f0	0.012157902
107	0xbd4e174d	-0.05031519
108	0x3daf00e5	0.085450925
109	0x3acc4780	0.0015585274
110	0xbd9c65fb	-0.07636639
111	0x3d818145	0.06323484
112	0xbd04e271	-0.032442514
113	0xbb49a400	-0.0030767918
114	0xbd93bf72	-0.0721425
115	0xbd38de80	-0.045134068
116	0x3d001b5c	0.031276092
117	0x3d9ebff9	0.0775146
118	0xbd98b2d8	-0.07455987
119	0x3d095206	0.03352549
120	0x3d6dffce	0.058105282
121	0xbd6cdd69	-0.05782834
122	0xbcc438d4	-0.023952879
123	0x3da2b333	0.07944336
124	0x3d660c96	0.056164347
125	0xbd6fc3fe	-0.058536522
126	0xbda3cc97	-0.07998007
127	0xbda400fa	-0.08007999
128	0x3d61c172	0.055116124
129	0x3db16255	0.086613335
130	0xbd04500f	-0.032302912
131	0xbda02f64	-0.07821539
132	0x3dacbc6f	0.08434378
133	0x3d4b0d56	0.049573265
134	0x3d0447a8	0.0322949
135	0xbcaf6734	-0.021411516
136	0xbd35cb40	-0.044383287
137	0x3d920e9b	0.07131692
138	0x3d93cdff	0.07217025
139	0xbcc405a4	-0.02392847
140	0xbd27466e	-0.04083865
141	0xbda3cf7a	-0.079985574
142	0x3ca61138	0.020271882
143	0x3ca2c988	0.019871488
144	0xbd7531fa	-0.059862114
145	0xbca58b14	-0.02020792
146	0xbd12ed7c	-0.035871014
147	0x3d5ad962	0.05342997
148	0x3c7176b0	0.01473777
149	0xbdae2cca	-0.085046366
150	0x3d1afa96	0.037836634
151	0x3d5f5942	0.054528482
152	0xbd622b10	-0.05521685
153	0x3c916bd4	0.017751612
154	0x3c9a8338	0.018861398
155	0x3d9ad6d9	0.0756051
156	0xbc468810	-0.012117401
157	0xbcb75ef0	-0.022384137
158	0xbd8573fe	-0.065162644
159	0xbd2d29dc	-0.04227625
160	0xbd2505f3	-0.040288877
161	0x3d23a2d6	0.039950214
162	0x3d24ce5a	0.040235855
163	0x3d966be9	0.07344801
164	0xbd47c97f	-0.048776146
165	0xbd99e621	-0.07514597
166	0xbc813b84	-0.01577545
167	0x3c2a3548	0.01038868
168	0xbd4a9037	-0.04945394
169	0xbd45f9b9	-0.048333857
170	0xbd50c2f1	-0.05096716
171	0x3da97c91	0.08275712
172	0xbc060590	-0.008180037
173	0xbd1d4deb	-0.038404386
174	0xbd2f502b	-0.042801064
175	0xbd814e1e	-0.06313728
176	0x3d057b38	0.032588214
177	0xbdb0032e	-0.085943565
178	0xbd9e5b85	-0.077323
179	0xbd9271c2	-0.07150604
180	0x3c189508	0.009312876
181	0x3da4055f	0.08008837
182	0x3d93f681	0.07224751
183	0x3b4ef980	0.003158182
184	0x3cddefec	0.027091943
185	0x3c02b160	0.00797686
186	0xbceb36c8	-0.028712645
187	0x3d71d01a	0.05903635
188	0x3da4def3	0.08050337
189	0xbc971060	-0.018440425
190	0x3ba8dc30	0.0051532015
191	0x3d8f170f	0.0698682
192	0x3d0511e0	0.03248775
193	0xbc704bb0	-0.014666483
194	0x3c0a2378	0.008431308
195	0x3b02f600	0.0019983053
196	0x3c241468	0.010014631
197	0x3cce6bb8	0.025197849
198	0x3d00f944	0.03148772
199	0x3ce8e2f4	0.028428532
200	0x3cca91ec	0.024727784
201	0x3c516560	0.012780517
202	0xbd9828b2	-0.07429637
203	0x3d066eee	0.032820635
204	0xba42db00	-0.0007433146
205	0xbd64a2ee	-0.055819444
206	0x3c8fbdfc	0.017546646
207	0xbd653c43	-0.055965673
208	0x3cf979d0	0.030453593
209	0xbd9fa895	-0.07795826
210	0xbcdef976	-0.027218562
211	0x3be7d160	0.00707452
212	0x3d62fa7a	0.055414654
213	0xbbbcc2e0	-0.0057605356
214	0xbdae3619	-0.08506412
215	0xbd477581	-0.048696045
216	0x3d9a3ba1	0.075309046
217	0xbd980e4b	-0.07424601
218	0x3da40e93	0.08010592
219	0x3b6dc420	0.003628023
220	0xbdad9542	-0.08475734
221	0xbd9d7a2f	-0.0768932
222	0x3cbaae14	0.022788085
223	0xbcf69734	-0.030101396
224	0xbd776b0e	-0.06040483
225	0xbd609c85	-0.05483677
226	0x3d8c5a9f	0.06853222
227	0x3c974c88	0.01846911
228	0x3a17de00	0.00057932734
229	0x3d2da40a	0.042392768
230	0xbb25e660	-0.0025314316
231	0xbd2b538f	-0.041827735
232	0x3d5847ba	0.05280278
233	0xbd8fe9c5	-0.0702701
234	0xbc91f11c	-0.017815165
235	0xbc228450	-0.009919241
236	0xbc161490	-0.009160176
237	0x3d9de189	0.07709033
238	0x3c8f7160	0.017510116
239	0x3d152de0	0.036420703
240	0x3d1e15ba	0.03859494
241	0xbce46944	-0.027882226
242	0xbdb103cf	-0.086433046
243	0x3da7428f	0.08166992
244	0xbda11a86	-0.07866387
245	0xbd0ed9c3	-0.034875643
246	0x3c91228c	0.017716669
247	0xbd58d820	-0.052940488
248	0xbd4bb07c	-0.049728855
249	0xbd35b754	-0.04436429
250	0xbd87e7d2	-0.06636013
251	0xbd14e900	-0.03635502
252	0x3cba1d30	0.022718996
253	0x3da37109	0.07980544
254	0xbd9a1362	-0.07523228
255	0x3d6ba346	0.057528757

fc2.weight f4 [128, 256]
0	0x3c9b98a8	0.01899369
1	0xbd64bfc6	-0.055846952
2	0x3c28b9d0	0.010298207
3	0xbc682108	-0.0141680315
4	0xbc52c6a8	-0.012864746
5	0xbd5d5522	-0.054036267
6	0xbd1fefc8	-0.039047033
7	0xbcabe5b4	-0.020983554
8	0xbd7d7370	-0.061877668
9	0x3d602d32	0.0547306
10	0xbd7c210e	-0.06155496
11	0x3d6f0230	0.058351696
12	0xbcb25f88	-0.021774068
13	0xbd19357a	-0.037404515
14	0x3d1e6428	0.038669735
15	0x3cd838bc	0.02639424
16	0x3d741d90	0.059598505
17	0xbb990bd0	-0.0046705976
18	0x3be71ed0	0.0070532337
19	0x3d1c1be6	0.038112544
20	0xbd732ee2	-0.059370883
21	0x3d2e1e80	0.042509556
22	0xbd697e38	-0.057005137
23	0x3d04c13e	0.032410853
24	0xbd63e3ce	-0.055637173
25	0x3d703b52	0.058650322
26	0xbd63373c	-0.055472597
27	0x3c900458	0.017580196
28	0xbd64079c	-0.05567132
29	0x3d66d1fe	0.056352608
30	0x3d52681c	0.051368818
31	0xbd79a7b4	-0.06095095
32	0xbd6ce882	-0.057838924
33	0xbd0c65ca	-0.03427676
34	0xbd33b678	-0.043875188
35	0xbcc7df08	-0.024398342
36	0x3c9d47cc	0.019199274
37	0xbcecfd80	-0.028929472
38	0xbb9b1b30	-0.0047334656
39	0xbc21f2a0	-0.009884506
40	0xbce5c700	-0.028048992
41	0x3d3468be	0.044045202
42	0xbcad3dac	-0.021147572
43	0xbcb1b094	-0.021690644
44	0xbca77768	-0.02044268
45	0xbc95582c	-0.01823052
46	0x3c905ba4	0.017621823
47	0x3d36f5d8	0.04466805
48	0xbced6644	-0.028979428
49	0x3c620f90	0.013797656
50	0x3d43eb20	0.047831655
51	0x3c657668	0.014005281
52	0x3d0484f6	0.032353364
53	0x3c2e4c90	0.010638371
54	0x3d681f74	0.05667062
55	0x3d5c3ff4	0.053771928
56	0xbc46bae8	-0.012129523
57	0xb9a44600	-0.00031332672
58	0x3d366e86	0.044538997
59	0xbd173380	-0.03691435
60	0xbd58e342	-0.052951105
61	0xbd63e3ca	-0.05563716
62	0x3d7cdc74	0.061733678
63	0xbc13d478	-0.0090228245
64	0xbafbbb40	-0.0019205585
65	0xbd036214	-0.032075956
66	0x3cf80930	0.030277818
67	0xbc2eb038	-0.010662131
68	0xbd37b406	-0.044849418
69	0xbd032236	-0.032015048
70	0xbc7ff9a0	-0.01562348
71	0x3d5bcdfe	0.053663246
72	0x3d31438e	0.043277316
73	0xbc3f4c60	-0.011675924
74	0xbb9ca5b0	-0.0047804937
75	0x3c979e84	0.018508203
76	0x3cddb7f0	0.027065247
77	0x3ba18600	0.004929304
78	0xbbfb3fc0	-0.0076675117
79	0x3d3b0482	0.045658596
80	0x3b39cbc0	0.0028350204
81	0xbd11efe4	-0.03562917
82	0x3d2e4a08	0.04255107
83	0x3c211580	0.009831786
84	0xbd153dee	-0.036436014
85	0x3c90fc64	0.017698474
86	0xbd7a5d56	-0.06112417
87	0x3c8e9210	0.017403632
88	0x3d5de8a4	0.05417694
89	0x3cce0a9c	0.025151543
90	0x3d17d276	0.037065946
91	0xbd0ce5f0	-0.034398973
92	0x3b0d92e0	0.0021602437
93	0x3d2bad96	0.04191359
94	0xbc3cc418	-0.011521362
95	0x3cfce550	0.030871063
96	0x3d54eee4	0.051985636
97	0x3d0c2afa	0.034220673
98	0x3d180d3e	0.037122004
99	0xbd4300cc	-0.04760818
100	0xbd33e20e	-0.043916754
101	0xbc7c5298	-0.015400551
102	0xbcd73ff4	-0.026275612
103	0x3d41e0bc	0.047333464
104	0x3d077476	0.03307005
105	0x3d75bb90	0.059993327
106	0xbceca854	-0.028888859
107	0x3d060d54	0.032727554
108	0xbd0f1a9e	-0.034937494
109	0x3d62a2b4	0.055330947
110	0xbd64a0c0	-0.055817366
111	0x3cabecc4	0.020986922
112	0x3ce6e480	0.02818513
113	0xbcf63168	-0.030052856
114	0x3ca446b8	0.020053253
115	0x3c7ae428	0.015313186
116	0xbb974d10	-0.004617341
117	0x3ce7a1f0	0.02827546
118	0x3d65b13e	0.056077234
119	0x3ba53ba0	0.0050425082
120	0xbca61718	-0.020274684
121	0x3d731824	0.059349194
122	0x3c1934e8	0.009350993
123	0xbd6c2d2a	-0.05766026
124	0x3d327362	0.04356707
125	0xbd30236c	-0.04300253
126	0x3d2eacf8	0.042645425
127	0x3c46e300	0.012139082
128	0xba21d200	-0.0006172955
129	0xbd7e54c8	-0.062092572
130	0x3bd6ee30	0.006559156
131	0x3d12dd4c	0.035855576
132	0xbccf4e64	-0.025305934
133	0xbc816320	-0.015794337
134	0xbcdf23f4	-0.027238823
135	0xbd3d8044	-0.0462649
136	0x3d1dd316	0.038531385
137	0x3d6761ac	0.05648963
138	0x3c7252f0	0.014790282
139	0xbd5e7a2e	-0.05431574
140	0x3d1a2d82	0.037641056
141	0x3a938d40	0.0011257306
142	0xbd1f06b6	-0.03882476
143	0xbd7c9f7c	-0.061675534
144	0x3c8f2c00	0.017477036
145	0x3d596792	0.053077288
146	0xbd615a8c	-0.055017993
147	0x3cc97c18	0.024595305
148	0x3d7ae4de	0.06125342
149	0xbce36b50	-0.027761132
150	0x3d18703c	0.03721641
151	0xbd177308	-0.036974937
152	0x3bba1ba0	0.0056795627
153	0xbcf84784	-0.030307539
154	0xbcd82468	-0.026384547
155	0xbcff6b4c	-0.031179093
156	0x3cdbed48	0.026846543
157	0xbd36779a	-0.044547655
158	0xbd7fcd92	-0.062451907
159	0xbbcd3d40	-0.006263405
160	0xbd31c044	-0.04339625
161	0xbd72c8fc	-0.059273705
162	0xbcb4f260	-0.02208823
163	0xbce3ebf8	-0.02782248
164	0xbc9bdd30	-0.019026369
165	0x3ce97a14	0.028500594
166	0x3d18ede0	0.03733623
167	0x3d4eba66	0.050470732
168	0xbd1b57fc	-0.037925705
169	0x3d43749a	0.04771862
170	0xbd4b1bb8	-0.04958698
171	0x3c226d38	0.009913735
172	0x3d46558e	0.048421435
173	0xbd7f4c30	-0.062328517
174	0x3b367560	0.0027840957
175	0x3d203286	0.039110683
176	0x3a808540	0.0009805337
177	0xbbf4a250	-0.007465638
178	0x3cf8c944	0.030369408
179	0x3d3b1098	0.045670122
180	0xbc8a21c8	-0.016861811
181	0x3c0058f0	0.007833704
182	0x3c9b8834	0.018985845
183	0xbd1ed30e	-0.038775496
184	0x3c756010	0.014976516
185	0x3b9df140	0.004820019
186	0xbd14ee98	-0.036360353
187	0x3d1443f4	0.036197618
188	0xbca061ec	-0.019577943
189	0x3d688084	0.056763187
190	0xbd64e260	-0.05587995
191	0xbc8406bc	-0.016116492
192	0xbd4e75c0	-0.050405264
193	0x3d04ec02	0.032451637
194	0x3c8adc94	0.016950883
195	0xbd024d7c	-0.031812176
196	0xbd2a23d4	-0.041538075
197	0x3d767606	0.06017115
198	0xbd6284a2	-0.05530227
199	0x3cc3b1d8	0.023888513
200	0xbc1c35b8	-0.009534292
201	0x3bc1edb0	0.005918227
202	0xbca27fcc	-0.019836329
203	0x3d545ffe	0.051849358
204	0xbd0a3e88	-0.03375104
205	0x3d06fb18	0.032954305
206	0x3d471744	0.048606172
207	0xbd236e58	-0.039900154
208	0x3d5464d6	0.051853977
209	0x3d0baf80	0.034102917
210	0xbc5240a8	-0.012832798
211	0x3d1ee00c	0.038787887
212	0x3c832298	0.016007707
213	0x3cae2eb0	0.021262497
214	0x3d250f74	0.04029794
215	0x3d1ac114	0.03778179
216	0xbd391f32	-0.045195766
217	0xbcc8e0f0	-0.024521321
218	0xbce697e0	-0.028148592
219	0xbcfbbda4	-0.030730076
220	0xbd6debf2	-0.058086343
221	0xbc831e78	-0.01600574
222	0xbd2ebc08	-0.04265979
223	0x37328000	1.0639429e-05
224	0x3d5689e8	0.05237761
225	0xbc0a0708	-0.008424528
226	0xbb4327e0	-0.0029778406
227	0x3d13f428	0.036121517
228	0xbd147b64	-0.036250487
229	0xbd77fe2a	-0.060545124
230	0x3c350050	0.011047438
231	0x3d605054	0.054764107
232	0x3c044860	0.008073896
233	0x3d38ad6a	0.045087256
234	0x3cdb62f4	0.026780583
235	0x3d4ccea0	0.05000174
236	0xbd765238	-0.060137004
237	0x3d7762d2	0.060396977
238	0x3b19cf20	0.0023469403
239	0xbab41200	-0.0013738275
240	0x3d7a2d2a	0.061078228
241	0x3d45d228	0.048296124
242	0x3cc53100	0.024071217
243	0x3c52e170	0.012871131
244	0x3aa4f1c0	0.0012584254
245	0xbd72607c	-0.059174046
246	0xbd65f916	-0.05614575
247	0xbd7ae874	-0.06125684
248	0x3cbfabac	0.02339729
249	0xbc82b6a0	-0.015956223
250	0xbcd7b560	-0.026331604
251	0x3d176866	0.036964796
252	0x3cd14fe8	0.025550798
253	0xbd0cfa30	-0.034418285
254	0xbd6e1e7c	-0.05813454
255	0x3d635b80	0.055507183

fc2.bias f4 [128]
0	0xbd78c8de	-0.060738437
1	0x3c9f9cf0	0.019484013
2	0x3c2dfd70	0.010619506
3	0xbbc9ffb0	-0.0061645135
4	0x3cb94ff0	0.022621125
5	0x3d6eb8a8	0.05828157
6	0xbd09e244	-0.03366305
7	0xbd3ba458	-0.045811027
8	0x3d20c428	0.03924957
9	0x3d5150aa	0.051102318
10	0x3c9e8944	0.019352563
11	0xbd11a3f8	-0.035556763
12	0x3c9365a8	0.01799281
13	0xbb0b28c0	-0.0021234006
14	0x3cdd27a8	0.026996449
15	0xbca1f29c	-0.019769005
16	0xbca3b660	-0.019984424
17	0xbd3d5998	-0.04622802
18	0x3c9e910c	0.019356273
19	0x3d45af14	0.04826267
20	0x3d31797a	0.04332874
21	0x3d7c8bc0	0.061656713
22	0x3d769ad4	0.06020625
23	0x3cfbe41c	0.03074842
24	0x3d7eded0	0.06222421
25	0xbd0774c2	-0.033070333
26	0xbd649e42	-0.05581499
27	0x3d4025a4	0.046910897
28	0x3d4cf902	0.05004216
29	0xbcb033c4	-0.021509059
30	0xbcd64794	-0.026157178
31	0xbce05ae4	-0.02738709
32	0x3d652774	0.05594583
33	0xbba852b0	-0.0051368102
34	0x3d13cb54	0.03608258
35	0x3d162986	0.036660694
36	0x3cff640c	0.031175636
37	0x3cc1927c	0.02362942
38	0xbce5f064	-0.028068729
39	0xbd2db006	-0.042404197
40	0xbd5c8a76	-0.053842984
41	0xbca31f48	-0.019912377
42	0xbd1e8834	-0.038704112
43	0x3d758402	0.059940346
44	0x3c6e8820	0.014558822
45	0xbd40ecbe	-0.047100775
46	0xbd496538	-0.049168795
47	0x3c91f1c0	0.01781547
48	0xbc7b72e8	-0.01534722
49	0xbd4f6086	-0.05062916
50	0xbccaf128	-0.024773195
51	0xbc9e4ba4	-0.019323178
52	0xbd407920	-0.046990514
53	0xbc2fade8	-0.010722615
54	0xbd695584	-0.05696632
55	0x3cd975a4	0.026545353
56	0x3cc30ed0	0.023810774
57	0xbd39838a	-0.04529146
58	0x3d1ac5ea	0.0377864
59	0xbc3766e0	-0.011193961
60	0x3d4f31fa	0.05058477
61	0xbd355df2	-0.044279046
62	0x3ce03b04	0.02737189
63	0x3d295816	0.04134377
64	0xbd5bf168	-0.05369702
65	0xbd4f53d6	-0.05061706
66	0xbbe58f70	-0.0070056245
67	0xbd10d40e	-0.03535848
68	0x3d17775e	0.03697907
69	0x3c516e18	0.012782596
70	0x3cab9a20	0.020947516
71	0x3d55f3ba	0.05223439
72	0x3d4c2846	0.049843095
73	0xbcfa05dc	-0.030520372
74	0xbd65cef2	-0.05610556
75	0xbcad7f10	-0.021178752
76	0x3d1453d6	0.036212765
77	0xbd13ba7c	-0.036066517
78	0xbbb91020	-0.005647674
79	0x3d68dfc6	0.056854032
80	0x3cef3d80	0.02920413
81	0x3d01e582	0.031713016
82	0x3d272fc6	0.040817045
83	0x3cd8c738	0.026462182
84	0x3d55600c	0.05209355
85	0xbc07fc70	-0.008299932
86	0xbd09f8de	-0.033684604
87	0x3d1a1f24	0.037627354
88	0x3d67a652	0.0565551
89	0xbc9442c0	-0.018098235
90	0xba959b00	-0.0011413991
91	0xbbef2ec0	-0.007299274
92	0xbd30eee0	-0.04319656
93	0x3d42a4fc	0.047520623
94	0xbd0b51e8	-0.03401366
95	0x3d46a974	0.048501447
96	0xbcc0cbd8	-0.0235347
97	0x3c83f358	0.016107246
98	0x3d6a43e8	0.057193667
99	0x3cc6a6c0	0.024249434
100	0x3d60628c	0.05478148
101	0x3d0fa454	0.035068825
102	0xbbff18f0	-0.007784955
103	0x3d6feab0	0.058573425
104	0xbd382c5c	-0.04496418
105	0x3cf62408	0.030046478
106	0x3d551b46	0.052027963
107	0xbc070e48	-0.008243151
108	0x3cb35264	0.021889873
109	0x3d6dad80	0.05802679
110	0xbd5e5014	-0.054275587
111	0xbca87d38	-0.020567521
112	0xbc3f2718	-0.0116670355
113	0xbcefeee0	-0.02928871
114	0xbd12f94e	-0.035882287
115	0xbcc8c37c	-0.024507277
116	0x3d1204e2	0.035649188
117	0x3d54d034	0.05195637
118	0x3d541a32	0.051782794
119	0x3d7ffc32	0.06249637
120	0xbcb37f68	-0.021911338
121	0x3d2090ae	0.039200477
122	0xbd5ddf2e	-0.05416792
123	0x3d138ab4	0.03602095
124	0xbc796708	-0.0152223185
125	0x3d1d709a	0.038437463
126	0xbd7003c0	-0.058597326
127	0xbd2f4372	-0.04278893
