test_mlp.onnx (onnx, 264164 bytes, 4 tensors)

fc1.weight f4 [256, 128]
-0.013007216 -0.0503153 0.015016034 -0.04257176 -0.0021784976 0.07310403 0.031883404 -0.021825485
-0.050635096 0.07816181 0.044660427 -0.005804166 0.07552054 0.08142141 0.07140612 -0.010620177
-0.058899775 -0.02731435 -0.020102426 0.023072757 -0.08157885 0.085091285 -0.05554688 -0.026952595
0.05326722 0.07205019 0.050588645 -0.04095092 0.08484215 0.032378428 -0.069055416 0.061291553
0.041787036 0.07116618 -0.058799393 -0.026419256 0.0061845854 0.08506929 0.07787833 -0.014422432
0.061120994 -0.02338387 -0.07321456 -0.023998678 0.04425227 0.07483759 -0.06318355 0.056101315
0.07779334 -0.083073564 -0.03761135 -0.016861573 -0.07404734 -0.02528163 -0.038450822 -0.036327653
0.024155505 -0.017761745 0.07823331 0.08034112 -0.06058707 -0.045642063 0.073575936 -0.0791637
-0.00035964698 -0.033155862 -0.05048318 -0.001962915 -0.034044664 0.061753787 -0.0851357 0.059055753
0.08623447 0.058920868 -0.04979452 -0.039152335 -0.070884846 0.002932176 -0.034581993 -0.06975406
-0.00970272 -0.08362453 -0.010745622 0.071307085 0.012247428 -0.08495454 -0.07089919 0.04278592
-0.041278232 0.05054631 -0.051933147 -0.06892056 -0.07943702 0.055677913 0.047399618 0.05433964
-0.010802925 -0.059752196 -0.034592163 -0.0072004944 0.06648622 -0.014047869 -0.046001755 -0.079957016
-0.026110616 0.052071445 -0.04845878 0.087995924 0.015090376 -0.03850301 -0.07736237 -0.032968834
-0.04559011 -0.05791337 -0.08105882 -0.04967988 -0.08032408 0.055127926 0.06899244 0.07888021
-0.040947337 -0.060039535 0.061254032 -0.04878706 0.08772575 0.08184304 -0.0823663 0.034937046
0.07204985 0.049561746 -0.06770821 0.011012517 0.05883985 -0.054119438 0.03382101 0.045388155
0.028192624 0.03931781 -0.059736215 0.06782039 0.008951843 -0.085359074 0.05739235 -0.08628135
0.086279415 0.07863522 -0.019449629 0.0120706335 -0.0066697598 -0.082535654 0.07765303 0.06431044
0.028335303 0.060768507 -0.061630853 -0.0080416575 -0.055893715 -0.0038590506 -0.013806783 0.0041493922
0.019641109 -0.034074504 -0.083538845 -0.028270494 0.051913388 -0.03639783 -0.06442088 -0.086585216
0.061913215 0.051364265 -0.058412552 0.025470622 -0.0028950423 0.050615676 -0.019939639 0.05869194
0.04707945 0.049547933 0.06332984 0.06725287 0.07574052 -0.05190914 0.035469368 -0.043762285
0.0026464984 -0.049432553 0.04246231 -0.029133111 0.013301209 -0.07822876 0.05172322 0.008728109
0.025031067 -0.057802707 0.047463976 0.04578618 0.08721984 -0.032931767 -0.0077248663 -0.013882548
-0.045288317 0.06801539 -0.057397157 0.044081442 -0.02626644 -0.08565027 -0.024771586 0.02123338
-0.06466995 -0.07050244 0.057026185 0.07669405 0.036823727 0.02338291 0.04977136 0.012317523
0.00651747 -0.0852606 0.0019295886 0.04093001 -0.05621573 -0.085189685 -0.0821405 -0.07219897
0.0016893297 -0.006174706 0.053999223 -0.03226962 -0.07604179 -0.047136962 0.087248705 -0.08736578
0.06849464 0.053077586 0.0550982 0.07120789 -0.035983335 0.039353855 0.027866751 -0.074414514
-0.033989694 -0.04932845 -0.055467885 -0.08240371 0.025330424 0.0007535964 -0.04924602 0.016838938
-0.082959495 -0.011865623 -0.036048125 0.030216426 -0.0009840652 0.033466622 -0.027135365 0.016739294
00000000: 381c 55bc 6a17 4ebd d005 763c ba5f 2ebd
00000010: 20c5 0ebb 91b7 953d 2c98 023d 5ccb b2bc
00000020: bf66 4fbd 4d13 a03d daed 363d e030 bebb
00000030: 83aa 9a3d 45c0 a63d 5f3d 923d 4000 2ebc
00000040: e440 71bd 58c2 dfbc d8ad a4bc 1403 bd3c
00000050: d012 a7bd 5744 ae3d 2085 63bd b0cb dcbc
00000060: ba2e 5a3d 0d8f 933d 0a36 4f3d 27bc 27bd
00000070: b9c1 ad3d 3e9f 043d ed6c 8dbd da0c 7b3d
00000080: e228 2b3d 93bf 913d a2d7 70bd 326d d8bc
00000090: 10a8 ca3b cf38 ae3d ad7e 9f3d 104c 6cbc
000000a0: 025a 7a3d 888f bfbc 84f1 95bd e098 c4bc
000000b0: de41 353d 7344 993d 6166 81bd 7eca 653d
000000c0: 1d52 9f3d 7922 aabd 5c0e 1abd 4821 8abc
000000d0: 22a6 97bd 6c1b cfbc 9c7e 1dbd 4ecc 14bd
000000e0: c4e1 c53c 1481 91bc c938 a03d e389 a43d
000000f0: 262a 78bd 2cf3 3abd fbae 963d 9420 a2bd
00000100: 008f bcb9 71ce 07bd 73c7 4ebd 40a4 00bb
00000110: 6b72 0bbd 8af1 7c3d a05b aebd 72e4 713d
00000120: b39b b03d 0257 713d 57f5 4bbd 335e 20bd
00000130: 132c 91bd c029 403b d9a5 0dbd 37db 8ebd
00000140: 28f8 1ebc 5643 abbd 680e 30bc 7309 923d
00000150: 70a9 483c a5fc adbd 9833 91bd 4a40 2f3d
00000160: 5d13 29bd a609 4f3d dab7 54bd 3926 8dbd
00000170: e0af a2bd 860e 643d 1a26 423d 3e93 5e3d
00000180: c0fe 30bc b8be 74bd 83b0 0dbd 20f2 ebbb
00000190: ed29 883d 0829 66bc 566c 3cbd 81c0 a3bd
000001a0: eee5 d5bc de48 553d b77c 46bd 3537 b43d
000001b0: a03d 773c 55b5 1dbd 2a70 9ebd 540a 07bd
000001c0: b2bc 3abd 9236 6dbd 2b02 a6bd 217d 4bbd
000001d0: f480 a4bd d2cd 613d e94b 8d3d f38b a13d
000001e0: 65b8 27bd 04ec 75bd 82e5 7a3d f1d4 47bd
000001f0: 8fa9 b33d 539d a73d aaaf a8bd 261a 0f3d
00000200: df8e 933d 4201 4b3d 9aaa 8abd d86d 343c
00000210: 0e02 713d 58ac 5dbd e687 0a3d eee8 393d
00000220: 38f4 e63c b60b 213d f6ad 74bd 6be5 8a3d
00000230: c0aa 123c bdd0 aebd 3e14 6b3d 47b4 b0bd
00000240: 43b3 b03d 810b a13d d454 9fbc e8c3 453c
00000250: 008e dabb 7408 a9bd 8d08 9f3d 31b5 833d
00000260: 701f e83c 66e8 783d a270 7cbd 28c1 03bc
00000270: cff0 64bd 20e8 7cbb d835 62bc a0f7 873b
00000280: 64e6 a03c b591 0bbd 6a16 abbd 8697 e7bc
00000290: 22a3 543d e415 15bd 18ef 83bd 9753 b1bd
000002a0: b698 7d3d 5663 523d 0042 6fbd c4a7 d03c
000002b0: c0ba 3dbb 6252 4f3d 7458 a3bc f666 703d
000002c0: 62d6 403d c6f2 4a3d 13b3 813d dfbb 893d
000002d0: d91d 9b3d ae9e 54bd 5448 113d 1540 33bd
000002e0: e070 2d3b ca79 4abd f6ec 2d3d 90a8 eebc
000002f0: 50ed 593c 6636 a0bd badb 533d 5800 0f3c
00000300: f40d cd3c 88c2 6cbd 9669 423d 4a8a 3b3d
00000310: 51a0 b23d 76e3 06bd e020 fdbb a073 63bc
00000320: 3e80 39bd a74b 8b3d 4819 6bbd be8e 343d
00000330: b82c d7bc 6969 afbd c8ed cabc a0f1 ad3c
00000340: ae71 84bd 9563 90bd 4a94 693d c511 9d3d
00000350: 7ad4 163d 848d bf3c 0edd 4b3d 70cf 493c
00000360: 8090 d53b 1c9d aebd 40ea fc3a 3aa6 273d
00000370: 7742 66bd ee77 aebd 4739 a8bd 0edd 93bd
00000380: 806c dd3a 3055 cabb 4a2e 5d3d 262d 04bd
00000390: ccbb 9bbd b012 41bd 73af b23d d4ec b2bd
000003a0: eb46 8c3d e267 593d a6ae 613d 71d5 913d
000003b0: 4363 13bd 8231 213d d048 e43c a366 98bd
000003c0: c738 0bbd a10c 4abd 4b32 63bd 47c3 a8bd
000003d0: c081 cf3c 008d 453a 32b6 49bd d0f1 893c
000003e0: abe6 a9bd 0868 42bc 33a7 13bd 7088 f73c
000003f0: c0fb 80ba 4c14 093d fc4a debc d820 893c

fc1.bias f4 [256]
0.0043411553 0.06750246 0.07443396 0.036287963 0.010977097 -0.07175106 0.022655815 -0.052979335
-0.056750193 0.038123183 -0.024027057 0.03772787 0.03329812 0.05738639 -0.032118734 0.04533776
-0.047060803 -0.057645887 -0.0079052225 0.037538104 0.085872345 -0.07523576 0.023331724 0.01921308
0.048140965 -0.060423903 0.06193053 -0.06405975 -0.040163986 0.023929745 0.056868933 0.07349356
0.08834105 -0.03748137 -0.07202168 -0.046815127 -0.063483045 0.0045079812 0.08625331 -0.010735527
0.08640457 -0.07680084 -0.04500392 -0.014012612 -0.069791354 0.021514714 0.014347769 -0.05903711
0.025833197 -0.084985524 -0.03271238 0.055473782 0.079455204 -0.036839757 -0.024297819 -0.066133276
0.032398447 0.02299495 0.05593156 0.06537261 -0.07760874 0.038551174 -0.06636901 -0.007190503
-0.060084186 0.04317262 -0.056086484 -0.0019074678 -0.04317303 0.078180335 -0.07166837 -0.014414467
-0.03403595 -0.0049531907 0.047737263 0.0057364404 -0.05569607 -0.051706795 0.010624744 0.012578145
0.0122125745 0.04650376 0.057231195 -0.06305717 0.0030168071 0.07277935 0.07847091 -0.06761849
0.020077042 0.015148975 -0.08369598 -0.026065614 0.070395134 -0.031630725 -0.06713988 -0.011016324
0.08214293 -0.0658425 0.081506155 0.03706228 0.015306599 -0.030682296 0.065100245 -0.08673868
0.085144036 0.053141393 0.057511993 -0.058811363 0.013580129 -0.019106947 0.052727334 0.03491672
-0.07817786 0.06566801 -0.087960295 0.08260595 -0.029566541 0.03770756 0.0019656941 -0.034061197
-0.07362658 -0.024770558 -0.04232612 0.07900127 -0.021437421 0.06637088 0.04179866 0.03191621
-0.081403054 0.013830498 -0.078735106 -0.052912805 -0.036434285 0.035814382 0.017311051 0.01642511
-0.063175485 -0.002679579 -0.08617867 -0.04194549 -0.08818403 -0.0860687 -0.06056229 0.07372009
-0.0551572 -0.052181993 0.06357477 -0.08637552 -0.04286756 0.03946974 0.029510714 -0.04824809
-0.02124431 -0.017742738 -0.053310547 -0.083053 -0.08034825 -0.03608593 0.08588856 -0.069715016
0.0796048 0.08520878 -0.062297054 0.017401367 -0.01978162 0.01087825 -0.04551647 -0.070280164
-0.04702579 -0.00449311 0.030656174 -0.04811029 0.050570212 0.06510004 -0.005578339 -0.07699505
0.03704623 -0.0048428103 0.051860355 -0.008032903 0.04462277 0.0059786662 -0.039871085 0.07213908
-0.033562105 0.06359313 -0.011706248 0.057936735 -0.0773551 0.08163642 0.07933242 -0.05042172
-0.0709077 0.05753527 0.07832124 -0.02644286 -0.0013599843 -0.07532658 -0.05899404 -0.037573576
0.046265222 -0.04239977 0.026242219 0.068363525 0.061674677 0.015294857 -0.03821951 0.03756667
-0.03127943 0.046029456 -0.06875394 0.04057304 0.08811561 0.038732044 -0.021592155 -0.054608807
-0.034715306 0.018945843 -0.0021503717 -0.067425564 -0.06527573 0.0105609745 0.016557641 0.081163056
0.06684666 -0.0030864775 0.064727776 0.05295857 -0.061634813 -0.07685713 0.07437814 0.026784241
0.058206774 -0.03213151 -0.044747394 -0.05011784 -0.046629827 -0.0868838 0.022347346 -0.012102596
0.015312433 0.057488658 0.07564711 0.022391036 -0.07870416 -0.001981385 -0.028829645 -0.017909326
0.058952697 0.03157703 0.022350535 0.0027062371 0.043697335 -0.05947875 0.04756566 -0.06759712
00000000: 4040 8e3b bb3e 8a3d d570 983d b0a2 143d
00000010: 48d9 333c 38f2 92bd b098 b93c dc00 59bd
00000020: e472 68bd 0e27 1c3d 64d4 c4bc 8a88 1a3d
00000030: 9c63 083d fe0d 6b3d ef8e 03bd 16b4 393d
00000040: d4c2 40bd 181e 6cbd e884 01bc 8ec1 193d
00000050: d7dd af3d 3515 9abd 2c22 bf3c c064 9d3c
00000060: 762f 453d 0e7f 77bd deaa 7d3d c231 83bd
00000070: fe82 24bd 5008 c43c 66ef 683d cb83 963d
00000080: 27ec b43d 1186 19bd 1a80 93bd 38c1 3fbd
00000090: 6603 82bd b0b7 933b 93a5 b03d 10e4 2fbc
000000a0: e1f4 b03d c249 9dbd 0856 38bd 2895 65bc
000000b0: c5ee 8ebd a03f b03c e812 6b3c e6d0 71bd
000000c0: 24a0 d33c e40c aebd 6bfd 05bd 7a38 633d
000000d0: 69b9 a23d 49e5 16bd 380c c7bc e270 87bd
000000e0: 3cb4 043d e85f bc3c 7e18 653d 13e2 853d
000000f0: 55f1 9ebd d6e7 1d3d 7aec 87bd 509e ebbb
00000100: d61a 76bd c6d5 303d f1ba 65bd 0004 faba
00000110: 34d6 30bd 031d a03d dec6 92bd a82a 6cbc
00000120: 4869 0bbd 604e a2bb 2688 433d c0f8 bb3b
00000130: 9021 64bd 81ca 53bd 6813 2e3c 9014 4e3c
00000140: 4017 483c ba7a 3e3d 426b 6a3d 1e24 81bd
00000150: a0b5 453b 570d 953d 5bb5 a03d 907b 8abd
00000160: 9c78 a43c 6833 783c cc68 abbd 8e87 d5bc
00000170: 532b 903d 388f 01bd a280 89bd d07d 34bc
00000180: 8d3a a83d 6fd8 86bd b3ec a63d 9ece 173d
00000190: 88c8 7a3c 7059 fbbc 4753 853d 0da4 b1bd
000001a0: ff5f ae3d caaa 593d b291 6b3d 2fe4 70bd
000001b0: 307f 5e3c 2c86 9cbc 9ef8 573d d604 0f3d
000001c0: b71b a0bd f37c 863d 8724 b4bd 4f2d a93d
000001d0: 8835 f2bc 3e73 1a3d e0d2 003b c183 0bbd
000001e0: 88c9 96bd a0eb cabc 275e 2dbd 6bcb a13d
000001f0: 889d afbc 75ed 873d 1235 2b3d 92ba 023d
00000200: a5b6 a6bd 5099 623c df3f a1bd 19bb 58bd
00000210: 1e3c 15bd 1ab2 123d e8cf 8d3c f48d 863c
00000220: 2662 81bd e09b 2fbb 717e b0bd 09cf 2bbd
00000230: d499 b4bd c944 b0bd 2a10 78bd 8ffa 963d
00000240: 84ec 61bd c9bc 55bd 7d33 823d a6e5 b0bd
00000250: e595 2fbd 06ab 213d 74c0 f13c ca9f 45bd
00000260: 8c08 aebc 3859 91bc 295c 5abd b117 aabd
00000270: a08d a4bd d7ce 13bd 57e6 af3d bfc6 8ebd
00000280: d707 a33d f181 ae3d 322b 7fbd 508d 8e3c
00000290: 100d a2bc b03a 323c 7a6f 3abd 0cef 8fbd
000002a0: 1d9e 40bd f03a 93bb a822 fb3c 4c0f 45bd
000002b0: b622 4f3d 2b53 853d 80ca b6bb 95af 9dbd
000002c0: cabd 173d 70b0 9ebb 866b 543d 709c 03bc
000002d0: 5ec6 363d b0e8 c33b dd4f 23bd a7bd 933d
000002e0: 6b78 09bd 1d3d 823d 90cb 3fbc 124f 6d3d
000002f0: 5a6c 9ebd ff30 a73d 0979 a23d 0187 4ebd
00000300: 0e38 91bd 1aaa 6b3d e366 a03d b29e d8bc
00000310: 8041 b2ba d244 9abd bca3 71bd c0e6 19bd
00000320: 9a80 3d3d 62ab 2dbd ecf9 d63c 2d02 8c3d
00000330: 969e 7c3d 4897 7a3c 108c 1cbd 82df 193d
00000340: dc1e 00bd 6289 3c3d dece 8cbd ea2f 263d
00000350: f575 b43d 7ea5 1e3d 08e2 b0bc 7cad 5fbd
00000360: a331 0ebd 5034 9b3c 40ed 0cbb 6a16 8abd
00000370: 48af 85bd f007 2d3c e4a3 873c d138 a63d
00000380: e7e6 883d 8046 4abb ff8f 843d 16eb 583d
00000390: c974 7cbd 4567 9dbd 9153 983d a06a db3c
000003a0: 3a6a 6e3d 559c 03bd 0b49 37bd 5d48 4dbd
000003b0: ebfe 3ebd 22f0 b1bd c811 b73c f849 46bc
000003c0: 00e1 7a3c 3a79 6b3d dfec 9a3d 686d b73c
000003d0: a62f a1bd 20da 01bb 262c ecbc 94b6 92bc
000003e0: 6278 713d ea56 013d 7818 b73c 205b 313b
000003f0: fafb 323d fd9f 73bd 36d4 423d 5c70 8abd

fc2.weight f4 [128, 256]
-0.0037520975 0.021093331 -0.056927875 0.022689894 -0.010539025 -0.01097092 -0.04988786 0.02920299
0.053089425 0.011253618 0.0584564 0.013183981 0.05960094 -0.03814894 0.026359096 0.03235832
0.010710284 0.0014767647 -0.06186237 -0.023293056 0.003627561 -0.024278864 0.04014937 0.009293817
-0.0014140531 -0.019253917 0.04108028 -0.041449606 -0.05522784 -0.037046008 -0.01438161 0.027887255
-0.060352914 -0.030422583 -0.03588441 0.048544623 0.041388795 0.048500843 -0.04709699 -0.0076892376
0.02065023 0.00833226 -0.061660275 -0.015838146 -0.05921001 -0.009358175 0.029113725 -0.034447245
0.05566729 0.02494213 -0.034201533 0.012131631 0.044353418 -0.055273764 0.017589517 0.0346265
0.060651593 0.0037620664 -0.050814785 -0.03387072 -0.01595378 -0.05597695 -0.0057619885 0.052579418
-0.028844066 0.033487163 -0.043833993 8.494407e-05 0.011066049 -0.037340507 -0.020529158 -0.05865191
-0.0018283874 -0.02981601 -0.02262386 -0.006030135 0.018080495 0.056450494 0.02699332 0.03640256
0.052742437 -0.0008017719 0.05634813 0.0020204335 -0.0032700747 -0.018618152 -0.0076367557 -0.061708704
0.016796172 -0.021086566 -0.021410428 -0.032641575 -0.055997394 -0.020593181 0.045124657 0.010711826
0.03171797 0.022690281 -0.010055818 0.044768453 0.008350804 0.018292382 -0.0095380545 -0.05396474
0.06016817 0.04875487 0.0133019835 0.05618705 -0.04565546 -0.05492463 -0.059830092 -0.027833447
-0.047683395 -0.0032083988 -0.059125416 0.060047217 -0.010952786 -0.000787504 0.04782313 0.01852686
0.039784133 -0.05733925 0.05153448 -0.006370738 0.038140133 -0.007964656 -0.020792738 -0.05503995
-0.044094898 0.027231306 -0.010620251 -0.05374349 -0.014565282 0.049018018 -0.028585523 -0.014395595
-0.038729437 -0.037794024 -0.005917698 -0.031299546 0.0207154 -0.025944352 -0.024370797 -0.0074345395
-0.012584649 -0.059722506 -0.056812905 0.049873747 0.018046796 0.0060939193 0.04032263 0.05678349
-0.05206187 0.05410923 -0.006001398 0.011057369 0.023853533 -0.057452746 -0.0371513 0.029412255
-0.023186192 -0.058426656 -0.035912998 0.043453716 0.030081749 -0.04997372 0.012310766 -0.018945917
-0.040463306 0.040871486 0.0074463263 0.039556712 -0.022206493 0.047457658 -0.055723675 -0.041001327
0.047439404 -0.019324772 -0.0029815882 -0.015025243 -0.0089141205 0.0027791262 0.008724973 0.058566295
0.0011236593 0.032051533 0.034984052 0.014841065 -0.058373958 -0.057166338 0.0407895 -0.04231129
0.036381148 0.01063332 -0.029541217 0.043547966 -0.043819852 0.05066263 -0.05107601 0.035990328
0.044662036 0.057021797 -0.014562808 0.04062593 0.054748535 -0.040275335 0.029666647 -0.010548361
0.03997606 0.009006061 0.022289492 -0.030530617 -0.046976253 -0.011591673 -0.033367388 0.04465186
0.02562733 -0.03584139 0.01493597 0.031973004 0.033883587 0.027153589 -0.01771599 0.037812106
-0.025868647 -0.054161318 0.060453698 -0.04878489 -0.05404669 0.042887658 -0.01011274 0.05150442
-0.048914798 -0.019168116 0.011574529 0.045004427 -0.0588815 -0.049159415 -0.009971209 -0.034375384
0.003948435 0.0444223 -0.026318528 0.002993539 0.049343407 -0.010598294 0.057073787 -0.018522203
0.026792854 0.022863328 0.018260129 -0.045162484 -0.045860425 0.050137214 -0.042907715 0.026601546
00000000: c0e5 75bb eccb ac3c 342d 69bd 28e0 b93c
00000010: e0ab 2cbc 60bf 33bc 3657 4cbd 1c3b ef3c
00000020: 4c74 593d 1861 383c fa6f 6f3d a001 583c
00000030: 1e20 743d 1042 1cbd 08ef d73c 288a 043d
00000040: 307a 2f3c 0090 c13a 6663 7dbd 14d1 bebc
00000050: 60bc 6d3b 78e4 c6bc aa73 243d 1845 183c
00000060: c057 b9ba 64ba 9dbc cc43 283d 10c7 29bd
00000070: 9636 62bd 8ebd 17bd d8a0 6bbc d073 e43c
00000080: 9e34 77bd c838 f9bc 88fb 12bd bad6 463d
00000090: 4c87 293d d2a8 463d c6e8 40bd 00f6 fbbb
000000a0: ac2a a93c 0884 083c 7c8f 7cbd 00bf 81bc
000000b0: 3286 72bd 0853 19bc e87f ee3c 8e18 0dbd
000000c0: 6203 643d 7053 cc3c e816 0cbd c0c3 463c
000000d0: eeab 353d be66 62bd e417 903c 84d4 0d3d
000000e0: ce6d 783d 008d 763b 2a23 50bd 06bc 0abd
000000f0: 80b1 82bc 1648 65bd 10cf bcbb 845d 573d
00000100: 644a ecbc d629 093d 468b 33bd 0024 b238
00000110: 604e 353c 5cf2 18bd c42c a8bc fc3c 70bd
00000120: 80a6 efba b440 f4bc ac55 b9bc 7098 c5bb
00000130: 8c1d 943c a238 673d 1821 dd3c da1a 153d
00000140: 7408 583d 002e 52ba 4ccd 663d 4069 043b
00000150: c04e 56bb 1885 98bc c03d fabb 44c2 7cbd
00000160: 2098 893c bcbd acbc ec64 afbc 2cb3 05bd
00000170: 865d 65bd 08b3 a8bc a2d4 383d a880 2f3c
00000180: b4ea 013d f8e0 b93c 28c1 24bc 205f 373d
00000190: d0d1 083c e8d9 953c 8045 1cbc 220a 5dbd
000001a0: e672 763d 30b3 473d 90f0 593c 6424 663d
000001b0: 3801 3bbd a6f8 60bd 6610 75bd f802 e4bc
000001c0: aa4f 43bd 0044 52bb 7e2d 72bd 12f4 753d
000001d0: 5073 33bc 8070 4eba 30e2 433d a4c5 973c
000001e0: b0f4 223d 90dc 6abd d215 533d a0c1 d0bb
000001f0: d438 1c3d 307e 02bc 8855 aabc 9271 61bd
00000200: da9c 34bd 3014 df3c 9000 2ebc 2222 5cbd
00000210: 38a3 6ebc 1ec7 483d 302c eabc 80db 6bbc
00000220: c2a2 1ebd e8cd 1abd 40e9 c1bb f433 00bd
00000230: 58b3 a93c 4089 d4bc 44a5 c7bc 709d f3bb
00000240: d82f 4ebc 969f 74bd a6b4 68bd 6a48 4c3d
00000250: e0d6 933c 80af c73b 5829 253d ce95 683d
00000260: d43e 55bd a4a1 5d3d 60a7 c4bb f829 353c
00000270: 7c68 c33c 9253 6bbd f62b 18bd f8f1 f03c
00000280: f8f0 bdbc ca50 6fbd 8219 13bd 86fc 313d
00000290: 006e f63c 3eb1 4cbd 18b3 493c 7834 9bbc
000002a0: dabc 25bd dc68 273d 5000 f43b 3806 223d
000002b0: 64ea b5bc f662 423d 823e 64bd 02f1 27bd
000002c0: d24f 423d fc4e 9ebc c066 43bb 702c 76bc
000002d0: 880c 12bc 0022 363b 30f3 0e3c 36e3 6f3d
000002e0: c047 933a 7848 033d 704b 0f3d f027 733c
000002f0: 8819 6fbd 4027 6abd e412 273d 9a4e 2dbd
00000300: 6604 153d 6037 2e3c 6c00 f2bc 5a5f 323d
00000310: 727c 33bd 9e83 4f3d 1435 51bd 986a 133d
00000320: 8aef 363d b08f 693d d898 6ebc 6067 263d
00000330: 0040 603d c0f7 24bd 7807 f33c 08d3 2cbc
00000340: f0bd 233d 288e 133c 7498 b63c 581b fabc
00000350: 2c6a 40bd 00eb 3dbc 3eac 08bd dee4 363d
00000360: 68f0 d13c 6cce 12bd 00b6 743c 20f6 023d
00000370: 84c9 0a3d 3471 de3c 2021 91bc dee0 1a3d
00000380: 7cea d3bc 42d8 5dbd 4c9e 773d aad2 47bd
00000390: 1060 5dbd f8aa 2f3d e8af 25bc 4cf6 523d
000003a0: e25a 48bd 7406 9dbc 18a3 3d3c 9056 383d
000003b0: ba2d 71bd 625b 49bd 485e 23bc 34cd 0cbd
000003c0: e061 813b 28f4 353d f499 d7bc 402f 443b
000003d0: 501c 4a3d 78a4 2dbc 34c6 693d e0bb 97bc
000003e0: b07c db3c e04b bb3c 4496 953c 4cfc 38bd
000003f0: 24d8 3bbd ae5c 4d3d 00c0 2fbd 7ceb d93c

fc2.bias f4 [128]
0.027914107 0.057127617 -0.019797593 0.06160313 -0.054750584 0.026069432 0.0020560026 -0.05645445
0.0026291832 0.060240164 0.048889503 -0.023810856 -0.040107198 -0.036616713 -0.05460763 0.037121855
0.0018497407 0.06187223 -0.04460939 0.009638466 -0.008368045 0.052074313 -0.015119381 0.046687
0.04266315 0.033504143 0.03018637 -0.018311374 0.014515519 0.028249905 0.056917317 -0.014850058
0.03785023 0.058472328 -0.0034105033 0.052964248 0.05070574 -0.0020435527 0.015545659 -0.035814166
0.017129973 -0.007907942 0.010874949 -0.020016342 -0.024991445 0.03364931 0.022540152 -0.037234917
-0.0593118 0.008263946 0.032680146 0.03461864 0.013533585 0.035088755 0.0145595595 0.0087469295
-0.020416886 -0.004202813 0.016881377 0.045320004 -0.008296721 0.026403442 -0.0016008615 0.038083084
-0.0024592206 -0.029779367 0.018765293 0.016160168 0.011187136 -0.0022714436 0.015598252 0.05930367
0.04156208 0.025855042 -0.049647257 -0.010340333 0.061089575 0.0011230037 0.005839601 -0.04968424
-0.0010051578 -0.029946394 0.05996935 0.004752338 -0.046395913 0.043105803 -0.028237566 -0.024855234
0.026618563 0.00035227835 -0.024711832 -0.05749935 0.019862287 0.06076604 -0.014884353 -0.050437115
-0.023164675 0.05906769 -0.038298756 -0.05305221 0.05826243 -0.055884175 -0.057944484 -0.04777184
0.02372463 -0.024593733 0.028479703 0.060844235 -0.05759673 -0.03508845 -0.03833717 0.0476567
-0.016121127 -0.04448896 0.010589026 0.004207611 -0.048001297 0.03445974 -0.011133879 -0.017521098
-0.007954851 0.028922297 -0.04053528 0.0338474 -0.007355921 -0.0012233928 0.05406919 0.012650318
00000000: 20ac e43c a6fe 693d 902e a2bc 9053 7c3d
00000010: 2642 60bd 908f d53c 00be 063b c83c 67bd
00000020: 604e 2c3b 64be 763d 5c40 483d fc0e c3bc
00000030: 7247 24bd 68fb 15bd 40ac 5fbd 160d 183d
00000040: 0073 f23a bc6d 7d3d 56b8 36bd a8ea 1d3c
00000050: 201a 09bc e04b 553d 48b7 77bc de3a 3f3d
00000060: 8ebf 2e3d a43b 093d 6849 f73c bc01 96bc
00000070: 80d2 6d3c 586c e73c 2222 693d a84d 73bc
00000080: d808 1b3d ae80 6f3d c082 5fbb 0af1 583d
00000090: d2b0 4f3d 20ed 05bb 38b3 7e3c e0b1 12bd
000000a0: 2854 8c3c 5090 01bc d82c 323c 50f9 a3bc
000000b0: dcba ccbc dcd3 093d 20a6 b83c a483 18bd
000000c0: eef0 72bd 8065 073c 9edb 053d 46cc 0d3d
000000d0: f8bb 5d3c 3ab9 0f3d 388b 6e3c 484f 0f3c
000000e0: 5041 a7bc c0b7 89bb d04a 8a3c 78a1 393d
000000f0: f8ee 07bc 084c d83c 00d4 d1ba 02fd 1b3d
00000100: e02a 21bb dcf3 f3bc acb9 993c 5462 843c
00000110: 404a 373c 80dc 14bb d08f 7f3c 68e8 723d
00000120: 003d 2a3d f4cd d33c ec5a 4bbd 806a 29bc
00000130: 1039 7a3d c031 933a 205a bf3b b481 4bbd
00000140: 80bf 83ba 2452 f5bc 6ca2 753d 80b9 9b3b
00000150: a409 3ebd b68f 303d 7852 e7bc 349d cbbc
00000160: 2c0f da3c 00b2 b839 7870 cabc 7084 6bbd
00000170: 3cb6 a23c d0e5 783d 80dd 73bc 2697 4ebd
00000180: d8c3 bdbc f6f0 713d 28df 1cbd 464d 59bd
00000190: 96a4 6e3d cee6 64bd 3257 6dbd 68ac 43bd
000001a0: 285a c23c cc78 c9bc 444e e93c ce37 793d
000001b0: 8cea 6bbd e8b8 0fbd 7007 1dbd ac33 433d
000001c0: 7410 84bc 0e3a 36bd 987d 2d3c 00e0 893b
000001d0: 029d 44bd a825 0d3d e06a 36bc 6888 8fbc
000001e0: 1055 02bc 74ee ec3c 5208 26bd 92a3 0a3d
000001f0: f009 f1bb 405a a0ba a877 5d3d 4843 4f3c
