test_cnn.onnx (onnx, 67789 bytes, 6 tensors)

conv1.weight f4 [16, 3, 3, 3]
0.093391195 -0.17649066 -0.09506928 0.058616504 -0.08309394 -0.16123737 0.05690007 0.009757072
0.057421237 -0.038737983 0.030242115 0.11600764 -0.18902668 -0.018800542 0.02332297 -0.07058415
0.16794874 0.19139893 0.010335416 -0.037910923 -0.11801564 -0.12144707 0.16315092 -0.056114957
-0.11911726 0.06993194 0.080020025 -0.12558869 -0.049231723 -0.11561074 -0.020146579 -0.043274358
0.18515684 -0.04710065 0.08614759 0.13011481 0.1127138 0.020677865 -0.019487321 -0.107146576
0.049100652 0.05532968 0.10004969 0.0334419 -0.052874625 0.1576191 -0.19107588 -0.15130648
0.10949744 -0.089797914 -0.12986542 0.12570293 -0.1660043 0.12008919 -0.080783606 -0.029849783
0.024613306 0.19028775 -0.17449342 -0.09581606 -0.080789596 0.095907316 -0.041547462 0.16077767
0.0064044 -0.12117966 0.062127247 -0.016643554 0.07225384 0.0029675215 0.14188556 0.14883758
-0.062077224 -0.03975141 0.06901403 -0.054489866 0.04807441 0.15853892 0.14494966 -0.028460428
-0.10900909 0.11607681 -0.15512884 -0.021120653 0.105667755 0.063584074 0.10863723 -0.12777692
0.19117968 0.18881567 -0.06270078 0.0055040717 0.06613295 -0.031778812 0.15436603 -0.11846631
-0.101013355 -0.032294586 -0.043695524 -0.042686597 0.14274509 -0.0029411465 -0.13063858 0.15449636
-0.01681465 0.1569234 0.10327329 -0.07622387 0.06977858 -0.013827503 -0.12572518 -0.122994706
-0.050118446 0.16376488 0.0007272363 -0.1817523 0.09599601 -0.00902319 -0.09670912 0.17902
0.0821936 -0.09807257 0.17530368 0.1536106 -0.06745568 -0.0757027 -0.0905089 -0.13700736
0.044870704 0.16352017 0.056609377 0.13758664 0.12673734 0.0641437 -0.043857113 0.17258613
-0.12867373 0.124636754 -0.10577704 0.18925591 0.08777736 0.17587914 -0.11503125 0.09496321
0.11148475 -0.02445978 0.04430452 0.015124887 -0.09404022 -0.05458428 0.05524409 0.18380748
-0.07192012 0.14852451 -0.11197356 -0.09084454 0.14875673 -0.18734746 -0.1399404 -0.09759511
0.13388737 0.13517676 -0.13027397 -0.078253806 -0.16482383 -0.10167906 -0.15765232 -0.0652592
-0.043107823 -0.0926213 0.070190385 0.1836517 -0.019889489 0.10857923 0.0014038384 0.11395912
-0.065543875 -0.005442813 -0.1369441 0.14024962 0.15939675 -0.04804471 -0.00045330822 0.023450255
0.006807089 0.053603426 0.1738456 0.1701179 -0.030427814 0.03772618 -0.14223084 0.043313712
-0.05397643 -0.15944922 -0.14841186 0.16882087 -0.13257039 -0.07024018 0.08723535 0.061850473
-0.14778079 0.18943904 -0.095993124 0.16380827 0.17308761 0.11637659 -0.059761614 -0.190056
-0.06370455 -0.18372999 -0.008267179 -0.160456 0.1174577 -0.13533902 -0.14083812 -0.16860291
0.023479715 0.13171388 0.07796644 -0.17229527 0.040429667 -0.04536827 -0.059001803 -0.105922215
-0.042933628 -0.007386744 -0.09474622 -0.12276515 0.10225345 0.16927944 0.14693482 0.019863129
0.1406356 -0.021976382 -0.070640676 0.16297834 -0.19189501 -0.0025627166 0.1592824 -0.073720045
0.14693184 -0.08827207 -0.1168122 -0.0057448447 -0.13362055 -0.17487274 -0.13014162 -0.09339627
-0.0808511 -0.14597099 0.13158865 -0.002833426 0.044302985 0.037503302 0.0284926 0.17341836
00000000: e243 bf3d f8b9 34be afb3 c2bd dc17 703d
00000010: 282d aabd 691b 25be 0c10 693d 20dc 1f3c
00000020: 8832 6b3d b8ab 1ebd 50be f73c 6a95 ed3d
00000030: 3690 41be 9803 9abc d00f bf3c 6c8e 90bd
00000040: c1fa 2b3e 15fe 433e e055 293c 7c48 1bbd
00000050: 2fb2 f1bd 3eb9 f8bd 0911 273e ccd8 65bd
00000060: c0f3 f3bd 7a38 8f3d 8ae1 a33d 529a 00be
00000070: 34a7 49bd 53c5 ecbd 700a a5bc 7440 31bd
00000080: c199 3d3e 9cec 40bd 266e b03d d13c 053e
00000090: 7ed6 e63d a064 a93c e0a3 9fbc aa6f dbbd
000000a0: c41d 493d 60a1 623d dae6 cc3d 60fa 083d
000000b0: 1093 58bd e766 213e 65a9 43be 16f0 1abe
000000c0: 3240 e03d f8e7 b7bd 71fb 04be 45b8 003e
000000d0: 08fd 29be 52f1 f53d e071 a5bd 8887 f4bc
000000e0: d8a1 c93c cbda 423e 67ae 32be 363b c4bd
000000f0: 0475 a5bd 0e6b c43d ac2d 2abd e7a2 243e
00000100: 00dc d13b 0b2d f8bd 2479 7e3d 1058 88bc
00000110: d2f9 933d c07a 423b 734a 113e e168 183e
00000120: b044 7ebd 60d2 22bd 3a57 8d3d c430 5fbd
00000130: ace9 443d 0758 223e af6d 143e d825 e9bc
00000140: 2840 dfbd aeb9 ed3d 18da 1ebe 3805 adbc
00000150: 5668 d83d 5e38 823d 327d de3d f4d7 02be
00000160: 9bc4 433e e558 413e 4469 80bd 805b b43b
00000170: b670 873d 802a 02bd 2112 1e3e 779e f2bd
00000180: 17e0 cebd 5447 04bd 14fa 32bd 24d8 2ebd
00000190: c52b 123e 40c0 40bb 1fc6 05be 4b34 1e3e
000001a0: e0be 89bc 87b0 203e f280 d33d 431b 9cbd
000001b0: 12e8 8e3d c08c 62bc 1abe 00be a6e4 fbbd
000001c0: 0049 4dbd fbb1 273e 00a4 3e3a 461d 3abe
000001d0: 8e99 c43d 00d6 13bc 6e0f c6bd 0551 373e
000001e0: 1e55 a83d 46da c8bd cf82 333e 194c 1d3e
000001f0: 3426 8abd 040a 9bbd bb5c b9bd a84b 0cbe
00000200: 58ca 373d d571 273e 3cdf 673d 83e3 0c3e
00000210: 6fc7 013e c65d 833d 84a3 33bd 6bba 303e
00000220: 0cc3 03be 8e41 ff3d a2a1 d8bd 4dcc 413e
00000230: 9ec4 b33d a919 343e 8195 ebbd 127c c23d
00000240: 1e52 e43d e05f c8bc a878 353d 60ce 773c
00000250: 2998 c0bd c493 5fbd a047 623d 0738 3c3e
00000260: db4a 93bd cf16 183e 6552 e5bd b40c babd
00000270: af53 183e 03d8 3fbe 894c 0fbe f2df c7bd
00000280: c519 093e c76b 0a3e 8a66 05be 8843 a0bd
00000290: 94c7 28be 1c3d d0bd 9c6f 21be 9ea6 85bd
000002a0: d491 30bd 3cb0 bdbd fabf 8f3d 310f 3c3e
000002b0: 48ef a2bc ca5e de3d 0001 b83a 6663 e93d
000002c0: de3b 86bd a059 b2bb 133b 0cbe 999d 0f3e
000002d0: e738 233e 88ca 44bd 00aa edb9 c01a c03c
000002e0: 000e df3b 448f 5b3d 9504 323e 6333 2e3e
000002f0: c043 f9bc c486 1a3d f6a4 11be b869 313d
00000300: 6416 5dbd a846 23be 47f9 17be 61df 2c3e
00000310: 88c0 07be 15da 8fbd 72a8 b23d ec56 7d3d
00000320: d953 17be 4ffc 413e 0b98 c4bd 5bbd 273e
00000330: e13d 313e da56 ee3d 98c8 74bd 0a9e 42be
00000340: 8877 82bd b723 3cbe 1073 07bc 944e 24be
00000350: aa8d f03d 5096 0abe de37 10be 3ea6 2cbe
00000360: 8858 c03c 01e0 063e deac 9f3d 2c6e 30be
00000370: 9499 253d 14d4 39bd e0ab 71bd bfed d8bd
00000380: 2cdb 2fbd 800c f2bb 4e0a c2bd 4c6c fbbd
00000390: 426a d13d 9757 2d3e 1576 163e 00b8 a23c
000003a0: c702 103e d007 b4bc 0fac 90bd cbe3 263e
000003b0: 2080 44be 40f3 27bb ed1a 233e 89fa 96bd
000003c0: 4d75 163e fdc7 b4bd 3c3b efbd 403f bcbb
000003d0: d3d3 08be d711 33be d843 05be 8b46 bfbd
000003e0: 4395 a5bd 6b79 15be 2dbf 063e 00b1 39bb
000003f0: 0c77 353d 109d 193d 5069 e93c 9594 313e

conv1.bias f4 [16]
-0.022714004 -0.046197772 0.12566696 0.060255513 -0.032732457 0.06078531 0.06939475 -0.17488235
0.1505438 0.0065380335 0.140433 0.05426763 0.18397908 0.11801924 -0.11718157 -0.115624845
00000000: b812 babc e039 3dbd d7ae 003e 7cce 763d
00000010: 7812 06bd 04fa 783d d61e 8e3d 5c14 33be
00000020: 2728 1a3e 003d d63b abcd 0f3e bc47 5e3d
00000030: 0365 3c3e 12b4 f13d e4fc efbd b8cc ecbd

conv2.weight f4 [32, 16, 3, 3]
-0.0755824 -0.053453922 -0.060420435 -0.05188995 -0.063685976 0.0036074743 -0.051663697 0.04454965
0.042413466 -0.012380831 -0.0107041225 -0.050233483 0.078392126 0.07035305 0.03505549 -0.029515099
-0.06697182 -0.02507621 0.07488724 -0.030703157 0.014071733 -0.04311089 -0.07074665 -0.0808851
-0.017074518 0.0008250177 0.011548661 -0.012634404 -0.012271024 0.07418064 -0.040135406 -0.055393517
-0.07497688 0.03463585 -0.012131192 0.06360299 -0.06841576 0.082738064 -0.006753415 0.0425668
-0.066933155 -0.06238259 0.0015764907 -0.0057980716 0.0029473677 0.07567642 0.06224606 0.06770248
-0.014249839 0.05655078 0.011276089 -0.033613168 0.055423982 0.06512106 0.06853712 0.06622704
0.016923368 -0.03178796 -0.032951564 0.049328722 -0.040953994 0.059019364 0.07038937 0.023333512
0.040923566 -0.009443194 0.01893758 -0.01713606 -0.010445289 -0.0048036873 0.06425587 -0.017013818
-0.0629981 0.06947256 -0.014847279 0.035509296 0.07558838 0.055346645 0.034405433 0.07489369
-0.030034393 0.020370781 -0.052682362 0.0016487166 0.030869722 -0.012149848 -0.015862375 -0.04080577
0.019899815 0.018739246 -0.052577347 -0.04216405 -0.06482206 -0.06909877 -0.041987747 -0.05651359
0.018918253 -0.036672972 0.04368397 -0.049835097 0.04747782 0.071397536 0.07969832 0.025155611
-0.0575463 -0.002150081 0.016662769 0.071519025 -0.022311013 -0.06929922 0.06778241 -0.04611796
0.043403797 0.047378995 -0.014099896 -0.070096605 0.08168004 -0.020422578 -0.075729445 0.033866964
-0.029248767 0.0482283 -0.052113585 -0.05227544 0.03753615 0.064089574 -0.041308165 -0.07639368
0.013459913 0.0052045584 0.04269872 -0.04988098 -0.066066325 -0.07605686 0.023834042 -0.0025233552
0.03065852 -0.07490493 -0.04394903 0.057320155 0.029573776 -0.023219358 -0.040866487 0.026940323
0.07913376 0.031581305 0.054951645 -0.01698298 -0.057361744 0.063124724 0.063970886 0.008922599
0.07012067 -0.00022387505 0.028106757 0.06962598 0.00904236 0.047516204 -0.08042579 0.072581746
-0.044737577 0.053629838 0.08202884 -0.045937203 -0.06641726 -0.07590201 0.03142046 0.0042409375
-0.043478698 -0.06180691 0.04716014 0.0735305 0.010764323 -0.049377315 -0.06202334 -0.050814122
0.05054129 -0.02415682 -0.08282241 0.015954755 -0.03614382 0.0017201826 -0.01647792 -0.08013036
-0.048698097 0.034843706 -0.00393939 -0.037115723 0.06727526 -0.059273362 -0.000383161 0.07818908
0.022776157 0.08071115 0.07299619 -0.023895621 0.026678838 -0.080055654 0.034077287 0.032605745
-0.058164578 0.06536526 -0.07117956 0.03272126 0.006409347 0.030667163 0.054373078 -0.06849302
-0.013435908 0.0283221 0.048230074 0.044365786 0.05648481 -0.016441487 0.026515521 0.057621203
-0.032365434 0.011462301 0.029870398 -0.02035191 -0.032312267 0.06795531 0.065213285 -0.004627317
0.07760862 -0.052957278 -0.027566485 0.025452733 0.047939904 -0.012401611 -0.035792373 -0.030354768
-0.0062093064 -0.040894758 -0.07312457 0.019323707 -0.07592277 0.05347056 0.06024068 0.07640173
0.044119127 -0.08133864 0.04377047 -0.04575644 -0.020337112 -0.0096336305 -0.052700453 0.024341166
0.0384636 -0.04581712 0.078294344 -0.048967283 0.035178065 -0.028566621 0.0113205835 -0.05060662
00000000: f2ca 9abd 80f2 5abd 6b7b 77bd 8e8a 54bd
00000010: cb6d 82bd 606b 6c3b 509d 53bd b279 363d
00000020: beb9 2d3d f8d8 4abc 5860 2fbc a0c1 4dbd
00000030: 0d8c a03d 4315 903d 5896 0f3d a6c9 f1bc
00000040: 8628 89bd a06c cdbc 7b5e 993d 3085 fbbc
00000050: 208d 663c 0b95 30bd 9fe3 90bd 16a7 a5bd
00000060: dcdf 8bbc 0046 583a 9836 3d3c 8800 4fbc
00000070: 680c 49bc 05ec 973d 0665 24bd 50e4 62bd
00000080: 7a8d 99bd 52de 0d3d e8c1 46bc 4942 823d
00000090: 901d 8cbd 9372 a93d c04b ddbb 865a 2e3d
000000a0: 4014 89bd e384 7fbd 40a2 ce3a c0fd bdbb
000000b0: a028 413b 3dfc 9a3d baf5 7e3d 99a7 8a3d
000000c0: 2878 69bc caa1 673d 58bf 383c f6ad 09bd
000000d0: 4204 633d 315e 853d 315d 8c3d 0ba2 873d
000000e0: e0a2 8a3c 1834 02bd 38f8 06bd ea0c 4a3d
000000f0: 60bf 27bd 4abe 713d 4d28 903d ec25 bf3c
00000100: 789f 273d a0b7 1abc fc22 9b3c ec60 8cbc
00000110: b822 2bbc 4068 9dbb 9598 833d 9060 8bbc
00000120: 2605 81bd a147 8e3d 0042 73bc 3272 113d
00000130: 15ce 9a3d 2ab3 623d b6ec 0c3d dd61 993d
00000140: b00a f6bc a0e0 a63c 76c9 57bd c019 d83a
00000150: 80e2 fc3c 2810 47bc d0f1 81bc f323 27bd
00000160: f004 a33c 0c83 993c 585b 57bd 36b4 2cbd
00000170: 6ec1 84bd a883 8dbd 58fb 2bbd cb7a 67bd
00000180: 74fa 9a3c 6636 16bd f6ed 323d e31f 4cbd
00000190: 1a78 423d df38 923d df38 a33d 2413 ce3c
000001a0: abb5 6bbd 60e8 0cbb 5c80 883c 9178 923d
000001b0: 96c5 b6bc c0ec 8dbd 81d1 8a3d 30e6 3cbd
000001c0: 2ec8 313d 7a10 423d 4003 67bc cf8e 8fbd
000001d0: dd47 a73d 404d a7bc 0a18 9bbd 16b8 0a3d
000001e0: 1c9b efbc 0a8b 453d 0e75 55bd c61e 56bd
000001f0: 82bf 193d 6541 833d c032 29bd 4a74 9cbd
00000200: f886 5c3c 008b aa3b dae4 2e3d 0050 4cbd
00000210: c84d 87bd b3c3 9bbd 9c3f c33c e05e 25bb
00000220: 9427 fb3c c267 99bd e603 34bd 8ac8 6a3d
00000230: b444 f23c 8636 bebc 9e63 27bd f4b1 dc3c
00000240: e110 a23d 665b 013d fa14 613d e41f 8bbc
00000250: 26f4 6abd 8947 813d 2b03 833d 1830 123c
00000260: 6d9b 8f3d 00c0 6ab9 2440 e63c 1198 8e3d
00000270: 6826 143c 5aa0 423d 47b6 a4bd bda5 943d
00000280: c03e 37bd f6aa 5b3d bdfe a73d a628 3cbd
00000290: c605 88bd 8372 9bbd beb2 003d 90f7 8a3b
000002a0: b816 32bd 3e29 7dbd fe2a 413d 2997 963d
000002b0: d85c 303c de3f 4abd 300c 7ebd 7822 50bd
000002c0: 6204 4f3d 86e4 c5bc cc9e a9bd 8cb3 823c
000002d0: 8b0b 14bd c077 e13a b4fc 86bc 631b a4bd
000002e0: a877 47bd 46b8 0e3d 0016 81bb a806 18bd
000002f0: 9dc7 893d a0c8 72bd 00e3 c8b9 9921 a03d
00000300: 1095 ba3c e34b a53d 077f 953d c0c0 c3bc
00000310: 948d da3c 38f4 a3bd a094 0b3d 9a8d 053d
00000320: fb3d 6ebd 39de 853d 97c6 91bd ba06 063d
00000330: 8005 d23b b439 fb3c 4eb6 5e3d 1246 8cbd
00000340: 4822 5cbc c003 e83c e68c 453d e6b8 353d
00000350: 9e5c 673d 4cb0 86bc 1437 d93c 3604 6c3d
00000360: 9e91 04bd 60cc 3b3c c4b2 f43c 0cb9 a6bc
00000370: de59 04bd 272c 8b3d 8b8e 853d c0a0 97bb
00000380: 45f1 9e3d bbe9 58bd 1cd3 e1bc 4082 d03c
00000390: a25c 443d 2030 4bbc 069b 12bd 90aa f8bc
000003a0: 7077 cbbb 4381 27bd 56c2 95bd c04c 9e3c
000003b0: 667d 9bbd f203 5b3d eebe 763d 8378 9c3d
000003c0: 42b6 343d df94 a6bd aa48 333d 1b6b 3bbd
000003d0: 049a a6bc 60d6 1dbc 6edc 57bd 2067 c73c
000003e0: 028c 1d3d bbaa 3bbd c958 a03d eb91 48bd
000003f0: e016 103d 8c04 eabc f879 393c e348 4fbd

conv2.bias f4 [32]
0.06818075 0.018361218 0.029838853 0.016106814 -0.082388274 0.013596095 -0.005319357 0.016955554
0.011370845 0.05668006 -0.060964912 -0.060777806 -0.0346665 -0.056230098 0.06329232 -0.0062738284
0.052778877 0.04018406 -0.010256909 -0.034199536 -0.043266617 0.06534334 0.07022285 -0.052568477
0.06420111 -0.024274241 -0.01323285 0.020456612 0.0046999976 -0.011358708 -0.079722695 -0.07981403
00000000: 59a2 8b3d 446a 963c 9c70 f43c 70f2 833c
00000010: 2fbb a8bd 28c2 5e3c 004e aebb 60e6 8a3c
00000020: c84c 3a3c 5a29 683d 58b6 79bd 26f2 78bd
00000030: 76fe 0dbd 8851 66bd 679f 813d b094 cdbb
00000040: aa2e 583d 0a98 243d 980c 28bc d014 0cbd
00000050: 5638 31bd bbd2 853d ffd0 8f3d 0b52 57bd
00000060: df7b 833d c6da c6bc 98ce 58bc a094 a73c
00000070: 7002 9a3b e019 3abc a745 a3bd 8a75 a3bd

fc.weight f4 [10, 1152]
-0.008063342 0.01370219 -0.025609534 0.025659932 -0.0023847427 0.023454102 0.011871433 -0.007193543
0.024217645 -0.021206671 -0.0020018108 0.009281574 -0.013802871 -0.0012251027 -0.019471291 -0.014255248
-0.02653526 -0.014034106 -0.01301755 -0.004345052 -0.0014072824 -0.013556674 0.028631384 0.0074952636
0.026108542 -0.019019142 -0.00041539967 -0.023733916 -0.02247872 0.025260286 0.017109526 0.0014335085
0.02813709 -0.028313762 -0.016626399 -0.008126296 -0.009288996 -0.021081647 -0.009193959 0.00373541
-0.028370641 -0.016789377 -0.0147871515 -0.021341963 0.0031616855 0.012588302 0.012971686 0.0068786237
-0.0211002 0.0014626458 -0.005272437 0.02163818 0.0035126153 -0.013077246 -0.026866898 0.02592956
-0.0019030105 -0.020276573 -0.020063348 -0.014799413 0.008726759 0.021176247 0.017165178 -0.0054157544
0.0012988355 0.0277414 0.019464111 -0.0050070453 0.0116537195 0.020822788 -0.026834203 0.022538496
0.01926622 -0.014349689 0.023072666 -0.028800234 0.0060464907 -0.021477882 0.02578657 0.012157859
-0.015878603 -0.028587958 -0.028103217 -0.013145648 0.022363724 -0.003759468 0.015094692 -0.028648548
0.027288662 -0.0063547827 0.004212836 0.008208422 -0.0059249047 -0.025176417 -0.013632191 -0.020962676
0.023518128 -0.021049164 -0.01413567 -0.001667561 0.025316784 -0.005095681 -0.018999975 -0.0010693185
-0.018861182 -0.0016644765 -0.0023054536 -0.020972736 -0.013152743 0.021673558 0.014007213 0.0070755426
-0.011945449 0.0010912418 -0.003264062 0.023660505 0.0022425782 -0.0018962808 0.019185102 -0.022035405
-0.022751251 -0.022535639 -0.0075999275 0.018068163 -0.026924348 -0.0194549 -0.02045108 -0.004405698
-0.01626107 -0.009212581 0.011204543 -0.028327592 0.017928122 0.015135856 0.004283866 -0.008563755
0.01460815 0.018529804 0.025775226 0.02528177 0.013827341 0.013245875 -0.0039026476 -0.021610271
-0.027741874 0.027299976 0.0013574474 0.02293302 -0.016363788 0.010287276 -0.02327455 -0.0042887293
0.011035891 0.024299653 -0.022434926 0.019392943 0.021008847 -0.012413364 0.0025831629 -0.01742455
-0.008888103 -0.025266372 -0.007726701 -0.028531821 0.023081193 -0.019426182 0.018418314 0.001378838
0.013254372 -0.021763958 -0.013392353 -0.005646266 0.009649975 -0.0069152266 0.012959929 0.012585783
0.007445248 -0.012781825 -0.00304427 -0.015907321 0.0054303166 -0.016730255 -0.010759914 -0.029230233
-0.028144615 0.027532952 -0.028203003 0.0027904827 0.010958379 0.0011150129 -0.0033484995 -0.028883955
-0.019078825 -0.02816964 0.01485634 0.029370444 0.009182157 -0.019388689 0.007038137 0.00035387278
0.022688465 0.009274544 0.011380667 0.029073203 0.020027542 -0.009755908 0.00031752698 -0.0222139
-0.0009549428 -0.010771478 -0.009297591 -0.017366506 -0.027566586 0.021859812 -0.010494819 0.021967074
-0.020128338 0.00025220402 0.0010322612 0.020597545 0.009803979 -0.01324809 -0.02141491 0.014582245
-0.014511322 -0.017802287 0.02302271 -0.011304881 -0.02308729 -0.01710686 0.0015550014 0.008596061
0.027383508 0.007100882 -0.016419608 -0.024957519 -0.015225746 -0.008061416 0.009119978 0.026588948
0.0051183607 -0.019983698 -0.026906822 -0.0023780055 -0.0026889835 -0.011357391 -0.0028781109 -0.028078754
0.013827948 -0.022393633 0.004251411 -0.024364935 -0.028689234 -0.011881499 0.020857414 0.00051307864
00000000: 1c1c 04bc 267f 603c 16cb d1bc c734 d23c
00000010: 5849 1cbb d122 c03c 6680 423c d0b7 ebbb
00000020: 1564 c63c 9db9 adbc d030 03bb be11 183c
00000030: 7025 62bc a093 a0ba 4282 9fbc d88e 69bc
00000040: 7960 d9bc 4fef 65bc 9047 55bc f060 8ebb
00000050: 9074 b8ba d01c 5ebc 5d8c ea3c d49a f53b
00000060: 95e1 d53c 08ce 9bbc 00ca d9b9 a16d c2bc
00000070: 4b25 b8bc a9ee ce3c 4729 8c3c 90e4 bb3a
00000080: c17f e63c 43f2 e7bc 1634 88bc 2824 05bc
00000090: e030 18bc 6bb3 acbc 42a2 16bc c8cd 743b
000000a0: 8c69 e8bc e089 89bc cf45 72bc 57d5 aebc
000000b0: 4834 4f3b 2a3f 4e3c 3287 543c 1466 e13b
000000c0: 54da acbc 40b6 bf3a 68c4 acbb 8d42 b13c
000000d0: e833 663b f241 56bc f817 dcbc 3b6a d43c
000000e0: 706e f9ba 0e1b a6bc e45b a4bc 3d79 72bc
000000f0: aefa 0e3c cf79 ad3c fd9d 8c3c a476 b1bb
00000100: b03d aa3a ef41 e33c 3373 9f3c 2412 a4bb
00000110: 3eef 3e3c 8d94 aa3c 67d3 dbbc a7a2 b83c
00000120: 31d4 9d3c f51a 6bbc e302 bd3c 78ee ebbc
00000130: a421 c63b 62f2 afbc 5b3e d33c c231 473c
00000140: d813 82bc 4b31 eabc b838 e6bc d860 57bc
00000150: 2134 b73c 6861 76bb ba4f 773c 5cb0 eabc
00000160: 798c df3c c83b d0bb d40b 8a3b 9e7c 063c
00000170: b425 c2bb c63e cebc 8e59 5fbc ebb9 abbc
00000180: 17a9 c03c 4c6f acbc 4c99 67bc 1092 daba
00000190: 2565 cf3c acf9 a6bb d6a5 9bbc 6028 8cba
000001a0: c482 9abc 902a daba 1817 17bb 04cf abbc
000001b0: 9a7e 57bc bf8c b13c 827e 653c f4d9 e73b
000001c0: d8b6 43bc 0008 8f3a e0e9 55bb add3 c13c
000001d0: 38f8 123b a08c f8ba 132a 9d3c 9883 b4bc
000001e0: d560 babc a99c b8bc d008 f9bb af03 943c
000001f0: 7390 dcbc e25f 9fbc 0689 a7bc ac5d 90bb
00000200: ef35 85bc 5ef0 16bc 4293 373c 440f e8bc
00000210: ffdd 923c 62fc 773c ac5f 8c3b fe4e 0cbc
00000220: 0657 6f3c d1cb 973c 9126 d33c b71b cf3c
00000230: 128c 623c 3a05 593c 90c3 7fbb 0608 b1bc
00000240: ed42 e3bc 33a4 df3c 60ec b13a 07de bb3c
00000250: 5a0d 86bc f68b 283c 45aa bebc 7888 8cbb
00000260: e2cf 343c 1110 c73c 73c9 b7bc f3dd 9e3c
00000270: bf1a ac3c 6c61 4bbc 484a 293b eebd 8ebc
00000280: 689f 11bc 6cfb cebc 4430 fdbb 91bb e9bc
00000290: c514 bd3c a823 9fbc 01e2 963c 20ba b43a
000002a0: de28 593c 544a b2bc 9a6b 5bbc 5004 b9bb
000002b0: ee1a 1e3c 2099 e2bb e255 543c 9a34 4e3c
000002c0: 44f7 f33b dc6a 51bc 6082 47bb 1250 82bc
000002d0: ccf0 b13b e30d 89bc 5a4a 30bc 3e74 efbc
000002e0: 898f e6bc c98c e13c fc09 e7bc 88e0 363b
000002f0: c68a 333c a025 923a 8072 5bbb 0b9e ecbc
00000300: 324b 9cbc 04c4 e6bc 0268 733c 499a f03c
00000310: c270 163c 07d5 9ebc 2ca0 e63b 0088 b939
00000320: 29dd b93c 42f4 173c fa75 3a3c ed2a ee3c
00000330: cd10 a43c 3ed7 1fbc c079 a639 edf9 b5bc
00000340: 2055 7aba da7a 30bc ec54 18bc 3444 8ebc
00000350: 52d3 e1bc 5913 b33c 76f2 2bbc 4bf4 b33c
00000360: 2fe4 a4bc 403a 8439 f04c 873a 2fbc a83c
00000370: dea0 203c 840e 59bc 526e afbc 5eea 6e3c
00000380: e5c0 6dbc 1ad6 91bc 1f9a bc3c 1c38 39bc
00000390: 8e21 bdbc b023 8cbc 30d1 cb3a 7ed6 0c3c
000003a0: 6153 e03c 84ae e83b 6a82 86bc b673 ccbc
000003b0: 6875 79bc 0814 04bc f66b 153c 11d1 d93c
000003c0: ecb7 a73b dab4 a3bc b26b dcbc 50d8 1bbb
000003d0: a839 30bb 5a14 3abc b09e 3cbb 6a05 e6bc
000003e0: 9e8e 623c da72 b7bc 6c4f 8b3b f998 c7bc
000003f0: af05 ebbc 9eaa 42bc 2bdd aa3c 2080 063a

fc.bias f4 [10]
0.025792288 -0.004539402 -0.013825655 0.01762714 -0.023016095 -0.013163023 -0.0015782416 0.0067169424
0.02514896 -0.020128842
00000000: 594a d33c 44bf 94bb 0085 62bc cb66 903c
00000010: 408c bcbc b8a9 57bc 00dd ceba cc19 dc3b
00000020: 3105 ce3c 3ee5 a4bc
