test_mlp.onnx (onnx, 264164 bytes, 4 tensors)

fc1.weight f4 [256, 128]
0	0x3db30a91	0.0874225
1	0xbd592c0c	-0.053020522
2	0x3d0899d8	0.03334984
3	0x3d0874de	0.03331458
4	0xbda521f8	-0.0806312
5	0x3d6429d2	0.055703945
6	0xba145300	-0.000565812
7	0x3c8ca568	0.017168716
8	0x3c15e018	0.009147666
9	0x3d47e86e	0.048805647
10	0xbda68c9e	-0.08132289
11	0xbd59b15f	-0.05314767
12	0xbbc33790	-0.0059575513
13	0xbd515f5e	-0.05111634
14	0xbc258a50	-0.010103777
15	0x3d5a6e66	0.05332794
16	0xbcada750	-0.021197945
17	0xbceebf7c	-0.029144041
18	0xbd19ab14	-0.03751667
19	0x3d857be9	0.065177746
20	0xbd549d31	-0.051907722
21	0x3dadc705	0.084852256
22	0x3d614522	0.05499757
23	0xbd86ee67	-0.065884404
24	0x3c2579c8	0.010099836
25	0xbd7b885e	-0.061409347
26	0x3bd853b0	0.006601773
27	0xbcfd4a54	-0.030919231
28	0x3d62fe4e	0.055418305
29	0x3ced020c	0.02893164
30	0xbd95dd4f	-0.07317602
31	0x3cac9638	0.021067724
32	0x3d51f5fa	0.051259972
33	0xbc9284ac	-0.017885529
34	0x3d3bdfca	0.04586772
35	0xbbe78920	-0.007065907
36	0xbd942988	-0.07234484
37	0x3d227082	0.039658077
38	0xbd4b62cd	-0.04965477
39	0xbd221d01	-0.03957844
40	0xbc871274	-0.016488291
41	0x3d0d2a9e	0.03446447
42	0x3d17b106	0.037034057
43	0x3cd9ae48	0.026572362
44	0x3d8f8591	0.07007898
45	0xbc8f2760	-0.01747483
46	0x3d8a7411	0.06760419
47	0x3d5eea1e	0.05442249
48	0x3cb593c8	0.022165194
49	0x3cd71dd4	0.02625934
50	0x3d9a3f35	0.07531587
51	0xbd01d788	-0.031699687
52	0xbd1c0c5d	-0.038097728
53	0xbd0f2164	-0.034943953
54	0x3d839f11	0.06426824
55	0x3af59540	0.0018736497
56	0x3d34574e	0.044028573
57	0x3da7bbed	0.08190141
58	0xbd270ffc	-0.04078673
59	0x3d3b4cfe	0.045727722
60	0xbd573c1d	-0.052547563
61	0x3d900e63	0.07033994
62	0x3ba335a0	0.004980758
63	0x3d0ab79a	0.033866502
64	0xbd8eb3d4	-0.06967893
65	0xbc0fcd20	-0.008776933
66	0x3d56b482	0.05241824
67	0xbd9b3320	-0.07578111
68	0x398eb300	0.00027217716
69	0xba63f780	-0.0008696243
70	0x3d956f27	0.07296591
71	0xbda7ef92	-0.08199991
72	0x3cc1412c	0.023590647
73	0x3d137554	0.036000565
74	0x3caca0e0	0.021072805
75	0xbb661b20	-0.0035111383
76	0xbd2fd4bd	-0.042927492
77	0xbd43692a	-0.047707714
78	0xbd2f7569	-0.04283658
79	0xbc8c87fc	-0.017154686
80	0xbd70b4da	-0.058766223
81	0x3d75ecce	0.060040288
82	0x3d32d56e	0.043660574
83	0xbb31ac40	-0.0027110726
84	0xbbfdc420	-0.007744327
85	0xbd7928f1	-0.06083006
86	0xbb08db80	-0.0020882785
87	0x3c8a7184	0.016899832
88	0xbd56e028	-0.052459866
89	0x3cf9feb4	0.03051696
90	0x3d0857fc	0.033287033
91	0x3d87d013	0.06631484
92	0xbba2ace0	-0.004964456
93	0x3db4c83f	0.088272564
94	0xbc2eddd0	-0.010673001
95	0xbb925e00	-0.004466772
96	0x3d247ac6	0.04015615
97	0xbdb4df05	-0.088316
98	0xbca6bf88	-0.020355001
99	0x3d824e47	0.063625865
100	0x3cbfdf80	0.023422003
101	0x3d035506	0.032063507
102	0xbd30b352	-0.043139763
103	0x3d6e8896	0.058235727
104	0x3cce85e4	0.025210328
105	0xbd7b114c	-0.061295792
106	0x3d4c86d6	0.049933277
107	0x3d1c1762	0.038108237
108	0x3d2f5c6a	0.042812742
109	0x3d1c70ba	0.038193442
110	0xbc8b7b1c	-0.017026477
111	0x3c156970	0.009119377
112	0x3cb4e23c	0.022080533
113	0x3d9a6335	0.075384535
114	0xbd0ee46f	-0.03488582
115	0x3d44b352	0.048022576
116	0xbd0add19	-0.03390226
117	0x3d320f02	0.043471344
118	0x3c6ee460	0.014580816
119	0xbc92914c	-0.017891549
120	0x3d42605e	0.047455184
121	0x3d5e4e72	0.05427403
122	0xbd026308	-0.031832725
123	0x3d069a3a	0.032861926
124	0xbce93408	-0.028467193
125	0xbc57f398	-0.013180636
126	0xbd299099	-0.041397665
127	0x3d3d60ce	0.0462349
128	0xbd864447	-0.065559916
129	0xbd3ad11f	-0.04560959
130	0x3b88e7b0	0.00417801
131	0x3cff2b8c	0.031148694
132	0xbca25e78	-0.019820437
133	0x3c96d858	0.018413708
134	0x3d07f31c	0.03319083
135	0xbd8a7869	-0.06761248
136	0x3cbf14b4	0.023325302
137	0x3d1589e8	0.03650847
138	0x3cb85f38	0.022506341
139	0x3b8784f0	0.0041357204
140	0x3d083dd4	0.03326209
141	0xbc864fa4	-0.016395397
142	0x3c86f30c	0.016473316
143	0x3c345b40	0.011008084
144	0x3ccd8d0c	0.02509167
145	0x3ce22a48	0.027608052
146	0x3c8b6830	0.017017454
147	0x3c8634f8	0.01638268
148	0xbdb41946	-0.08793883
149	0xbd96979c	-0.07353136
150	0xbd0179d7	-0.031610336
151	0x3cc4f494	0.024042405
152	0x3b6a4320	0.0035745576
153	0xbac38380	-0.0014916509
154	0xbc4ee320	-0.012627393
155	0xbd1c93dc	-0.038226947
156	0x3ce8ca18	0.028416678
157	0x3d408206	0.046999
158	0x3c8f0a04	0.01746083
159	0xbd89af0d	-0.067228414
160	0x3ca2fd1c	0.019896083
161	0x3d67272a	0.056433834
162	0xbd9f401c	-0.077759
163	0xb930e800	-0.00016871095
164	0x3cdfbbc8	0.02731122
165	0x3c8dd788	0.017314687
166	0x3d7daabe	0.06193041
167	0x3d2eb20e	0.042650275
168	0xbd8c3b0a	-0.06847198
169	0x3cae6eb4	0.021293022
170	0xbd2e7477	-0.04259154
171	0xbccdac80	-0.025106668
172	0xbd4059cf	-0.04696065
173	0x3d5f7182	0.05455161
174	0xbc699b70	-0.014258251
175	0xbd9f7059	-0.077851005
176	0xbdabc197	-0.08386534
177	0xbd83b124	-0.06430271
178	0x3d33b526	0.04387393
179	0x3c28ffd8	0.010314904
180	0x3d880087	0.066407256
181	0x3d8c0f5f	0.06838869
182	0xbdaa7999	-0.08323974
183	0x3d869085	0.06570534
184	0x3cdc7db8	0.026915416
185	0x3d2546ee	0.040350847
186	0x3d3f67ee	0.046729974
187	0x3d86d007	0.06582647
188	0xbc3101d8	-0.010803662
189	0x3d4bffa2	0.049804337
190	0xbdad8ba7	-0.08473902
191	0x3d1e0652	0.038580246
192	0x3c617fa0	0.013763338
193	0x3d48aeae	0.048994713
194	0xbc7cc2b0	-0.0154272765
195	0xbd5d0c98	-0.05396709
196	0xbc519e60	-0.012794107
197	0x3d8990c3	0.06717064
198	0x3da63941	0.08116389
199	0x3d35e7ce	0.04441052
200	0x3cfd1920	0.03089577
201	0xbd0921ad	-0.03347938
202	0x3da2c1ab	0.079470955
203	0xbd23d237	-0.0399954
204	0x3d6f0406	0.058353446
205	0xbda87c3b	-0.0822682
206	0x3d7a198a	0.061059512
207	0xbcc7a000	-0.024368286
208	0xbdb39471	-0.08768547
209	0x3d4592ae	0.048235588
210	0x3ba3df90	0.005001016
211	0x3d47dac2	0.048792608
212	0xbd47cc50	-0.048778832
213	0x3da036b7	0.07822936
214	0x3d38e52e	0.045140438
215	0xbd30385a	-0.04302249
216	0x39dc1b00	0.00041981786
217	0xbda79d9f	-0.08184361
218	0x3d87c9c1	0.066302784
219	0xbd34787d	-0.04406022
220	0x3dafec55	0.08589999
221	0x3d9dbe4f	0.07702314
222	0x3be73640	0.0070560277
223	0xbd679df9	-0.05654714
224	0xbd877b78	-0.06615347
225	0x3d95723b	0.07297178
226	0xbd57c6df	-0.052679893
227	0x3d3fcc8e	0.046825938
228	0xbdabde88	-0.08392054
229	0xbc8e87c4	-0.017398722
230	0x3d4069c2	0.04697586
231	0xbda6784b	-0.08128413
232	0x3c85f55c	0.016352348
233	0xbd6dce3c	-0.05805801
234	0x3d02a92e	0.031899624
235	0xbdaca895	-0.08430592
236	0x3d848fbf	0.0647273
237	0xbd6bdf32	-0.057585903
238	0xbb27a800	-0.0025582314
239	0xbbfcd4f0	-0.007715814
240	0x3c84cdb8	0.016211376
241	0xbd4c2095	-0.04983576
242	0xbd970f86	-0.07376008
243	0x3d899fdf	0.06719946
244	0x3d7e02c2	0.06201435
245	0x3d40663a	0.04697249
246	0x3d542ac6	0.051798604
247	0x3da193d5	0.07889525
248	0xbc87f120	-0.01659447
249	0x3db29ea3	0.08721664
250	0x3d2205de	0.039556377
251	0xbda9ac1c	-0.082847804
252	0x3aaec340	0.0013333336
253	0x3d2d3f5e	0.04229676
254	0xbd99ae09	-0.07503898
255	0xba578400	-0.00082212687

fc1.bias f4 [256]
0	0x3d8abc39	0.06774182
1	0xbc327ee0	-0.010894507
2	0x3d10d2f2	0.035357423
3	0xbd3319f4	-0.043725923
4	0xbd07cb6f	-0.033152994
5	0x3db21a35	0.08696405
6	0xbb93d4b0	-0.0045114383
7	0x3d913927	0.07090979
8	0xbd0e9ad4	-0.034815624
9	0xbc392a70	-0.011301622
10	0x3b871950	0.0041228905
11	0xbd6887d4	-0.05677016
12	0x3d27fe86	0.041014217
13	0x3da6b46f	0.08139884
14	0xbd8a612a	-0.06756814
15	0x3d192a8e	0.0373941
16	0x3cd4aa80	0.025960207
17	0xbd49f118	-0.04930219
18	0xbd039e36	-0.032133304
19	0xbd24a678	-0.04019782
20	0x3c5db198	0.013531111
21	0xbd9163cc	-0.07099113
22	0x3d0c5298	0.034258455
23	0x3d962195	0.07330624
24	0xbd8e34cc	-0.06943664
25	0x3da3d4bb	0.079995595
26	0xbd9fccb5	-0.07802717
27	0xbb926cb0	-0.004468523
28	0x3d32a3f6	0.043613397
29	0x3d9671cb	0.07345923
30	0x3d83dbc7	0.064384036
31	0xbd8cc8d3	-0.06874242
32	0x3d4cf642	0.050039537
33	0xbc3bca40	-0.011461794
34	0xbd8b5513	-0.06803336
35	0xbcaffe80	-0.02148366
36	0xbd8368cc	-0.06416473
37	0x3d60cb7e	0.054881565
38	0x3d4be28a	0.04977659
39	0x3d9f9bd3	0.07793393
40	0xbc0fdbe0	-0.00878045
41	0x3d9f832b	0.0778869
42	0xbdb0ecff	-0.086389534
43	0xbbbe3cd0	-0.0058055893
44	0x3d626aee	0.055277757
45	0xbcfa5358	-0.03055732
46	0xbca0f2a0	-0.019646943
47	0xbb927ca0	-0.004470423
48	0xbc085e70	-0.008323297
49	0x3d22e55e	0.039769523
50	0xbcbc7384	-0.0230043
51	0x3beb6150	0.0071832314
52	0x3da75259	0.081700034
53	0xbc094910	-0.008379236
54	0xbd2a3bd2	-0.041560955
55	0x3d6dd712	0.058066435
56	0xbd9e16ae	-0.077191696
57	0xbd9df3f5	-0.07712547
58	0x3d5c294a	0.053750314
59	0x3c4e8a50	0.012606218
60	0xbd80f142	-0.06296016
61	0xbd110cc6	-0.035412572
62	0x3d78972e	0.06069105
63	0xbc365760	-0.01112923
64	0x3d840403	0.06446078
65	0x3d84c8ad	0.06483588
66	0xbced2c3c	-0.028951757
67	0xbc4599d0	-0.012060598
68	0x3d46561e	0.04842197
69	0x3d8744bf	0.06604909
70	0x3d36bd12	0.044613905
71	0xbceb1ada	-0.028699327
72	0xbc8a358c	-0.016871236
73	0x3d892ef1	0.066984065
74	0xbda92a27	-0.08259993
75	0x3c9174e8	0.01775594
76	0x3d4e28c2	0.05033184
77	0x3b8b96a0	0.0042598993
78	0x3da3e923	0.08003452
79	0x3da9f98d	0.08299551
80	0x3d60ef86	0.054915927
81	0x3db0f995	0.08641354
82	0xbd158fc1	-0.036514048
83	0xbdaa5a02	-0.08317949
84	0xbd827576	-0.0637006
85	0x3d6ae272	0.05734486
86	0x3d622d3e	0.055218928
87	0xbd666522	-0.05624879
88	0xbd6a1577	-0.057149377
89	0x3bb06e40	0.0053842366
90	0xbd7acc99	-0.061230276
91	0x3ce46c34	0.027883627
92	0xbcdf9ea2	-0.027297322
93	0xbd0350d1	-0.032059494
94	0x3d13a648	0.03604725
95	0x3d44683e	0.047950976
96	0x3d41ec1e	0.04734432
97	0xbd8c1966	-0.06840782
98	0x3b095120	0.0020952895
99	0xbd9f536a	-0.07779582
100	0x3d2cb12a	0.042161144
101	0x3d480b82	0.0488391
102	0xbc838268	-0.016053393
103	0x3c3912f0	0.011296019
104	0xbd11b867	-0.03557625
105	0x3d32a17a	0.043611027
106	0xbd9cb8a7	-0.07652407
107	0xbb698140	-0.0035630018
108	0xbce5e3d0	-0.028062731
109	0x3d28d6f2	0.041220613
110	0x3d75687a	0.05991409
111	0xbd86b736	-0.065779135
112	0x3d1037fa	0.035209633
113	0xbbe9f260	-0.007139489
114	0xbd58807f	-0.05285692
115	0xbd924694	-0.07142368
116	0xbd399533	-0.045308303
117	0xbd465cda	-0.048428394
118	0xbc7c8de8	-0.015414692
119	0x3c76e208	0.0150685385
120	0xbd96b463	-0.07358625
121	0xbda02904	-0.07820323
122	0x3ab5b240	0.0013862327
123	0xbd388603	-0.04504968
124	0xbd0cccb6	-0.034374915
125	0xbd6657e9	-0.05623618
126	0x3c491398	0.012272738
127	0x3c2c2e88	0.010509141
128	0xb9c38e00	-0.00037299097
129	0xbd3626bb	-0.04447053
130	0x3daab8eb	0.083360516
131	0xbd0c4ad9	-0.034251068
132	0x3ba0f7e0	0.0049123615
133	0xbd439be9	-0.04775611
134	0xbda170a9	-0.07882816
135	0xbd3bab2d	-0.045817543
136	0x3bb59780	0.005541742
137	0x3d9bb2a9	0.07602436
138	0xbd509238	-0.050920695
139	0x3d8a6e9f	0.067593805
140	0xbda6bd06	-0.08141522
141	0x3d0c98d6	0.034325443
142	0x3d79d3c6	0.06099298
143	0xbcb8c6a4	-0.022555657
144	0x3d35815e	0.044312827
145	0x3d93f4e5	0.07224444
146	0x3d782d42	0.060590036
147	0xbd95a3f1	-0.0730666
148	0xbd2ba9cd	-0.04190998
149	0xbd5e3d8e	-0.054257922
150	0x3d6103be	0.05493521
151	0xbdab6545	-0.08368925
152	0xbc9e85d0	-0.019350916
153	0xbce22834	-0.027607061
154	0xbd1a578f	-0.03768116
155	0xbcc0db48	-0.023542061
156	0xbd5e11b7	-0.054216113
157	0x3d547226	0.051866673
158	0xbd902896	-0.07038991
159	0xbb0ea0c0	-0.0021763295
160	0xbd9d467c	-0.076794595
161	0x3d72c06a	0.05926553
162	0xbd6cc488	-0.057804614
163	0x3ca8584c	0.020549916
164	0xbd99352e	-0.07480846
165	0xbd171964	-0.03688945
166	0xbc81f978	-0.015866026
167	0xbd4ca6bc	-0.049963698
168	0x3da465fb	0.08027264
169	0x3d2f3d6a	0.04278318
170	0x3d441f1a	0.047881223
171	0xbd7d4c7c	-0.06184052
172	0x3c217850	0.009855345
173	0xbb9ad400	-0.0047249794
174	0x3da7a9cb	0.08186682
175	0x3da92eab	0.08260854
176	0x3cec20b8	0.028824195
177	0x3c010ad8	0.0078761205
178	0x3da422b7	0.08014434
179	0x3cc93920	0.024563372
180	0x3c8fc8b4	0.017551757
181	0xbc272240	-0.010201037
182	0xbd4a5017	-0.049392786
183	0xbd562aac	-0.05228679
184	0xbd748180	-0.059693813
185	0x3c94cc74	0.018163897
186	0xbc867f04	-0.016417988
187	0x3d0dbd52	0.034604378
188	0xbd8f7884	-0.070054084
189	0xbd7904a6	-0.06079545
190	0x3d7b8e16	0.0614148
191	0x3d38e512	0.045140333
192	0x3b8314a0	0.0040002614
193	0xbda0cc38	-0.07851452
194	0xbdb1519d	-0.086581446
195	0x3ccf40a8	0.025299385
196	0xbd97262b	-0.07380327
197	0xbdb4a0bd	-0.08819721
198	0xbd4f6cd9	-0.050640915
199	0x3d8f40f1	0.069948085
200	0x3cf5d24c	0.030007504
201	0xbce5da2e	-0.028058138
202	0x3c9ada00	0.018902779
203	0x3c2cfd58	0.010558449
204	0x3cf92f54	0.030418076
205	0x3d8a8041	0.06762744
206	0xbacefc80	-0.0015791804
207	0xbd7b7e48	-0.061399728
208	0x3d4e1746	0.050315164
209	0x3d6fa1ce	0.05850392
210	0xbd2c9e6d	-0.042143274
211	0xbd134125	-0.0359508
212	0x3c234c80	0.0099669695
213	0xbd7de03d	-0.06198143
214	0xbd829a52	-0.063770905
215	0x3d8f8a97	0.07008856
216	0xbdaf87f9	-0.085708566
217	0xbd976dbe	-0.073939785
218	0xbcb19778	-0.021678671
219	0xbd03bdb9	-0.032163355
220	0x3d95b461	0.07309795
221	0x3c9f16e4	0.019420095
222	0xbb0a39e0	-0.0021091625
223	0x3d8d49fd	0.06898878
224	0x3ceb02ac	0.028687797
225	0x3d393ab6	0.045222007
226	0x3c704d98	0.014666937
227	0xbdab94e4	-0.08378008
228	0xbd82cca2	-0.06386687
229	0x3cce4570	0.025179595
230	0xbd268fbb	-0.040664416
231	0xbd281986	-0.041039966
232	0x3c15c720	0.009141713
233	0xbcbaa2a8	-0.022782639
234	0xbd81c28e	-0.063359365
235	0x3d36dc22	0.04464353
236	0xbda10afb	-0.078634225
237	0xbc82fc80	-0.015989542
238	0x3d6f4dde	0.05842387
239	0xbd61ba31	-0.055109207
240	0xbb554900	-0.0032544732
241	0xbaabfc00	-0.0013121367
242	0xbd853c9e	-0.065057024
243	0xbc55f188	-0.013058074
244	0xbd8d763e	-0.069073185
245	0xbccb4f68	-0.024818137
246	0xbd631441	-0.055439238
247	0xbc36c0a8	-0.011154331
248	0x3cf82088	0.03028895
249	0xbd5ca096	-0.053864084
250	0xbca9be3c	-0.020720594
251	0xbc28a9d8	-0.0102944
252	0xbbf6d260	-0.007532403
253	0xbcab1264	-0.020882793
254	0x3b8ba780	0.004261911
255	0xbb10f1c0	-0.002211675

fc2.weight f4 [128, 256]
0	0x3d0dd15e	0.034623496
1	0xbcd4ce68	-0.025977328
2	0xbd263420	-0.040577054
3	0xbc7dfaa8	-0.015501656
4	0xbd6707da	-0.056403972
5	0x3d35fbe6	0.044429682
6	0xbcf5de48	-0.030013219
7	0x39999700	0.00029294938
8	0xbc800e60	-0.015631855
9	0xb9fd6500	-0.0004833117
10	0xbd7370e2	-0.059433825
11	0xbd06d0b4	-0.03291388
12	0x3d31b66c	0.04338686
13	0xbcfd016c	-0.030884467
14	0x3d71f8f8	0.059075326
15	0x3d15d76e	0.036582403
16	0x3b88f550	0.004179634
17	0xbd48cbfc	-0.04902266
18	0xbd394754	-0.04523404
19	0x3d22faa8	0.039789826
20	0xbd7cc648	-0.061712533
21	0xbb4a1d60	-0.0030840263
22	0x3cc3a59c	0.02388268
23	0xbcf68a84	-0.030095346
24	0x3c9923c8	0.01869382
25	0x3d1776a2	0.03697837
26	0x3d3df322	0.046374448
27	0xbd4ffa6e	-0.050775938
28	0x3d3e273a	0.046424128
29	0x3d58f30a	0.052966155
30	0xbd7ca130	-0.061677158
31	0x3d63cfc0	0.055618048
32	0x3c79f628	0.015256442
33	0x3d52cb26	0.05146327
34	0x3d755efc	0.059905037
35	0xbcc36b98	-0.023855016
36	0x3d404e62	0.04694975
37	0xbd4de288	-0.050264865
38	0x3ccd0038	0.025024518
39	0xbc8c94cc	-0.017160796
40	0xbd42f510	-0.04759699
41	0x3d73a104	0.05947973
42	0x3ca54474	0.020174243
43	0x3c389490	0.011265889
44	0xbcd9f8fc	-0.026607983
45	0xbd29c21a	-0.041444875
46	0x3c0e9c78	0.008704297
47	0xbc4343c8	-0.011918016
48	0x3d0c977a	0.034324147
49	0x3cf4f680	0.029902697
50	0x3b986f30	0.0046519265
51	0x3c1fda20	0.009756595
52	0x3c15c4e0	0.009141177
53	0xbcf7cee4	-0.03025002
54	0x3cb58c38	0.022161588
55	0x3d6bac48	0.057537347
56	0x3d4472ca	0.047961034
57	0xbd7e703c	-0.062118754
58	0x3cec4a54	0.028844036
59	0x3d68bbb2	0.056819625
60	0xbc60fb18	-0.01373174
61	0xbc01b6d8	-0.0079171285
62	0xbd3e7034	-0.046493724
63	0xbc9af804	-0.018917091
64	0xbc785a78	-0.015158288
65	0xbd696f7c	-0.056991085
66	0xbb7551e0	-0.0037432835
67	0xbd365bb8	-0.044521064
68	0xbcb833a4	-0.022485562
69	0x3c5e1a60	0.013556093
70	0xbc6ce2f8	-0.01445841
71	0x3d7559b8	0.059900016
72	0xbd7c7b60	-0.061641097
73	0xbcba80dc	-0.022766523
74	0xbcc64eac	-0.024207436
75	0x3d143210	0.036180556
76	0x3d4f65fc	0.05063437
77	0xbd4dda18	-0.05025682
78	0x3d7e7296	0.062120996
79	0xba81bb80	-0.0009897798
80	0x3cf59658	0.029978916
81	0xbce0abac	-0.02742561
82	0x3d30087e	0.04297685
83	0x3c9d9544	0.019236214
84	0xbd79dc5c	-0.061001167
85	0x3c8eb06c	0.017418109
86	0xbd01d7ca	-0.031699933
87	0x3d22d45a	0.039753295
88	0x3d065a90	0.03280121
89	0x3d0badc0	0.034101248
90	0xbd7e0486	-0.062016033
91	0x3d335d76	0.043790303
92	0x3d312498	0.04324779
93	0xbcf7f1a4	-0.03026659
94	0xbd258584	-0.040410534
95	0x3cdb8394	0.02679614
96	0x3d03aeb2	0.032149024
97	0xbd1ef1b4	-0.038804725
98	0x3cb11334	0.021615602
99	0x3c072840	0.008249342
100	0x3c5319a8	0.012884535
101	0xbc9c5c68	-0.019087031
102	0xbd6af81a	-0.057365514
103	0x3d396238	0.045259684
104	0x3d52d9a8	0.051477104
105	0x3c46f490	0.012143269
106	0x3d4987de	0.04920184
107	0xbd7a0d52	-0.06104786
108	0xbb286220	-0.0025693253
109	0x3d1f76fc	0.03893183
110	0xbd1d14b2	-0.038349815
111	0x3c6afa30	0.014341876
112	0x3d7e0cda	0.062023975
113	0x3d12e2ec	0.03586094
114	0x3c189cd8	0.009314738
115	0xbd42af16	-0.047530256
116	0xbcdc46b4	-0.026889183
117	0x3d44ee18	0.048078626
118	0xbd595dda	-0.05306802
119	0xbd4a0d46	-0.049329065
120	0xbcf33fc8	-0.0296935
121	0xbd6fd718	-0.05855474
122	0x3c9b7a14	0.01897911
123	0xbd6384b4	-0.055546477
124	0x3ce0e5e8	0.027453378
125	0xbd558ad2	-0.052134342
126	0xbd4898aa	-0.048973717
127	0x3c034918	0.008013032
128	0x3cb2603c	0.021774404
129	0x3d6ac1fe	0.05731391
130	0xbba21df0	-0.0049474165
131	0x3a760c00	0.00093859434
132	0xbcc701f0	-0.024292916
133	0xbd05f9ae	-0.032708816
134	0xbbc91730	-0.0061367974
135	0x3ce54a34	0.027989484
136	0xbb062da0	-0.0020473972
137	0xbcc0cdec	-0.023535691
138	0xb9ffcb00	-0.00048788637
139	0x3bfc71e0	0.0077040046
140	0x3d1a47fa	0.0376663
141	0x3d76a362	0.060214408
142	0xbc0d5578	-0.008626334
143	0x3d3ef1fa	0.046617486
144	0x3cc84630	0.02444753
145	0xbc9f7bc0	-0.019468188
146	0x3ceb44fc	0.028719418
147	0x3d78c83a	0.060737826
148	0x3ce45d24	0.027876444
149	0xbd7b179c	-0.061301813
150	0x3d240d96	0.04005202
151	0x3b6d3c40	0.0036199242
152	0x3d5f18ae	0.054466896
153	0xbc487ff8	-0.012237541
154	0x3d6ada68	0.057337195
155	0x3c345b30	0.011008069
156	0xbcc2787c	-0.023739092
157	0x3cd1cc84	0.025610216
158	0x3c96d1d8	0.018410608
159	0xbd797b76	-0.060908757
160	0x3ca24718	0.01980929
161	0x3d2478cc	0.040154263
162	0xbca414b8	-0.02002941
163	0xbd337796	-0.043815218
164	0x3cb75e70	0.022383898
165	0xbafb5880	-0.0019176155
166	0x3c15dd30	0.0091469735
167	0xbd3fac72	-0.046795316
168	0x3d3fedf4	0.04685779
169	0x3cf99a68	0.030469134
170	0x3c974afc	0.018468373
171	0x3b04a400	0.0020239353
172	0xbc86cf5c	-0.016456299
173	0x3ccaa1b0	0.024735302
174	0x3d4bdffc	0.049774155
175	0xbc7d30d8	-0.01545354
176	0x3ca561f4	0.02018831
177	0xbd5a7af8	-0.05333993
178	0x3d2662a2	0.040621407
179	0xbd2fbf82	-0.042907245
180	0x3d5098c4	0.05092694
181	0x3d05e1e2	0.03268612
182	0xbc172218	-0.009224437
183	0xbd45b616	-0.048269354
184	0xbd7f39fa	-0.06231115
185	0x3d67d00a	0.056594886
186	0xbd435db2	-0.047696777
187	0x3d10389a	0.03521023
188	0x3ba09b10	0.0049012974
189	0x3d3c2ee2	0.04594315
190	0xbd4895e4	-0.04897107
191	0x3c2e1fe8	0.010627724
192	0xbb1dd3a0	-0.0024082437
193	0x3c054b28	0.008135594
194	0xbd0548a6	-0.032539986
195	0x3ccf9534	0.0253397
196	0xbcf8d58c	-0.030375265
197	0x3ccd7f3c	0.025085084
198	0xbd170c94	-0.03687723
199	0xbbcc5be0	-0.0062365383
200	0x3c043130	0.008068368
201	0x3c8f5434	0.017496206
202	0xbab13140	-0.0013518706
203	0xbcea45b4	-0.02859769
204	0x3d40dae6	0.047083758
205	0x3d034c34	0.032055095
206	0x3d3770e6	0.044785403
207	0xbd461742	-0.048362024
208	0x3cd82c5c	0.02638834
209	0xbcab96b8	-0.020945892
210	0xbc8204b0	-0.015871376
211	0xbca8b6d0	-0.020594984
212	0xbd273916	-0.040825926
213	0xbcd65fb8	-0.02616869
214	0x3d0effa0	0.03491175
215	0xbd1dfde6	-0.038572215
216	0xbd190d16	-0.037365995
217	0xbd2f59e8	-0.04281035
218	0x3b9ab2b0	0.0047210082
219	0xbd5ecc2c	-0.054393932
220	0x3c906914	0.01762823
221	0xbd70abdc	-0.058757648
222	0xbd70a72a	-0.05875317
223	0xbc2ea880	-0.010660291
224	0x3a939380	0.0011259168
225	0xbd1ec104	-0.038758293
226	0x3b333a40	0.0027347952
227	0xbd2de80c	-0.042457625
228	0x3cf88ba8	0.03034003
229	0xbb2a9240	-0.0026027113
230	0x3d159c66	0.036526106
231	0xbceef4a8	-0.029169396
232	0x3d78354e	0.06059771
233	0xbd44bfc4	-0.048034444
234	0x3c329d38	0.010901742
235	0x3af37280	0.0018573552
236	0xbcef4cf4	-0.029211499
237	0x3d59114a	0.052995004
238	0x38480000	4.7683716e-05
239	0xbd561670	-0.05226749
240	0xbd149dd8	-0.036283344
241	0xbc76f940	-0.015074074
242	0xbd15e3a2	-0.03659404
243	0xbb355720	-0.0027670339
244	0x3d768f7c	0.06019543
245	0x3ce835a0	0.028345883
246	0xbc85a45c	-0.016313724
247	0x3d1bd3d0	0.038043797
248	0xbbe4e140	-0.0069848597
249	0x3d7a5d62	0.061124213
250	0xbc465278	-0.012104623
251	0xbd4e72fe	-0.050402634
252	0x3bc6ebe0	0.006070599
253	0x3badfac0	0.0053094327
254	0xbce8c59c	-0.02841454
255	0xbc5bb850	-0.013410643

fc2.bias f4 [128]
0	0xbd7c665c	-0.061621055
1	0xbccd36f4	-0.025050618
2	0xbd545c40	-0.05184579
3	0x3d67a21c	0.056551084
4	0xba61f500	-0.00086195767
5	0xbd02bd1c	-0.03191863
6	0xbd0d4336	-0.034487925
7	0x3d1c008a	0.03808645
8	0xbd0f5d28	-0.03500095
9	0x3d046ffe	0.032333367
10	0xbcb8e9e8	-0.022572473
11	0xbc83db0c	-0.01609566
12	0xbd394434	-0.04523106
13	0x3d66a3aa	0.056308426
14	0xbc970bf8	-0.018438324
15	0x3cd7bdbc	0.02633559
16	0x3d34b56e	0.044118337
17	0x3c6007a8	0.0136737
18	0xbd1a2676	-0.037634335
19	0x3cad21d0	0.021134287
20	0x3d30bd7a	0.04314945
21	0x3c90d194	0.01767806
22	0xbc0e7cf0	-0.00869678
23	0x3b9ba9e0	0.0047504753
24	0x3d38d01c	0.045120344
25	0x3d0f42f6	0.03497597
26	0xbd636980	-0.055520535
27	0x3d45427c	0.048159108
28	0x3d4a03fe	0.049320213
29	0x3d784dae	0.060620956
30	0xbcdb9190	-0.026802808
31	0x3d31b166	0.04338207
32	0xbd6fcb24	-0.05854334
33	0xbd38909c	-0.045059785
34	0xbd631fac	-0.055450127
35	0x3d0c3f50	0.034240067
36	0xbc0b62f0	-0.008507475
37	0x3d48e340	0.049044847
38	0xbd4ab0fe	-0.0494852
39	0xbd3ca5e0	-0.04605663
40	0x3d61a4aa	0.055088677
41	0x3d43efec	0.04783623
42	0x3d5b7a36	0.053583346
43	0x3cc64388	0.024202123
44	0xbd47fb0c	-0.0488234
45	0x3d64036e	0.055667333
46	0x3d004870	0.03131908
47	0xbc0cc7a0	-0.008592516
48	0xbc7cb880	-0.015424848
49	0x3b2635a0	0.0025361553
50	0x3d259dbe	0.040433638
51	0xbce7da44	-0.02830232
52	0x3c204ba0	0.009783655
53	0xbc0769a0	-0.008264929
54	0xbcff153c	-0.031138055
55	0xbc584be0	-0.013201684
56	0xbc816220	-0.01579386
57	0xbd4ddb8c	-0.050258204
58	0xbc867194	-0.01641158
59	0xbcb069b0	-0.02153477
60	0x3d0afd00	0.033932686
61	0x3c7823a8	0.01514522
62	0xbc1a4880	-0.009416699
63	0xbd473c7e	-0.048641674
64	0xbb982ab0	-0.0046437606
65	0x3d3e26b2	0.04642362
66	0x3be49890	0.0069761947
67	0xbd6752c2	-0.05647541
68	0xbc65b010	-0.014019027
69	0xbd4965f8	-0.04916951
70	0xbd031ff0	-0.03201288
71	0xbd245152	-0.040116616
72	0xbd27d884	-0.04097797
73	0x3d42848c	0.047489688
74	0x3d3b19f4	0.045679048
75	0x3ae126c0	0.0017177686
76	0xbcfcbfe8	-0.030853227
77	0xbd4d0e20	-0.0500623
78	0x3c46c2d8	0.012131415
79	0x3d3e7f00	0.046507835
80	0xbcef1afc	-0.029187672
81	0xbc78a328	-0.015175618
82	0x3d5988bc	0.053108916
83	0xbc4439d8	-0.011976682
84	0xbcfaa818	-0.030597731
85	0xbd042898	-0.032265276
86	0xbc39f010	-0.011348739
87	0xbb453d20	-0.0030096248
88	0xbd72d2be	-0.05928301
89	0xbd5c2888	-0.05374959
90	0xbce923a4	-0.028459378
91	0x3c9f3ea8	0.019439057
92	0xbd7a3c86	-0.061092876
93	0x3c6e2458	0.014535032
94	0xbc05f568	-0.008176185
95	0x3d66107c	0.056168064
96	0xbd1b4c1a	-0.037914373
97	0xbd746b32	-0.059672542
98	0xbce7ce3c	-0.028296582
99	0xbd4596f2	-0.048239656
100	0x3caab70c	0.020839237
101	0xbc8391f8	-0.016060814
102	0xbd23666a	-0.03989259
103	0x3c08d360	0.008351177
104	0x3ccf4edc	0.025306158
105	0xbd0dc886	-0.034615062
106	0xbd31db4a	-0.04342202
107	0x3d37b5bc	0.04485105
108	0x3cca4a40	0.024693608
109	0xbbad0060	-0.0052795857
110	0xbd00bc12	-0.031429358
111	0xbcb4a474	-0.022051074
112	0x3cd17854	0.025570072
113	0x3c306660	0.010766596
114	0xbc997408	-0.018732086
115	0x3d6fa8c2	0.05851055
116	0x3d0d0d24	0.03443636
117	0x3d543c84	0.051815525
118	0x3b04c2a0	0.0020257607
119	0x3ca2108c	0.01978328
120	0x3d4796fe	0.04872798
121	0x3d0e66da	0.034766056
122	0xbb73fde0	-0.0037230179
123	0xbd2019ce	-0.03908711
124	0xbce2aff8	-0.027671799
125	0xbd436214	-0.047700956
126	0x3c8e1460	0.0173437
127	0xbd448d6a	-0.047986425
